2.NeuralHashing/cifar_net.pth (torch, 241300 bytes, 10 tensors)

conv1.weight f4 [6, 3, 5, 5]
00000000: 2f40 923e 7e32 bd3e da7a 3a3e 592c 87bc
00000010: 6e13 90ba c5d0 023f 6605 063e 3f4f 03bf
00000020: b51c bfbe ae47 f4bc 73b7 ad3e 18ca e4be
00000030: 43eb 30bf 1a9b ecbc 1b39 ca3e 2ae7 e63d
00000040: 5f43 febe 24e9 66be 5240 bf3e 56d5 923e
00000050: e949 0b3d e410 82be 6c6c 273e 782e 043e
00000060: 0053 673c 7fcd 39be a97c 3e3e e236 80bb
00000070: f707 80bd c3dd bebd 3ae7 553e 7435 0b3c
00000080: b25b 01bf 5eb2 bfbe fc6b 9d3d 5490 3b3e
00000090: 7b56 e7be bf9e 1fbf c629 d2bd 1f88 b93e
000000a0: 8dc8 abbd bafe 0dbf ef96 9bbe 40fd 793e
000000b0: b357 3a3e 1940 20be 4128 2abe bfcc 673d
000000c0: 90b8 d23d 7777 573c e18d 43be 49a6 2f3e
000000d0: 0e0d 6bbd dc13 a1be c3dc a5be edc7 203e
000000e0: 3461 163e 80f2 d0be 2e3e d0be 56fa 193d
000000f0: cc83 b53e f9d8 93be 4e50 0fbf 386c 163d
00000100: c738 8c3e e9a5 ae3c 7996 cabe 9e12 22bd
00000110: 6cc3 003f 63db 793e 131c 7b3c d46e 14bd
00000120: d93e bc3e 9bb3 d33e ce59 8c3d 35ef dabc
00000130: f9cd 78be f588 eabd 9342 773e 7719 e73d
00000140: d3c4 62be ef83 29be 473c fa3d b5a3 c63d
00000150: c50c 4bbd ea90 78be 4f23 2b3d 888b 623e
00000160: 5431 443e 3266 61bd 607b 203e ef19 9a3e
00000170: fded 893e 4a9e ee3d c3c3 f03c 3af1 823e
00000180: 38d8 683e 1c9c 53bd 4a2d 95bd 910a 353e
00000190: 92cf 3dbe 9f23 83be fda8 15bd 0568 133e
000001a0: f6ef 47be 10ac b0be 6929 2b3b 7d86 8c3e
000001b0: b24d 2a3e e916 55be a54f 60be ebc1 373e
000001c0: 2460 9e3e 782d 163e 3dbe eabd 8b4b a3bc
000001d0: 9e3b 403e ef97 1f3e f39a 53be 5544 7dbe
000001e0: b6cf 51bd d1c9 c93c 59dd 53be e126 e7be
000001f0: 54bc bbbd 0476 b0bc 9c15 1e3e a0f2 583e
00000200: b199 b93e ec0a 543e ac37 c6bd 0ce2 ad3e
00000210: 4e1d 133f cee6 0a3f 355d 473d c90c 31bc
00000220: 6923 1d3e b664 c63e f88c 563e 7e5d 0ebd
00000230: 77be 013b 1fb6 923e 76aa 8c3e 5997 483b
00000240: dab5 0abe 126e 293e ac24 de3d 0814 05be
00000250: 3199 70be 46d1 d4bd bdf6 163e 6f63 d13c
00000260: e3e6 723d 1d87 a9be 9f0c a83d 6b9c 33bd
00000270: 9602 bfbe 75da 99be 8f3a c1be 9d4c 75be
00000280: 12ab 57be 398b 83be 5879 88be d6d0 e3be
00000290: 5278 7fbe fe63 f9bd ee52 cdbe 5809 dfbe
000002a0: 450b 18bf a46e a9be 2361 44b9 b0fa 69be
000002b0: 9d95 adbd 3c61 4d3d e6cf 183d f8e4 48bd
000002c0: 9ee6 21be e5fc 163b bbab 86be 13dd 1abe
000002d0: f4e8 a0bd c591 b03c ae6e 7f3e cded 033e
000002e0: 167f af3c 9e4a debc 8951 443e b99b e33e
000002f0: 4be5 243e ea53 293e 0397 8cbd 2577 e3bd
00000300: 503c 0c3e a7df f8bd 421f ff3d 1d10 90be
00000310: bc70 9fbe 1fd5 08bd e30a 923d f29b 90bd
00000320: 6549 503d e738 cdbd 69c6 3b3e 8913 06bd
00000330: 1588 d5bd 5065 3b3d 1e49 133d 1613 a13e
00000340: bfe3 cd3e ef6c 463d 4015 013e 6788 e33e
00000350: 94c4 263f a103 143f 2a56 c23e 1cae 6c3e
00000360: 33c3 dd3d aac1 b63e adba 343e 6039 903c
00000370: bd2c 363e f1b8 193e 61ba 6d3e 75c0 6b3e
00000380: 53d7 2c3d 495a e93b b285 f7bc cbc7 8b3c
00000390: 9bc4 0a3d 58cb 3b3a 6c83 1abc 131f aebc
000003a0: 238c 543e afeb 653e 29a8 dfbe 89b9 07be
000003b0: 515d 23bf 553c 183f e24f 133f cfa7 d3be
000003c0: ed3d b43c 3124 82bf c43d 443e 01d4 4f3f
000003d0: 2bc6 6dbd 840b 693e fcbb cbbe fb10 99be
000003e0: 0afc 683e c895 b13d 39e4 78bc 5bba 98bd
000003f0: d5aa 33bb e114 c73c 977c 91be 7038 08be
0.28564593 0.36952585 0.18210927 -0.016500639 -0.0010992119 0.5109981 0.13087997 -0.51292795
-0.3732659 -0.029819336 0.33929023 -0.44685435 -0.6910898 -0.028882552 0.39496693 0.1127456
-0.49660775 -0.22549874 0.3735376 0.28678387 0.034006033 -0.25403512 0.16349953 0.12908351
0.01411891 -0.18144797 0.18602242 -0.0039127925 -0.06251519 -0.093196414 0.20888987 0.008496631
-0.5053054 -0.3744077 0.07686612 0.18316776 -0.45183167 -0.623516 -0.10261874 0.36236665
-0.083878614 -0.55466807 -0.3038859 0.24413013 0.18197517 -0.15649451 -0.16616918 0.056591745
0.10289109 0.013151041 -0.19097091 0.17153277 -0.057385497 -0.31460464 -0.3239499 0.15701266
0.14685518 -0.40810013 -0.4067244 0.037592255 0.35452116 -0.28876474 -0.5598191 0.0367243
0.27387068 0.021319347 -0.39567927 -0.039568536 0.5029819 0.24400096 0.015326518 -0.036238506
0.367667 0.41347966 0.068530664 -0.02672539 -0.24297322 -0.11451904 0.2414649 0.11284154
-0.22145395 -0.16554235 0.12218528 0.096991934 -0.049572725 -0.2427403 0.04178172 0.2212354
0.19159442 -0.0550291 0.15672064 0.3009791 0.26939383 0.11651285 0.029390221 0.25574666
0.22738731 -0.05166255 -0.07284029 0.17679812 -0.18536213 -0.25613114 -0.036538113 0.14395149
-0.19525132 -0.34506273 0.0026117212 0.27446356 0.16631201 -0.20809521 -0.21905382 0.17945068
0.30932724 0.14665782 -0.11462066 -0.019933483 0.18772742 0.15585302 -0.20664577 -0.24733098
-0.05122348 0.024632366 -0.20689906 -0.4514685 -0.0916678 -0.02154065 0.15437931 0.21186304
0.3625007 0.20707291 -0.09678587 0.33961523 0.5746659 0.5425843 0.048672874 -0.010806271
0.15345539 0.3874871 0.20952213 -0.03475713 0.0019797364 0.28654572 0.274738 0.0030607788
-0.13545933 0.16545895 0.10846838 -0.12995923 -0.23495938 -0.10391478 0.1474256 0.025560109
0.059302222 -0.33110896 0.08205532 -0.043850344 -0.3730666 -0.30049482 -0.3773999 -0.23955007
-0.21061352 -0.25692156 -0.26655078 -0.44495267 -0.24948242 -0.12177275 -0.40102333 -0.43561816
-0.59392196 -0.33092225 -0.00018728203 -0.22849536 -0.08475802 0.050141558 0.037307642 -0.049046487
-0.1581063 0.002303892 -0.26302895 -0.15123396 -0.07856932 0.021553883 0.24944565 0.12883683
0.021422904 -0.02713519 0.19171728 0.44454744 0.16103093 0.16535917 -0.06864741 -0.111067094
0.13694882 -0.12152033 0.12457134 -0.28137293 -0.31140697 -0.033406373 0.07130983 -0.07060994
0.050851244 -0.10020619 0.18337406 -0.032733474 -0.10426346 0.045750916 0.0359584 0.31459874
0.4021282 0.04844373 0.12605762 0.44440004 0.65143704 0.5781804 0.37956363 0.23113292
0.10828247 0.3569463 0.17649336 0.017605484 0.17790504 0.15011956 0.23215629 0.23022635
0.042197537 0.0071213585 -0.030215118 0.017063042 0.033878904 0.00071637845 -0.0094307475 -0.021255052
0.20756583 0.22453187 -0.43682984 -0.1325437 -0.63814265 0.5946706 0.57543766 -0.41338965
0.022002185 -1.0167295 0.19164187 0.8118287 -0.058050316 0.22758299 -0.39791858 -0.29895768
0.22752395 0.08671147 -0.015191131 -0.074574195 -0.0027415056 0.024301948 -0.28415367 -0.13302779

conv1.bias f4 [6]
00000000: d582 dd3d ae9d b53e cd3b 583f a01e 253d
00000010: 5307 bfbe ffd5 19be
0.1081597 0.35471863 0.8446625 0.04031241 -0.37310275 -0.1502304

conv2.weight f4 [16, 6, 5, 5]
00000000: d8b7 57bd eceb 723c 3f0e f83e ce76 063d
00000010: 8857 b3be d242 b1bd bc5d 3ebe ed76 dd3e
00000020: 5556 58bd a322 4fbe c4c6 bb3d d742 843e
00000030: 9342 4b3e a62e 9fbe 57b7 0f3d 3331 383e
00000040: e27e 413e c51f 233e f6e2 39be 3086 94bd
00000050: e75e ac3c 3fb6 223e 84bd cbbe dd20 4dbd
00000060: 97d2 133e 9fb7 0a3d bcf0 953b 9786 163d
00000070: 7d39 11bd c582 813e 25a8 88bd 41b3 01bd
00000080: f200 0abd da3b 20be d869 3a3e 450a 8abd
00000090: beb1 a9bd 0833 c2bc 872d 0fbc b6b3 643e
000000a0: e86e ec3d 52a9 6c3d 4650 893d 6b2b 703c
000000b0: 6392 323d ed7c a53d 94f4 053c b4ed aa3e
000000c0: 74e7 333e 94e3 4d3e a5a8 0b3e d866 ccbd
000000d0: 8730 ecbd 10fa ce3d f48a 9c3e cea9 36bc
000000e0: 6b40 bbbd 0b4e f6bd 6f51 273d 97de 6e3e
000000f0: 8077 7a3d 32f6 ad3d ae55 f53d 9d41 823d
00000100: f0d1 f13d f7e1 a23d 2595 1c3e c72c 243e
00000110: e142 18be bcd6 6bbe ecf1 8f3e b683 533d
00000120: 00b7 88bd e320 70be 7c42 aabd 05a3 853e
00000130: 5486 9dbd c501 f0bd e54c 5b3e 663c 0bbe
00000140: ea86 88bd ffc0 8abd befa 223e 864c 143e
00000150: 1a46 fb3c d5c9 56be e2c4 eabe 5c93 343e
00000160: c277 523d 6f18 0dbd 012a f4bd 73ec 87be
00000170: 16c0 dc3e d56a bc3d 98c5 b3bd 94e9 753d
00000180: 4f47 79be c467 8c3e 3986 e43d ced4 b13d
00000190: d3b7 5b3c bca0 62be 621d adbd c452 53be
000001a0: a0cf 6fbd 0063 8bbd 4835 75bd f785 033e
000001b0: 239a 9e3c 63c6 cfbd edee a23d c24c 5b3d
000001c0: f2a2 13be ecb3 88bd 2402 a1b8 ba84 18be
000001d0: 1351 17bd 5898 4bbe d10d 14be 8473 00be
000001e0: 8aee 373d 35ee 573c 570d 833b dce1 63bd
000001f0: 7a32 29bd 0955 55be ee8d 06bf ee3c 08bf
00000200: e6ff 03bf f6c3 9ebe a9c7 77bd 616b c7bc
00000210: 8678 90be 68bb edbc 2624 f5bd d4ba 02be
00000220: 04e4 c9bc f9ad c93d ff7c f8bd cebe 85be
00000230: 4816 ea3b 02f0 f23d f5f9 683d b620 ea3c
00000240: 0f29 6ebe cc9f 4b3d d657 5cbd c2b9 38be
00000250: 576c e5bd 3116 22bc 33d3 3e3b 374d d1be
00000260: 4e4f 80be a795 c1be 4864 5dbd 10dc 303e
00000270: 4b92 91be f646 28be eff6 dbbe 590c 81bd
00000280: 9149 a93e 1870 e8bb 5fdb 083f cf95 67be
00000290: abce 07bd 581e b23e aa1f 8dbd 16be b93e
000002a0: 4b6c 45be 5fe3 b83e 4e55 09bd 2e26 2abe
000002b0: eb1b 333e b5d1 2e3d fe63 d13d 145c 4d3e
000002c0: e956 9f3c f631 a5be 0e03 9bbc 082d 5bbd
000002d0: d7af 40bd e14d 043c f404 d1bd 6967 8a3e
000002e0: e8f2 afbd 8194 a6bd f607 83bc 9b7f 67bc
000002f0: 6d97 cd3d 6b98 11be ea30 b93c 16d8 2dbe
00000300: 03b5 57bd 73d5 533b 43c0 6bbd b4a0 9fbd
00000310: fa95 be3d bfa3 86be b471 d43d 51c9 a0bc
00000320: d09d f03c 7534 b63e aa8d 953d a3a6 5f3d
00000330: e8e9 de3c cb7a 4ebe dfdf 803d fc3c 78bc
00000340: e652 f23d dc3c c63d 1942 ebbd c6c6 66bd
00000350: ad76 773c 3a2a 59be 4cd5 85bd 99e1 d83c
00000360: cd39 b63d 1491 ff3c 0e8e 4fbd e66c 0fbe
00000370: bee1 cb3d 113c 0a3e acc8 443e b585 2abd
00000380: 6548 93be 06d0 053e 92d8 44be 8260 e1bd
00000390: 148d 4a3d b547 af3d 8f4b 6a3d 8493 b3be
000003a0: 2b53 82be 445f ffbb 7a49 79bd 4c74 053e
000003b0: 088b aebe c2f9 b4be 469b 52bc 376d ecbc
000003c0: 403a 613e dba8 80be b3e3 f73d af18 f03e
000003d0: 0b41 dd3c cc01 253e e028 5ebe a6db 9b3e
000003e0: 5917 e23e 759c 9bbe eb7b 8dbe bbdb 8ebd
000003f0: 285b 28bd 30a4 96be b857 11be c8df ad3d
-0.05266556 0.014826756 0.4844837 0.032828145 -0.3502772 -0.08655323 -0.18590444 0.43254796
-0.052816708 -0.20228057 0.09168771 0.25832245 0.19849615 -0.31090277 0.035086956 0.17987518
0.18896058 0.15930088 -0.18152985 -0.07252157 0.021041347 0.15889834 -0.39793026 -0.05008017
0.14435802 0.03386652 0.004575817 0.03674945 -0.035455216 0.25295082 -0.06672696 -0.03166509
-0.033692308 -0.15647832 0.18204439 -0.0674024 -0.08285855 -0.023705974 -0.008738882 0.2233418
0.11544591 0.057778664 0.06704764 0.014658789 0.043596637 0.08080468 0.008175988 0.33384478
0.17568761 0.20106345 0.13638552 -0.099805534 -0.11532693 0.101062894 0.30574763 -0.011148883
-0.09143146 -0.12026604 0.040849146 0.23327099 0.06114912 0.08494224 0.11979233 0.06360171
0.118076205 0.079532556 0.15291269 0.16032706 -0.14869262 -0.23031133 0.2811426 0.05163928
-0.066755295 -0.23450045 -0.08313462 0.26100937 -0.07691637 -0.117190875 0.21416052 -0.13597259
-0.06666358 -0.06775092 0.15915963 0.14482316 0.030673075 -0.2097543 -0.45853335 0.17634338
0.05138374 -0.03444713 -0.11922074 -0.26547584 0.431153 0.09200064 -0.087779224 0.06003721
-0.24343608 0.27422917 0.111584134 0.086831674 0.013410526 -0.22131628 -0.0845287 -0.20637041
-0.058547616 -0.06805992 -0.059865266 0.12844072 0.019360607 -0.10145261 0.07955728 0.05354
-0.14417627 -0.066749424 -7.677477e-05 -0.14894381 -0.036942553 -0.19882333 -0.14458396 -0.12544066
0.044905223 0.013179352 0.003999393 -0.05563532 -0.041307904 -0.2083322 -0.5256032 -0.5321797
-0.51562345 -0.3100888 -0.060493145 -0.024343194 -0.28216952 -0.029020026 -0.119697854 -0.12766582
-0.02464486 0.09847636 -0.12133216 -0.26122135 0.0071437694 0.11862184 0.056879003 0.02858005
-0.2325785 0.04971294 -0.053794704 -0.18039611 -0.11202305 -0.009892986 0.0029117584 -0.40879223
-0.25060505 -0.37809488 -0.054050714 0.17271447 -0.28431925 -0.1643332 -0.42961833 -0.06301183
0.3306394 -0.0070934407 0.53459734 -0.22615741 -0.03315608 0.34788775 -0.06890805 0.36277837
-0.19279592 0.3611097 -0.03352862 -0.16616127 0.17491119 0.04268046 0.1022415 0.20054656
0.019450622 -0.3226468 -0.018922355 -0.053509742 -0.047042694 0.008075208 -0.10206023 0.2703202
-0.085912526 -0.081337936 -0.015995007 -0.014129545 0.10038648 -0.14218299 0.022606332 -0.16976961
-0.05266286 0.003232327 -0.057556402 -0.077943236 0.093059495 -0.26296803 0.1037325 -0.019627245
0.029372126 0.35586897 0.07302411 0.054602277 0.027211145 -0.2016403 0.062927 -0.015151259
0.11832218 0.09679577 -0.114872165 -0.05634191 0.015103978 -0.21207514 -0.06534824 0.02647476
0.088977434 0.031197108 -0.050672583 -0.14006385 0.09955166 0.13499476 0.19217175 -0.04163142
-0.2876617 0.13067636 -0.1922324 -0.110047355 0.04945095 0.08558599 0.057200965 -0.35073483
-0.25454077 -0.007793339 -0.06086109 0.13032645 -0.34090447 -0.353468 -0.012854403 -0.028860671
0.21994877 -0.25128826 0.12103977 0.46893832 0.027008554 0.16113967 -0.2169528 0.30441016
0.44158438 -0.30392805 -0.27633604 -0.06975504 -0.04110256 -0.2942214 -0.14193618 0.084899485

conv2.bias f4 [16]
00000000: e7a7 f7bd 15d1 e1bf fb98 3ebe 3685 82be
00000010: ddb6 7cbf 2f45 7c3d a468 593e 845d 13bf
00000020: f305 c13e 2cc1 f53e 797a e63d 2ea5 98be
00000030: ce9a 7a3f 2dd4 c1be 53e4 38bf c2bc 39bf
-0.12092572 -1.7641932 -0.18613045 -0.25492257 -0.9871653 0.061589416 0.21231323 -0.5756457
0.3769985 0.4799894 0.112538286 -0.29813522 0.97892463 -0.3785719 -0.72223395 -0.72553647

fc1.weight f4 [120, 400]
00000000: a0df bf3c 6734 273e 3db5 a73d 550b 25bd
00000010: 7c0b 18be a0fb 8c3d e37c 153d 7e75 ca3b
00000020: 31b3 b1bd 2019 b3bc ec98 37bd 41d9 323d
00000030: 30d1 963d 766e 493d 488f 703c db13 843d
00000040: ba01 b63c 26aa aebd fd7e 4a3d 9a54 6bbd
00000050: 3dc3 733d 458d 8d3d 4818 0e3c 0828 95bc
00000060: 9344 2d3e 2445 49bc a69a 91bd 1bf4 2fbe
00000070: 3f73 693d 056e 5fbd 02e1 aebd 0335 3f3d
00000080: 0731 d43c 08b2 e4ba 5e11 25be 3c5c 163e
00000090: 1d0c 95bd 2f5e dbbc 3979 8abc fb6f 0c3e
000000a0: 2d75 e8bc 8882 683d 85b4 49bb 5add 2ebe
000000b0: 7d56 863c cfa7 3ebd eb83 a63d 0613 dcba
000000c0: 5b13 e23d ec9f b13b d4fe 9b3c a1fc 87bd
000000d0: 0df7 c0bb 94f1 a53c d678 8cbd 1391 68ba
000000e0: c72c 01be 50af b8bd 2df7 27bd edd7 c0bd
000000f0: 45cf 063e cf8b 8ebd bc86 a93c 866c e0bc
00000100: 8bf4 74bd 10d8 12bc c281 26be 646f a4bd
00000110: a9a9 c43d 3f7b 3b3d 01c5 9b3c 0ec4 3a3d
00000120: 1548 cf3c 91b8 983d bbd7 14be a14b d8bd
00000130: 4aa1 a5bc a4c6 a7bd 897b 1dbe 024b 10be
00000140: 6e61 59bc 8482 323d 1668 483c e9d2 383d
00000150: 9ffa 41bd 0045 d3bd 2763 d1bd c436 933d
00000160: 3c55 fcbd d1a9 2cbd dbe6 583d 3589 8c3d
00000170: eb43 f73d 1b95 933c 3a86 91bc 3e00 963b
00000180: 2b54 953d 8539 85bc c3c9 59bd 7cc1 e83d
00000190: b1a9 7c3c 30f8 133d 71de 20bd 5c98 193c
000001a0: 0602 803d 7c04 1d3c 4df5 b4bd 89aa a1bd
000001b0: 774f cbbd ea52 e1bd 6816 b0bd 2af1 31be
000001c0: 54c1 4bbd f45c 04bd e4ef 6e3d 8f26 06be
000001d0: 7d9d 10bc fa68 4bbd 9e7a 1abd f80b 83bd
000001e0: 87df ca3d a58c 45bc 7241 cfbb b86e 35bd
000001f0: b710 be3c 5b1a 253d ac62 3cbc eac2 cfbc
00000200: ea0e f7bd 10c6 1ebe a7f0 1bbd 006b f73d
00000210: 41e7 2bbb 4251 5b39 e307 cb3d 92a1 0e3d
00000220: 05b1 b83b f8a8 9d3d da13 6b3d 9174 59bd
00000230: 0fb0 273d a7bd 083e d493 d03d 28dc b5bc
00000240: 6b63 a93c 8d07 7f3d 922d 87bd 0b9b b0bb
00000250: 5b2f 053d 2174 c3bc 7156 443d c09c 7eba
00000260: bc98 cf3d 43b4 67bd 6a7f aebd 27bf 1a3d
00000270: 1680 fc3c 6072 9f3d 2fb3 35bc c68a 26be
00000280: 745a 94bc 1a91 6dbd 5133 e23d bb6c afbc
00000290: db91 2abc 0024 af3d c8bc a3bd a977 6abd
000002a0: 1c18 373d 7aa5 cd3d 8e80 543d 16bd 50bd
000002b0: ed27 0c3c 66b0 863d 93f2 ad3d e244 a8bd
000002c0: 3370 1e3e 0c50 94bd 1569 abbc 07f1 0f3d
000002d0: d4b8 babd 2bc3 aa3d a2c2 d23d ecf0 133d
000002e0: d7fb 213e 4735 213e 00cf ddbc 99c5 89bc
000002f0: e9ec d23d 5bd1 4bbc 5558 173e 56d8 79bd
00000300: 32c6 e9bc 6003 e53c 2798 8cbc 7522 4b3e
00000310: 3383 943b 6e13 3b3e c6c0 133e 3ced 393e
00000320: 33d6 0bbe f0dd d03c d954 e93d 7b6f de3d
00000330: 9c24 84bc 3f76 9a3c 6070 853d 081a 24bc
00000340: dace d23c 32a2 f23d 1a81 5dbd 3685 9b3d
00000350: 299a f7bd c336 8a3d 77e5 03bd 75df 7abe
00000360: 0602 943b 4afe 483d e040 e53c 9b78 d53d
00000370: 782d f1bd 9ab5 72bd e624 e6bc bef1 2cbe
00000380: 509e fdbd 7c03 583d b967 d53d d6f5 9ebc
00000390: 2cc7 f13c 9121 ac3d 01f3 983b f028 583d
000003a0: ed72 993d eb01 2bbd a305 fdbd 8c26 a83c
000003b0: c61b 90bd 077d 003c af16 193d b6d5 663d
000003c0: a23e ff3d 962b 43bd b6e7 31bc 22f0 893d
000003d0: 77f8 b1bd db11 973d dfc4 ccbd 8e7e df3d
000003e0: 1815 c83a 1741 bdbb e130 9c3d b437 f93c
000003f0: d298 aebd 2e19 e0bc f457 f13c 3421 e53d
0.023422062 0.16328584 0.08188865 -0.04029401 -0.14848131 0.06883931 0.036496054 0.006178557
-0.08676756 -0.021862566 -0.044823572 0.04366422 0.07364118 0.04917761 0.014682598 0.064491
0.02221762 -0.08528547 0.04943751 -0.05745373 0.059512366 0.06911711 0.008672781 -0.018207565
0.1692069 -0.012284551 -0.07109575 -0.17182963 0.056994673 -0.054548282 -0.085390106 0.046681415
0.025902284 -0.0017448077 -0.16119906 0.14683622 -0.07277701 -0.026778309 -0.016903507 0.13714592
-0.028376186 0.05676511 -0.0030777764 -0.17076626 0.016398663 -0.046546753 0.0813063 -0.0016790337
0.11038848 0.0054206755 0.01904241 -0.06639982 -0.0058888257 0.020256795 -0.06858985 -0.00088717154
-0.12614737 -0.09017813 -0.04100721 -0.094161846 0.13165005 -0.0696026 0.02069413 -0.027395498
-0.059803527 -0.008962646 -0.16260436 -0.080290586 0.096026726 0.045771834 0.019014837 0.04559713
0.025302926 0.07457078 -0.1453542 -0.105613 -0.02021851 -0.081921846 -0.15379156 -0.14091113
-0.013267858 0.0435815 0.012231847 0.045123015 -0.04735815 -0.10315895 -0.1022399 0.0718818
-0.12320945 -0.042154137 0.052954536 0.06862108 0.12073501 0.018015435 -0.0177642 0.0045776656
0.072914444 -0.016262779 -0.05317093 0.11365029 0.015421317 0.036125362 -0.039274637 0.009374704
0.06250386 0.009583589 -0.0883585 -0.07893855 -0.09927266 -0.11002143 -0.08598024 -0.17377153
-0.04974492 -0.03231521 0.058334246 -0.13100646 -0.008826611 -0.04966066 -0.037714593 -0.06398767
0.09905916 -0.012057458 -0.0063249404 -0.044295043 0.02320133 0.040308338 -0.011498135 -0.025361497
-0.120633915 -0.15505242 -0.0380713 0.120809555 -0.0026230367 0.00020915738 0.09913614 0.034822054
0.0056363367 0.07698244 0.05739198 -0.053089682 0.040939387 0.13353597 0.10184446 -0.022199705
0.020677289 0.06226306 -0.06600489 -0.0053895763 0.032515865 -0.023859086 0.047934 -0.00097126886
0.10136554 -0.056568395 -0.08520396 0.037779953 0.030822795 0.07785487 -0.011090084 -0.16263875
-0.018109538 -0.057999708 0.11044944 -0.021414151 -0.010410751 0.08551788 -0.079949915 -0.057243023
0.044700727 0.10041328 0.05188041 -0.050961576 0.008554441 0.06576614 0.08493533 -0.08216263
0.15472488 -0.0724183 -0.02092413 0.03514197 -0.091172844 0.083380066 0.102910295 0.036118433
0.15818726 0.1574298 -0.027076244 -0.016817855 0.10299093 -0.012440051 0.1477979 -0.06099733
-0.02853689 0.02795571 -0.017162396 0.19837363 0.0045322417 0.1826913 0.14429006 0.18156904
-0.1365593 0.025496453 0.113931365 0.10861107 -0.016130738 0.018855212 0.065155745 -0.010015972
0.0257334 0.118473426 -0.0540782 0.07593767 -0.120899506 0.06748726 -0.032201257 -0.24499305
0.004516843 0.049070634 0.027985036 0.10423394 -0.117762506 -0.05925522 -0.028093766 -0.16889092
-0.12383711 0.052737698 0.10420174 -0.019404333 0.029513918 0.0840484 0.00466764 0.052773416
0.074926235 -0.041749876 -0.12354591 0.020526193 -0.07036547 0.007842309 0.03737515 0.056356154
0.12463118 -0.04764899 -0.010858467 0.06735255 -0.08689969 0.073764525 -0.09998488 0.1091281
0.0015265075 -0.0057755816 0.076265104 0.03042207 -0.08525242 -0.027355757 0.029460885 0.111879736

fc1.bias f4 [120]
00000000: b67d 14be a8d0 1e3c f777 b2ba e4a5 24bd
00000010: 2e6d 083d b71c 77be 12ff 2f3e 1e73 26bc
00000020: f0cb 893d b1a7 83bc 9354 2b3e 7b31 073e
00000030: eea9 11bd 6555 5cbd 4dff 8c3e 01a3 c63e
00000040: 8025 bcbd 05b1 2b3e fd4d e93d fb34 573e
00000050: f28c 6fbe 6a09 bd3d 7445 a4bd 8aed 54bd
00000060: c612 38be f19e aebd ce2a d43c ccd8 543d
00000070: fa9d 9ebe 4ff4 7a3d 42fa bc3c 1e9e 06bd
00000080: 1d8f f53d 4a8e 563d 8ca2 063c d2bf 863e
00000090: 2ea6 91bd 3453 ad3d 544f 9c3c 945f e73d
000000a0: 7869 c0bd 6de2 86be 5a77 323e 91c6 173d
000000b0: 68c1 603e 6807 bc3d 39eb cbbd 8816 ae3d
000000c0: 816e 373e 9217 13be f1c4 e43d 6061 d03c
000000d0: 5d9e 34be 9481 6fbe 078e a13d 71c0 473e
000000e0: ae2a abbd 1100 1fbe 28e7 2bbd d8ad 623e
000000f0: fc07 00bd cd16 23be a031 683d 1957 ec3d
00000100: 605f 71bd 05cd 823d 4e96 8ebd 5d51 49be
00000110: 1bfc 7d3d 8f82 18bd 1e48 313e a2de a63d
00000120: 5dee b0bc 6e97 433e c592 073e 7303 473d
00000130: 5bfe 853d 20fb debd 1d4b f93d 8eae ffbc
00000140: 9543 5c3e f659 42bd 1866 bb3b 87a4 c7bc
00000150: 4d6a 853d 2294 67be 1099 323e 413c e83b
00000160: 6d5d 4dbe a8b9 ae3e 785c 103d a4ec c33c
00000170: 93a4 6639 5936 fabd e512 11be 4c06 323d
00000180: 4484 243e 9c6e fc3d 9c4a 91be 55e1 8c3e
00000190: 030f a1ba d848 13bd 6c4d a2bc e600 31bc
000001a0: e26e 413e 42a2 453d 6378 61bd 8e37 d1bc
000001b0: f482 f6bc 51be 673d 8025 fdbd 73b6 7b3d
000001c0: 1e75 36be 3932 383e 5536 18be 5b23 8f3e
000001d0: 645a d7bd fc2c 9a3e 845e 36be 5ed6 82bd
-0.1450108 0.009693302 -0.0013616075 -0.040197268 0.033307247 -0.24132048 0.17187145 -0.010159282
0.06728351 -0.016071172 0.16731481 0.13202469 -0.03556245 -0.053792376 0.2753853 0.38796237
-0.0918684 0.16766746 0.11391828 0.21016304 -0.2339361 0.09230311 -0.0802106 -0.051984347
-0.17975911 -0.085264094 0.025899317 0.051964566 -0.30979902 0.061268147 0.023068551 -0.032865636
0.11990187 0.05238179 0.008217465 0.26318222 -0.071117744 0.08463135 0.019080795 0.11297527
-0.093951166 -0.26344624 0.17428342 0.037054602 0.21948779 0.091811 -0.099569745 0.08500391
0.17913248 -0.1436446 0.11170376 0.025437057 -0.17638536 -0.23389274 0.07888418 0.19507004
-0.0835775 -0.15527369 -0.041968495 0.22136629 -0.031257614 -0.15926667 0.05668795 0.1154005
-0.058928847 0.063867606 -0.06962262 -0.19659944 0.062008005 -0.037233885 0.17312667 0.081479326
-0.021598035 0.19100735 0.13239582 0.048587274 0.06542655 -0.10887742 0.1217253 -0.031211164
0.21510155 -0.047449075 0.0057189576 -0.024370445 0.06514416 -0.22615102 0.17441201 0.007087261
-0.2005517 0.3412602 0.035244435 0.02391655 0.00021995818 -0.12217397 -0.14167364 0.043463036
0.1606608 0.123257846 -0.28377235 0.27515665 -0.0012287799 -0.03595814 -0.019812308 -0.010803437
0.18889955 0.048250444 -0.05504645 -0.025539186 -0.03009174 0.056577984 -0.12360668 0.061453294
-0.17818114 0.17987908 -0.14864476 0.27956662 -0.105152875 0.30112445 -0.17809492 -0.063885435

hash1.weight f4 [64, 120]
00000000: 22cf 5d3c 96ff 62bc f8bf 403d f380 b1bd
00000010: 9afd aabc f880 8bbd 81a0 193d b9dc 333d
00000020: adcc cabb c113 623d 4478 663c 38d0 0dbe
00000030: 6ca6 41be d191 d53d f46a 3d3d a707 0dbe
00000040: aa67 09be 6e59 fbbd 2913 f43d 1f9e b23d
00000050: 68e8 9a3d 6daa 04be 1045 0a3d 333f 5cbd
00000060: d1f3 83bd bda3 6a3b 93d5 07bd 1bef 893c
00000070: 3759 173e b43f 2abe c1d3 75bd 9cd8 7f3d
00000080: f684 efbc e7b1 bebd dcea 30be b780 a93b
00000090: b32e 55be 53ba 213e 8010 34bc fb4d 543c
000000a0: 745f 1b3e cd19 0cbd 6d76 463c 0ff3 fd3d
000000b0: 4111 25be 5960 6bbc 9c77 c93d 97e6 ee3c
000000c0: 231f f7bb 0fd6 c63d 2537 163d 2f97 39be
000000d0: 63de 473d 50a8 4e3d c75f edbc 16d3 15be
000000e0: e170 47bc 8126 693c 309e 1c3e cee3 543c
000000f0: 8525 88bd 9ff9 5fbd 0bfa 343d 76c1 94bd
00000100: 5a5c 35bc 075e 6c3d e027 5bbd 699f 92bc
00000110: 83fa b7bc accb 46be cf46 4cbd bd83 0f3e
00000120: 82e2 f1bd 61f0 eebd 26ce 8e3d 5bc4 56bd
00000130: 8d13 ee3d bf29 15be d7d8 17be ee45 4fbd
00000140: 7e82 cabc 5418 a73b de2f 0dbb 3dff 14bd
00000150: f8d5 9f3c 18d2 f03b 9125 9ebd 001b d83d
00000160: 97d6 ce3d 92dc 0cbe d3fb a5bd 4273 2dbc
00000170: bd29 033d acc8 073e fd67 54bd 0a14 0cbd
00000180: c614 c1bd cf5d 9a3a d59a 833d 79ca c03d
00000190: d479 5abe 0f89 8abc 3bd6 5a3d afce 23bd
000001a0: a141 0bbe 22aa 37be 06f4 ccbc 78f5 413e
000001b0: ae79 02bd e33a 1c3e 24a8 f1bd a76b ca3d
000001c0: 59aa d23c 83f9 a1bd ef6b 0fbe abbd d13d
000001d0: d3d2 10bd 06ba 283a 7787 a0bc 70f9 b73d
000001e0: 6c18 183b a208 d33c 9ac6 1e3d 010f c1bd
000001f0: 0da3 25be 873a d03d 183b 213c 8a4d 4abd
00000200: 0459 8c3c f914 43bd d5ce f03c e4bf 2b3d
00000210: c473 e4bd e2a3 33bd d050 a9bc b67f 32be
00000220: 944d 9ebc b30e c4bd b1c1 2bbd afcc 8f3c
00000230: 6374 cb3d 3862 59bd 11da c23c ee66 24bd
00000240: 0a00 4b3d fc6e 85bd c963 a0bc 45e4 c4bd
00000250: 847b aa3d f112 923b 8223 9b3b 7348 9dbd
00000260: e736 cdbc 6f20 39bc 42cd a0bd cd2d 023b
00000270: 0f8b 0cba cffc 8dbd 5cd8 913d df9a 64bd
00000280: 3ee3 103c f42d f2bd b15f 9dbd dec8 80bc
00000290: e904 2dbd 6482 883d abb1 9e3d a266 a6bd
000002a0: 8c78 92bc 4db3 8cbc d7cc 323d dbf7 363e
000002b0: 3c16 c03d 41c9 863d 5d3c 69bd 06ea ac3d
000002c0: 2f2f 703d a074 f2bd 2537 0abe fd82 99bd
000002d0: fcff 41bd 4940 553d d1ad b7bd ab6e 9d3c
000002e0: 0e37 633d 2057 edbc 572a 523d 5a62 49bd
000002f0: 8843 ca3d 89ea d53d b910 babd 594c 6e3d
00000300: 7148 1fbc 94b2 903d c7d8 04be 5686 2ebd
00000310: b871 b03b ea11 9f3d d056 62bd f2ce 533d
00000320: 3abe 94bc eca7 aabb 235e 343d 37f6 19bd
00000330: 0066 95bd 319e a23d 98d3 97bc e444 a5bd
00000340: 19ad 3d3c 0cb0 b8bd 765c 9b3d fbac 043d
00000350: 8387 653d e731 1bbd 0d8f 38bd 5d61 3a3d
00000360: 7f73 553c 7050 c4bd 9e10 e33d 26fb 0ebc
00000370: 17e5 10bd 8601 d93c d44a f33d 2eaf cebd
00000380: 5552 b7bc 7ee0 bcbc 0963 043e edd1 25be
00000390: 2382 1cbd 5a6e 893d f356 ac3d 2257 1c3d
000003a0: 629b c5bb 5242 b9bd 21de 7dbd 2794 b8bd
000003b0: 7185 39bd f0c3 4b3d d339 253e 9bea c1bd
000003c0: 9fc8 6bbd 85b0 823d 27ba c5bd b166 4b3e
000003d0: 59c3 39bd 473b a0bd be63 f53d 43ea 74bd
000003e0: 0117 d3bd 9273 1d3e 452a 133e 5f34 24bd
000003f0: 20f6 4d3e a1d8 9c3c 960a 3abe 1ca6 733d
0.013538154 -0.013854882 0.047058076 -0.08667173 -0.02087288 -0.06811708 0.037506584 0.04391167
-0.00618895 0.05519462 0.0140667595 -0.1384896 -0.18911141 0.10428203 0.046244577 -0.1377245
-0.13418451 -0.12272917 0.11917717 0.087215655 0.07563859 -0.12955637 0.03375727 -0.05377121
-0.06442989 0.0035803162 -0.033162665 0.016837647 0.14780127 -0.16625863 -0.060016397 0.062462434
-0.029238205 -0.09311276 -0.17277092 0.0051728147 -0.20818596 0.15793733 -0.010990262 0.012958045
0.15173131 -0.034204293 0.012113196 0.123998754 -0.16119863 -0.014366233 0.09837267 0.029162688
-0.0075415536 0.09708797 0.036673684 -0.18124078 0.04879607 0.050453484 -0.028976334 -0.14631304
-0.0121729085 0.014230371 0.15294719 0.012993766 -0.06647781 -0.054681417 0.044183772 -0.07263462
-0.011069382 0.05770686 -0.053504825 -0.017898278 -0.02245832 -0.19413632 -0.049872216 0.14015098
-0.11810781 -0.116669424 0.069729134 -0.052433353 0.11624823 -0.14566706 -0.14828812 -0.0506038
-0.024720427 0.0050993357 -0.0021543424 -0.036376227 0.019511208 0.007349264 -0.07722009 0.10552025
0.100995235 -0.13756016 -0.08104672 -0.010586562 0.032022227 0.13260144 -0.051856983 -0.0341988
-0.0942779 0.0011777225 0.06426016 0.094136186 -0.21335536 -0.016911058 0.053426962 -0.03999203
-0.13599254 -0.17935994 -0.025018703 0.18941295 -0.031854324 0.15256839 -0.117996484 0.09883814
0.025715994 -0.07908919 -0.14006017 0.102412544 -0.035357308 0.0006436411 -0.019595845 0.08983123
0.0023207916 0.025760952 0.03876362 -0.0942669 -0.1617548 0.10167413 0.009840749 -0.049390353
0.01713229 -0.047627423 0.0293955 0.041931048 -0.11154893 -0.043857463 -0.020668417 -0.1743153
-0.019324102 -0.09573116 -0.041932765 0.017553655 0.099343084 -0.053072184 0.023785623 -0.040137224
0.049560584 -0.06515309 -0.019578831 -0.096138515 0.0832434 0.0044578244 0.0047344575 -0.07679834
-0.025050594 -0.011299237 -0.0785165 0.0019863725 -0.00053612975 -0.06932985 0.071213454 -0.05581176
0.008843241 -0.11825171 -0.07684267 -0.015720781 -0.04224101 0.06665495 0.07748731 -0.081250444
-0.017879747 -0.017175341 0.04365238 0.17867987 0.09379241 0.06581355 -0.056942333 0.08443074
0.058638748 -0.11838651 -0.13497598 -0.07495687 -0.047363266 0.05206326 -0.089687 0.01921781
0.055472426 -0.028972208 0.05130991 -0.04916606 0.09876162 0.10445125 -0.09085221 0.05817828
-0.009721861 0.07065311 -0.12973319 -0.04260858 0.00538465 0.07767089 -0.055258572 0.05171103
-0.018157113 -0.005208006 0.04403509 -0.037588324 -0.072948456 0.07940329 -0.018533513 -0.080697805
0.011576914 -0.09017953 0.07585995 0.03239153 0.056037437 -0.037889387 -0.0450583 0.04550301
0.013028025 -0.09585655 0.11087154 -0.008726871 -0.035374727 0.026489984 0.11879507 -0.100920066
-0.022378126 -0.023056265 0.12928404 -0.16193362 -0.038210046 0.06710501 0.08415022 0.038169034
-0.006030486 -0.09045853 -0.061979417 -0.09012633 -0.045293275 0.049747407 0.1613534 -0.094685756
-0.057564374 0.06381325 -0.09654646 0.19863392 -0.045352314 -0.07823806 0.11981915 -0.059793722
-0.10307122 0.15376118 0.14371593 -0.040089007 0.2011342 0.019146265 -0.181681 0.059484586

hash1.bias f4 [64]
00000000: 4500 8bbd 177e 0bbe afa5 16be 98e7 8dbe
00000010: 3ea3 a43d a671 8fbd 77cc 07be 5936 a73e
00000020: 81ee e33d f8da 533d bcc9 4bbe f808 aa3d
00000030: 66e9 7f3d d7d7 e8bd ba1f 8dbe 7f26 91be
00000040: e1f3 8fbc 1645 babd 5976 8d3d 9398 06be
00000050: 9022 0dbe 8865 883e deb0 07be b0f1 55be
00000060: 4159 253e 05cc b5bd 71b3 ac3e dce8 96bc
00000070: d357 dfbd 6cc2 4abd cf3e 183e 54a8 c4be
00000080: 395b 3c3e 7996 4e3e 7ce8 85bb 1628 0f3e
00000090: fb3b 3b3e 541a c1be a1ce 13bd c12e 403e
000000a0: bacc d8bc e306 083e 0bc6 b7be 42e3 87be
000000b0: d6e8 69be 536f 0ebd 1bc5 2ebe e20e 25bd
000000c0: 3d83 b9be c6af 38be 5d27 cb3d 8a5c 5dbe
000000d0: 0d84 3cbd cd62 75be 6ee0 863e 7039 3b3e
000000e0: c642 0dbe 9e11 06bc 9030 90bd 049a d9bd
000000f0: f9b5 fa3d 2e66 773d 52b5 1a3e 0e27 7bbd
-0.06787161 -0.13622318 -0.14711641 -0.27715755 0.080389485 -0.070040986 -0.13261591 0.3265865
0.111294754 0.051722497 -0.19901174 0.08302492 0.062478445 -0.11369293 -0.27563268 -0.28349683
-0.017572345 -0.09095208 0.06907339 -0.1314414 -0.13782716 0.26639962 -0.13251063 -0.20892978
0.16147329 -0.08876804 0.33730653 -0.018421583 -0.10905423 -0.04950182 0.1486771 -0.38409674
0.18394174 0.20174588 -0.004086552 0.13980135 0.182846 -0.377154 -0.03608573 0.18767835
-0.026464809 0.13283877 -0.35893282 -0.2654057 -0.22842726 -0.034774136 -0.17067377 -0.040297396
-0.3623294 -0.18035802 0.09919617 -0.21617332 -0.04602437 -0.23963471 0.263431 0.1828363
-0.13795003 -0.008182911 -0.070405126 -0.10625079 0.1224174 0.06040018 0.1510823 -0.061316542

fc2.weight f4 [10, 64]
00000000: c200 77be fc68 c8bd 481e a13e 7647 323f
00000010: 79d6 89bd 9fc3 43be 08de c2be 6177 fdbd
00000020: 807f 8c3e 4552 c2be ff13 493e 9cc7 c8bd
00000030: 94e3 a7be b6fb 84be 0bfd 903e 7426 a0be
00000040: 89db a53e 3e70 0dbd bae1 6d3e a8c1 ad3e
00000050: 9cb8 d0be fe0f c2be d7fd ea3e 65be ba3d
00000060: c4bb 4bbe ff5a a9bc d74c 7fbe 1300 24bc
00000070: 9e19 993e 2263 a83e 7718 41be 63a0 203e
00000080: 1a47 42be bc04 583e b12d 3d3e e427 ed3d
00000090: 903b 12be 39c1 6d3e 3b51 f23e 3c87 ccbe
000000a0: fbb6 7cbd e7de 8ebe afd1 c53d 5b01 17be
000000b0: 5130 26be bf71 a7be bb0c 9dbd 1ad1 423c
000000c0: 7779 cc3c 37bd 983d afca 4a3d ecda 37be
000000d0: b0c4 5cbe f9e3 7abd e299 e33d 23b9 61bd
000000e0: 3d4b 90bd 3ed0 a13e 5763 6e3e dda9 24be
000000f0: d57b 1ebe 456c b13e 8d7b 9b3e af8a f6be
00000100: 4846 ac3c b6be 483e 46cb 643e a6ee 9c3e
00000110: a26c b5bc 13d9 ddbd 996b 1f3c e058 39be
00000120: a269 873e 026f f73e ce15 63bc 0e16 2d3d
00000130: eea1 b1be 357c 283e 818e 863d 9945 e43e
00000140: 91b7 82be a726 483e c110 d1be 7b04 45be
00000150: faf5 b73e b8ab 8dbe 48d1 7e3e c685 873e
00000160: b3a6 e93c f656 eb3e 6f91 ffbe 6fba d53e
00000170: 15d5 d13d e2e7 9bbe a13a f43c ee55 153e
00000180: 549a 1ebd 9513 86be 11b2 553e 5b5d 29be
00000190: cfb4 183c f25d ff3e 471b d8be 282c c5be
000001a0: 315c 98be 6d82 3dbe 6614 f83e bc64 213f
000001b0: 34c5 cf3e 2757 6e3e 13ec df3e 9e76 853e
000001c0: add6 cb3e cf1c bd3d a554 62bd f00c 6f3d
000001d0: 359f c03d e949 df3c c1f2 f4be 7e9a 9ebe
000001e0: 3439 a23e f82f 68bd 5a69 ed3d 0f30 c83e
000001f0: e565 943e d88c d93d 4c0d 63be 169c 8d3e
00000200: 1031 8cbe 122e a2bd 59f1 0f3e bffc 4ebe
00000210: ace7 453e c0bd 893e d87f d1bd 267e 43bd
00000220: 80fd 7d3e e90d b4be 2800 a0be 0f71 3bbd
00000230: dfcc b7bc a1f7 913e f8ff b43e 0c80 913c
00000240: 4bea 03bd 1ac1 fe3d 366d cd3d 17f7 203d
00000250: 13f8 9dbe 3d85 cb3d be82 a5be 87f7 1b3d
00000260: c6b8 57be 9827 0d3e 822e fd3d 7fd0 21be
00000270: bd96 d33c 1831 b2bc bff6 ba3e 0dc1 003f
00000280: 5e2a 993e 07e1 eebd 4b46 2bbd 0c17 83be
00000290: adab ef3d 3409 89be 9fd6 c2bd 5a05 39be
000002a0: 64a4 f93e 17bf 9ebe ee59 bd3d 1d75 43bc
000002b0: 2ac6 c7bd 8285 82be d2ba f8bd e7d4 93be
000002c0: dbed f7be ecd2 e4be 29f6 9dbe 166b 813d
000002d0: f6b6 debe bf97 3b3e 8c7f 91be 9cc9 ba3e
000002e0: 0dbd 8fbe d7f2 753d acc4 d5bd 11e1 363d
000002f0: f1a4 f7be 2fa5 79be 4131 0b3e f023 8e3d
00000300: 32bc 8b3e 18cf 7ebe 9afb f2bd b99f b8be
00000310: c6ed c33d ee7a 823e 6c0a 943e 27e0 b5bd
00000320: 2804 083e 2550 96bd f9d2 5b3e ac77 02bd
00000330: 0bee 1e3c 85ea 69be 6567 7ebe 46de d5bd
00000340: bf48 babe ae74 acbd 2b2b 123e 6b77 a5be
00000350: 6ee3 053e 3606 0b3e 3b64 27bd f607 993d
00000360: fce1 36be beef abbe 6b69 b53d 0c93 0d3d
00000370: 1e70 de3d 371b 963e e74f 4b3e b309 b6bd
00000380: 9cba 1dbe 0cb7 27be 8fee 183e 7106 cbbd
00000390: 940b 9e3e 2a7a 5fbd 0941 643d c06d ea3d
000003a0: 84b3 47bd de19 963d 3722 d7bd 8d7a cc3d
000003b0: 77cf 8dbe e180 9fbd a064 f8bd acae 2e3e
000003c0: e5f5 223d 6484 aabe a126 52be 315b a63e
000003d0: 55c5 a13d f3e4 84be 3448 833d 8c16 dabd
000003e0: 8b62 28be f3a4 753e f050 bdbd 2ca5 04bd
000003f0: 6260 98be 626b 12bd 0362 003d 66fa a93b
-0.24121383 -0.09785649 0.31468415 0.6964029 -0.067303605 -0.19117592 -0.3806002 -0.12376285
0.27441025 -0.37953392 0.19636534 -0.098036975 -0.32790816 -0.2597329 0.28318056 -0.31279337
0.32394055 -0.03453087 0.23230639 0.3393681 -0.40765846 -0.37902826 0.4589679 0.09118346
-0.19895846 -0.020673273 -0.24931656 -0.010009783 0.29902357 0.32888132 -0.18856989 0.15686183
-0.18972436 0.21095556 0.18474461 0.11579874 -0.14280534 0.2321824 0.473276 -0.39946926
-0.06169794 -0.27904436 0.096591346 -0.14746611 -0.16229369 -0.3270397 -0.07668444 0.011890674
0.024960263 0.07457965 0.0495097 -0.17954606 -0.21559405 -0.061252568 0.11113335 -0.0551082
-0.070456006 0.3160419 0.23280083 -0.16080423 -0.15476926 0.34652916 0.303677 -0.48152682
0.021029606 0.19604 0.22343168 0.30650824 -0.022146527 -0.10832419 0.009730243 -0.1810031
0.2644778 0.4832688 -0.013860179 0.04225736 -0.34693855 0.16453631 0.06570149 0.4458435
-0.25530675 0.19545995 -0.40833095 -0.1923999 0.35929853 -0.27670074 0.24884522 0.2646925
0.028521871 0.45964783 -0.49915645 0.417438 0.1024572 -0.3045035 0.029813113 0.14583561
-0.038721398 -0.26186815 0.20868708 -0.16539519 0.009320452 0.49876362 -0.4220831 -0.3851025
-0.29757836 -0.18506785 0.48453063 0.63044333 0.40580142 0.23275433 0.43734798 0.2606706
0.39812222 0.092340104 -0.055256505 0.058361948 0.09405366 0.027256923 -0.47841457 -0.30977243
0.31684268 -0.05668637 0.1159236 0.39099166 0.2898399 0.10622567 -0.22173041 0.27658147
-0.27381182 -0.079189435 0.1405691 -0.20213602 0.19326657 0.2690258 -0.102294624 -0.047727726
0.24803734 -0.35166863 -0.3125012 -0.045762118 -0.022436557 0.28509238 0.3535154 0.017761253
-0.03220586 0.12439175 0.10030596 0.039298143 -0.30853328 0.099375226 -0.3232631 0.038077857
-0.21066579 0.13784635 0.12362386 -0.15802191 0.025828714 -0.021751925 0.36516377 0.5029457
0.29915136 -0.11664014 -0.041815083 -0.2560352 0.117026664 -0.26764834 -0.09513592 -0.18068448
0.48758233 -0.31005165 0.09245668 -0.011929777 -0.09754594 -0.25492483 -0.12145008 -0.2887337
-0.48423657 -0.4469217 -0.30851868 0.06319253 -0.43498963 0.18319605 -0.28417623 0.3648194
-0.28073922 0.060046043 -0.10437903 0.044648234 -0.48368028 -0.24379419 0.13593008 0.06940448
0.2729202 -0.24883687 -0.118643954 -0.3605936 0.09566836 0.25484413 0.289142 -0.08880644
0.13282835 -0.07339505 0.21467198 -0.03185241 0.009700309 -0.22843368 -0.2484413 -0.10442786
-0.36383626 -0.084206924 0.1427428 -0.3231767 0.13075039 0.13576588 -0.04086707 0.074722216
-0.17859644 -0.33581346 0.088579975 0.034564063 0.108612284 0.29317638 0.19854699 -0.08888569
-0.15403217 -0.1637842 0.14934753 -0.09913338 0.30868208 -0.054559864 0.055726085 0.114467144
-0.048755184 0.073291525 -0.10504573 0.09984312 -0.27697346 -0.077882536 -0.12128568 0.1705882
0.039785285 -0.3330413 -0.20522548 0.3249145 0.07898966 -0.25955924 0.06410256 -0.10648832
-0.16443841 0.23988704 -0.09243953 -0.032384083 -0.29761034 -0.03574694 0.03134347 0.0051873205

fc2.bias f4 [10]
00000000: 5918 efbd 32b0 11bf fc08 783d 9c82 433e
00000010: fda3 fd3e 89fd 013d 8812 e83d e637 57be
00000020: 93bb 7b3e 8e04 77be
-0.11674566 -0.5690948 0.060555443 0.19092792 0.49539176 0.03173593 0.113316596 -0.21017417
0.24583273 -0.24122831
