2.NeuralHashing/cifar_net.pth (torch, 241300 bytes, 10 tensors)

conv1.weight f4 [6, 3, 5, 5]
0	0xbd08a46b	-0.033359926
1	0xbd86fb92	-0.06590952
2	0xbddc4a9e	-0.107564196
3	0x3d69fc23	0.057125222
4	0xbdeb7b14	-0.11498085
5	0x3e39693c	0.1810655
6	0x3e7a5340	0.2444582
7	0x3e81125b	0.25209317
8	0x3e62067c	0.22072786
9	0x3e7814c1	0.24226667
10	0x3e7c4439	0.246354
11	0x3d167d98	0.03674087
12	0x3e669aaf	0.22519945
13	0x3e2e8b42	0.1704531
14	0x3dc68955	0.09694163
15	0x3e364cbb	0.17802708
16	0x3d8bea9d	0.06831858
17	0xbd8e898c	-0.06959829
18	0x3e2ffdef	0.17186712
19	0x3db8a61e	0.09016059
20	0x3ca752cf	0.020425228
21	0xbe317bbd	-0.17332359
22	0xbe475446	-0.19465742
23	0xbc9d4331	-0.019197078
24	0x3cbb6f8f	0.022880344
25	0xbce172da	-0.027520586
26	0xbe199b2e	-0.15000603
27	0xbe2baaa0	-0.16764307
28	0x3d506875	0.050880868
29	0xbe321f6a	-0.17394796
30	0x3e103883	0.14084058
31	0xbdb32216	-0.08746736
32	0x3e1207e8	0.14260828
33	0x3da9f7cc	0.08299217
34	0x3dc27a74	0.09496012
35	0xbdc5cf9b	-0.09658738
36	0x3bff4fdd	0.007791503
37	0xbd2cb69c	-0.042166337
38	0x3cfc1355	0.030770937
39	0x3cdcf8db	0.026974132
40	0xbe185900	-0.14877701
41	0xbe95869a	-0.29204255
42	0xbd734661	-0.05939329
43	0xbe09e510	-0.13466287
44	0xbe1a5a0b	-0.15073411
45	0xbddbd1e8	-0.10733396
46	0xbe77668d	-0.24160214
47	0xbc7f4a68	-0.015581705
48	0xbe25da88	-0.16196644
49	0xbe2c1a3c	-0.16806883
50	0xbe26af96	-0.16277918
51	0xbe25abc0	-0.16178799
52	0x3c4d51cb	0.012531708
53	0xbc13e5c2	-0.0090269465
54	0x3d3d3289	0.046190772
55	0x3ca9d576	0.020731669
56	0xbdbca671	-0.09211434
57	0x3d8e4bc6	0.069480464
58	0x3e039ac9	0.12852015
59	0x3cbdee35	0.023184875
60	0x3d0027f5	0.031288106
61	0xbe107ed2	-0.14110878
62	0xbda8d491	-0.08243669
63	0x3dabfcac	0.08397803
64	0xbdc5d65d	-0.09660027
65	0xbd9baf51	-0.07601798
66	0xbe041f79	-0.12902631
67	0xbcc0cea5	-0.023536036
68	0x3dcd0d26	0.100122735
69	0x3ce4f370	0.027948111
70	0x3ce244d1	0.027620705
71	0xbca69f48	-0.020339623
72	0x3d82df07	0.06390195
73	0x3e5d0d0e	0.21587011
74	0x3c707129	0.014675417
75	0xbd752e3b	-0.059858542
76	0x3d3c938f	0.04603916
77	0x3dc90719	0.09815807
78	0xbd9acf9d	-0.0755913
79	0xbd82d66e	-0.063885555
80	0xbb373c0c	-0.0027959375
81	0xbd25a431	-0.04043979
82	0x3d54df9e	0.05197107
83	0xbd4abc86	-0.049496196
84	0xbd17b142	-0.03703428
85	0xbe025ac3	-0.12729935
86	0x3d787db5	0.06066676
87	0x3d595b70	0.053065717
88	0xbbb1612f	-0.0054131965
89	0xbe5c7c1b	-0.21531717
90	0xbd81797d	-0.06322
91	0xbe091893	-0.1338828
92	0xbddcce1b	-0.10781499
93	0xbd4cc60a	-0.049993552
94	0xbdabaab9	-0.08382172
95	0xbdc06e55	-0.09396044
96	0x3c3466d6	0.011010846
97	0x3d2862ae	0.041109733
98	0xbd8669f1	-0.065631755
99	0xbe66a8b1	-0.22525288
100	0xbe3b9b4d	-0.18320961
101	0x3d7e11f0	0.062028825
102	0x3d624fc3	0.055251848
103	0xbdf2c2a9	-0.11853535
104	0xbe8714f3	-0.2638317
105	0xbcc729ba	-0.024311889
106	0x3df754c6	0.12076716
107	0x3cb13c88	0.021635309
108	0x3e01a3a2	0.12660077
109	0xbdb8e547	-0.09028106
110	0x3b8ce39f	0.0042995955
111	0xbd966dff	-0.07345199
112	0x3e3a2fa9	0.18182243
113	0x38833a81	6.257464e-05
114	0xbdc2bc34	-0.09508553
115	0xbe38ebee	-0.1805875
116	0x3d388abb	0.04505418
117	0x3dc5a33e	0.096502766
118	0x3d9abf94	0.07556072
119	0xbe0593b7	-0.1304463
120	0xbe26d309	-0.16291441
121	0xbd7a5f3e	-0.061125986
122	0xbd2aeb46	-0.04172828
123	0x3cae38f5	0.021267394
124	0xbda84e2a	-0.082180336
125	0x3dc87d59	0.09789533
126	0x3dc101d6	0.09424178
127	0x3e5576af	0.20846055
128	0x3e756ced	0.23967333
129	0x3dd60c20	0.104515314
130	0x3d3f3d20	0.046689153
131	0x3e192a99	0.14957656
132	0x3e8d5cbf	0.27609822
133	0x3e166ef6	0.14690766
134	0x3dbb9293	0.09158816
135	0xbd70f245	-0.058824796
136	0x3e6ec128	0.23315871
137	0x3e882d1f	0.26596925
138	0x3e7f201d	0.24914594
139	0x3e0789c0	0.13236141
140	0x3d938e7a	0.072049096
141	0x3e4716ca	0.19442287
142	0x3e516c57	0.20451485
143	0x3e31c74e	0.17361185
144	0x3e25c6fc	0.16189188
145	0xbd3da278	-0.04629752
146	0x3df831d3	0.12118878
147	0x3e16700c	0.1469118
148	0x3e07788f	0.13229583
149	0x3d9aa545	0.07551054
150	0x3d42c678	0.047552556
151	0xbd90dd82	-0.07073499
152	0xbd6cf696	-0.05785235
153	0x3de295c4	0.11063722
154	0xbcaef7c1	-0.021358373
155	0x3e8cf18b	0.27528033
156	0xbe0818b7	-0.13290678
157	0xbee0ef4c	-0.4393257
158	0x3e00a1f2	0.12561777
159	0x3e4d4e4f	0.20049404
160	0x3ebb65c7	0.36601087
161	0x3d2c5a7f	0.04207849
162	0xbf04354d	-0.5164383
163	0xbe2fd8f8	-0.17172611
164	0x3e5cb1b1	0.21552159
165	0x3e025002	0.12725833
166	0x3e7839e7	0.24240838
167	0xbe959a62	-0.29219347
168	0xbe7c2d00	-0.24626541
169	0x3e18ae5d	0.14910264
170	0x3db40b5a	0.08791228
171	0x3ea09ee2	0.31371218
172	0xbe168339	-0.14698495
173	0x3ca6bb8c	0.020353101
174	0x3ca7e270	0.020493716
175	0x3c9ca4f7	0.01912163
176	0xbde87d2a	-0.11351998
177	0xbd55cca8	-0.05219713
178	0x3c1ca6c8	0.009561248
179	0x3d9d72a0	0.076878786
180	0x3e95e798	0.29278255
181	0xbe467db8	-0.19383895
182	0xbec2c6ab	-0.38042197
183	0x3dce7a5a	0.100819305
184	0x3e08bf6a	0.13354269
185	0x3e9600f2	0.29297596
186	0x3ad02cec	0.0015882528
187	0xbec078a7	-0.3759205
188	0xbe342657	-0.1759275
189	0x3e5f61d5	0.21814664
190	0x3e5c479a	0.21511689
191	0x3e660f34	0.22466737
192	0xbe8b60a5	-0.2722217
193	0xbe97e665	-0.29667965
194	0x3dd946ad	0.106091835
195	0x3d0e1046	0.03468349
196	0x3e6d49fb	0.23172753
197	0xbd59fce9	-0.05321971
198	0xbdb8271b	-0.08991834
199	0xbcda10da	-0.026619364
200	0xbca3b984	-0.019985922
201	0xbe25db53	-0.16196947
202	0xbe0176ac	-0.12642926
203	0x3e00bd5a	0.12572232
204	0xbac6fdf6	-0.0015181887
205	0x3ea21f34	0.3166443
206	0xbe0143c2	-0.12623504
207	0xbeb86259	-0.36012533
208	0x3ca9e569	0.020739274
209	0x3e5fbe6b	0.21849982
210	0x3eaee973	0.34162483
211	0x3b69b7aa	0.003566245
212	0xbeed2577	-0.46317646
213	0x3cce8a1a	0.025212336
214	0x3e2cabfc	0.16862482
215	0x3e1955a9	0.14974083
216	0x3e5db604	0.21651465
217	0xbe8ce262	-0.27516466
218	0xbe655811	-0.22396876
219	0x3d4f5538	0.05061838
220	0x3d82b087	0.06381326
221	0x3e821d1f	0.25412843
222	0xbe679582	-0.22615626
223	0xbe0f3f4f	-0.13988994
224	0xbdac86bc	-0.08424136
225	0x3e416082	0.18884471
226	0x3b9e6e4a	0.004834925
227	0x3d535c61	0.05160177
228	0xbde27774	-0.1105794
229	0x3e2c8240	0.16846561
230	0x3e40688c	0.18789881
231	0x3cfd9854	0.030956425
232	0xbe1e4f6f	-0.15459989
233	0xbcec1246	-0.028817307
234	0x3dd4e8db	0.10395976
235	0x3ddc5994	0.10759273
236	0xbb6ea5b9	-0.0036414696
237	0xbd3a475b	-0.045478206
238	0x3ce27849	0.027645247
239	0xbcb849bb	-0.022496095
240	0xbdf8a3e7	-0.12140637
241	0xbe0bd5b5	-0.13655742
242	0xbd4f4d30	-0.05061072
243	0x3d42d084	0.047562137
244	0x3ae33e60	0.0017337315
245	0xbdb6832c	-0.08911738
246	0xbe41b946	-0.18918332
247	0xbe6add15	-0.22935899
248	0xbdb91deb	-0.090389095
249	0x3d2ddb2b	0.042445343
250	0xbd9b61d8	-0.075870216
251	0xbd7e5a0c	-0.062097594
252	0xbe3f4611	-0.18679072
253	0xbe7b0bef	-0.24516271
254	0xbe4f109b	-0.20221178
255	0xbc948760	-0.018130958

conv1.bias f4 [6]
0	0xbe8626d1	-0.2620149
1	0x3f2d22e6	0.67631376
2	0x3e9bb930	0.30414724
3	0x3e86c682	0.26323324
4	0x3ea47e56	0.32127637
5	0xbdcdc7f2	-0.10047902

conv2.weight f4 [16, 6, 5, 5]
0	0x3d9b9260	0.07596278
1	0xbc4b6cb2	-0.012416052
2	0x3d6107e4	0.054939166
3	0x3d153fb6	0.036437713
4	0xbd9f1283	-0.07767203
5	0xbd11fd9c	-0.03564225
6	0xbbeffb33	-0.0073236465
7	0xbba04f06	-0.004892233
8	0x3d04dd65	0.0324377
9	0xbd62528b	-0.0552545
10	0xbd41e984	-0.04734184
11	0x3d1115af	0.03542107
12	0xbd7fc0de	-0.06243979
13	0x3d01afa3	0.03166164
14	0x3d0c7926	0.034295224
15	0x3c8a083a	0.016849626
16	0xbdc6d38f	-0.0970832
17	0xbd4d096f	-0.050057825
18	0xbcd324a3	-0.025774306
19	0xbc979a85	-0.018506298
20	0xbd7d87d8	-0.06189713
21	0x3d006c48	0.031353265
22	0x3cf1c2c7	0.029511822
23	0xbc998191	-0.01873854
24	0x3d44b802	0.048027046
25	0xbe1b872b	-0.15188281
26	0xbde6b535	-0.11265031
27	0xbc05b91f	-0.008161812
28	0x3dd1b792	0.102400914
29	0x3dd266f1	0.10273541
30	0xbe437042	-0.19085792
31	0xbda91889	-0.08256633
32	0xbc99f042	-0.018791322
33	0x3e1c846f	0.15284894
34	0x3e56765c	0.20943588
35	0xbe34a977	-0.1764277
36	0xbd9adbba	-0.07561441
37	0xbd2704b5	-0.040775973
38	0x3d934b2b	0.071920715
39	0x3e904f25	0.28185382
40	0xbe113c80	-0.14183235
41	0xbdb24ce6	-0.087060735
42	0xbc3f7039	-0.011684471
43	0x3e22d947	0.15903197
44	0x3e0bdb41	0.13657857
45	0xbe10c1fa	-0.14136496
46	0xbd8fb4e0	-0.07016921
47	0x3d0377ed	0.032096792
48	0x3e098ed2	0.13433388
49	0x3dcba4c7	0.09943538
50	0x3d46d122	0.04853929
51	0xbd8ca99b	-0.06868287
52	0xbd25e91d	-0.040505517
53	0x3dc89a8e	0.09795104
54	0x3cda7224	0.026665755
55	0xbd5d9360	-0.054095626
56	0x3d645835	0.055748183
57	0xbdfa45b4	-0.12220326
58	0xbdd1c7bf	-0.10243177
59	0xbd9ec5b2	-0.07752551
60	0x3d6f3e5b	0.058409076
61	0x3da83b50	0.08214438
62	0xbcae0b06	-0.02124549
63	0xbd095adb	-0.033533912
64	0x3c90d370	0.017678946
65	0xbd393b79	-0.045222733
66	0xbd24a9c3	-0.04020096
67	0xbcf77e77	-0.03021167
68	0xbcb098f1	-0.021557303
69	0xbc359ed2	-0.011085229
70	0xbd6f1221	-0.0583669
71	0x3c8ed91e	0.017437514
72	0x3d2c912c	0.042130634
73	0x3dc6ccb6	0.09707014
74	0x3e03002b	0.12793033
75	0x3d8c90c7	0.068635516
76	0x3dcc4a4d	0.09975109
77	0x3cb5fe71	0.022216054
78	0xbc254e62	-0.010089489
79	0xbd35da02	-0.04439736
80	0x3e33f7c2	0.17574981
81	0x3e31102c	0.17291325
82	0x3d4e3132	0.050339885
83	0xbd29ad01	-0.041424755
84	0xbe535b21	-0.20640232
85	0x3e816119	0.25269392
86	0x3e069dee	0.13146183
87	0x3d6a9e3a	0.057279803
88	0xbe34406e	-0.17602703
89	0xbe9938a3	-0.29926023
90	0x3e4f289d	0.20230336
91	0x3e1e66bb	0.15468876
92	0x3c27043a	0.010193879
93	0xbe2ca30c	-0.16859072
94	0xbe888477	-0.26663563
95	0x3e3c7266	0.18403015
96	0x3dc951c6	0.0983005
97	0x3c654d35	0.013995458
98	0xbe288254	-0.16455966
99	0xbe039f5b	-0.12853758
100	0x3d8c0932	0.06837691
101	0xbd9dc474	-0.07703486
102	0xbd95ed6c	-0.07320675
103	0xbd99f115	-0.07516686
104	0x3c56e635	0.013116409
105	0x3cc63df3	0.024199462
106	0xbe1822c3	-0.1485701
107	0xbd105029	-0.035232697
108	0xbd2cb681	-0.042166237
109	0x3c9f87e9	0.019473987
110	0xbd0160d3	-0.03158648
111	0xbd77719d	-0.060411084
112	0xbe1f745e	-0.15571734
113	0xbd07fdfd	-0.033201206
114	0xbdb52073	-0.0884408
115	0x3ccaccce	0.024755862
116	0xbd9452a8	-0.07242328
117	0xbe2402cc	-0.16016692
118	0xbd8b4c70	-0.06801689
119	0xbdc2a240	-0.09503603
120	0xbd0f745d	-0.035023082
121	0x3c099b57	0.008398852
122	0xbd8aece0	-0.067834616
123	0xbd925510	-0.07145131
124	0x3cf10081	0.029419186
125	0x3d105472	0.035236783
126	0x3da7b326	0.08188467
127	0xbd769465	-0.060200114
128	0xbded25e1	-0.115794905
129	0xbd3a0d93	-0.0454231
130	0x3c62805a	0.013824547
131	0x3cd40820	0.02588278
132	0x3d3f15e9	0.046651755
133	0xbd33879d	-0.043830503
134	0xbd957b43	-0.07298901
135	0x3d1e6cbc	0.038677916
136	0x3dd23276	0.10263531
137	0x3d9dcefe	0.07705496
138	0xbd87b4b8	-0.06626266
139	0xbdd02b09	-0.10164458
140	0x3d226dd2	0.039655514
141	0xbd6e21c8	-0.058137685
142	0xbcfe2240	-0.031022191
143	0x3d8d0aea	0.06886847
144	0x3cda911f	0.026680527
145	0xbd6e5dc9	-0.05819491
146	0xbb7950a7	-0.0038042457
147	0xbd52aa06	-0.05143168
148	0xbda95baf	-0.082694404
149	0x3c858422	0.016298357
150	0x3e0cb5ad	0.13741179
151	0x3e09d530	0.13460231
152	0x3e1b9c5c	0.15196365
153	0x3e101bab	0.14073054
154	0x3e059923	0.13046698
155	0x3dd68dba	0.10476251
156	0x3ba4dc10	0.0050311163
157	0x3de50564	0.11182669
158	0x3d9f726a	0.077854946
159	0x3db1b40d	0.0867692
160	0x3dfaf8e1	0.12254501
161	0xbbf4b308	-0.0074676313
162	0x3d89c677	0.06727307
163	0xbc320678	-0.0108658
164	0x3da09279	0.078404374
165	0x3c0fc532	0.008775042
166	0xb99b5d67	-0.00029633494
167	0x390f33ae	0.00013656795
168	0xbd283cb3	-0.041073512
169	0x3c4e71e8	0.0126004
170	0xbcb4777c	-0.02202963
171	0xbda3dc15	-0.08000962
172	0xbdcebfb4	-0.10095158
173	0xbca78d59	-0.020453142
174	0x3d6f5b70	0.05843681
175	0x3df130f0	0.11776912
176	0x3e1ce8b2	0.15323141
177	0x3d13457c	0.035954937
178	0x3e22d3b2	0.15901068
179	0x3df7886b	0.120865665
180	0xbc64aef9	-0.013957732
181	0x3d209517	0.039204683
182	0xbb24e6c7	-0.0025161968
183	0x3d24644f	0.040134724
184	0x3d3bf6bb	0.045889597
185	0xbcb09df5	-0.021559695
186	0xbb82f922	-0.003996984
187	0xbdd1f8ef	-0.102525584
188	0xbcf0da08	-0.02940084
189	0x3cc3235f	0.023820577
190	0xbdad7c85	-0.08471016
191	0xbdd004d5	-0.10157172
192	0xbd2903bc	-0.041263327
193	0xbde9855a	-0.11402388
194	0xbd1dbca9	-0.03851
195	0xbd164817	-0.036689844
196	0x3d847f83	0.064696334
197	0x3cf4e0e6	0.029892396
198	0xbda912a2	-0.08255507
199	0xbdb3fb7c	-0.08788201
200	0xbd2643a5	-0.040591855
201	0xbd49c715	-0.049262125
202	0xbe007aae	-0.12546799
203	0xbd542002	-0.051788338
204	0xbe2c8116	-0.16846117
205	0x3ce45d06	0.027876388
206	0x3bd86535	0.0066038617
207	0x3bf143ac	0.0073628034
208	0xbbede1a3	-0.007259564
209	0xbe0ffcdf	-0.14061306
210	0x3cfed782	0.031108622
211	0x3db8cbe7	0.09023266
212	0xbd04514c	-0.032304093
213	0x3e019c93	0.12657385
214	0x3d85c6ed	0.06532083
215	0x3dafd932	0.085863486
216	0x3d33b6de	0.043875568
217	0x3c3c63d8	0.011498414
218	0x3dacd476	0.08438961
219	0x39e899d3	0.00044365096
220	0x3d10cf4f	0.035353955
221	0xbd67e193	-0.05661161
222	0xbc11c830	-0.008897826
223	0xbdf589f9	-0.11989207
224	0x3dd174ef	0.102273814
225	0xbc07a73e	-0.00827962
226	0xbcf0eafe	-0.029408928
227	0x3d5c3ebe	0.053770773
228	0x3bf244d9	0.007393461
229	0x3d4b299f	0.04960024
230	0x3d726edc	0.059187755
231	0xbd7a8180	-0.061158657
232	0x3e0fd7cb	0.14047162
233	0x3dc51170	0.096224666
234	0x3d5a2019	0.053253267
235	0xbd8fd5f2	-0.07023229
236	0x3d367792	0.044547625
237	0xbce6358e	-0.028101709
238	0x3ced41a0	0.028961957
239	0xbc53b1a0	-0.012920767
240	0xbc3c408f	-0.011490001
241	0x3d564bd2	0.0523184
242	0x3c3081d7	0.010773144
243	0x3c9355b1	0.017985197
244	0x3da78501	0.08179665
245	0xbe0c7536	-0.13716587
246	0x3bff8cd0	0.0077987686
247	0xbca43d5d	-0.020048792
248	0x3d3bd3bc	0.045856223
249	0x3d2df2b2	0.04246778
250	0xbd7362c6	-0.05942037
251	0xbd8927b2	-0.066970244
252	0x3dabc784	0.08387664
253	0x3ddbc0a1	0.107301004
254	0x3c4c628b	0.012474666
255	0xbde7b6e7	-0.11314183

conv2.bias f4 [16]
0	0x3e68e22b	0.22742526
1	0xbf04ecb5	-0.51923686
2	0xbecafdfb	-0.39646897
3	0xbe15778b	-0.14596383
4	0xbdace707	-0.084425025
5	0x3e6115bb	0.21980946
6	0x3dd75161	0.10513569
7	0xbddf9a7b	-0.10918137
8	0xbcdb9d27	-0.026808335
9	0x3dc891b6	0.09793417
10	0x3e177161	0.14789344
11	0xbe82c8dc	-0.2554387
12	0x3e054a3b	0.13016598
13	0xbe2de9a6	-0.16983661
14	0x3e85637c	0.26052463
15	0xbd1eda3d	-0.038782347

fc1.weight f4 [120, 400]
0	0x379f62f8	1.9000363e-05
1	0x3d24e6bc	0.040259108
2	0xbc932ac3	-0.017964726
3	0x3c70b5a1	0.014691741
4	0x3d1ea6f4	0.038733438
5	0x3d6c8ac8	0.05774954
6	0xbd495dc4	-0.049161687
7	0xbd11c2aa	-0.035586037
8	0x3d27178c	0.04079394
9	0x3c72c39b	0.014817144
10	0x3d418249	0.04724339
11	0xbce252d8	-0.027627394
12	0x3d7928a8	0.06082979
13	0xbc8f83d2	-0.017518912
14	0xbcdd4cfb	-0.027014246
15	0x3d8cf960	0.06883502
16	0xbcdfc163	-0.027313894
17	0x3d3d3dc9	0.0462015
18	0x3d6a7cb9	0.05724785
19	0x3a2ab741	0.00065122923
20	0x3bb96c61	0.0056586717
21	0xbc8e6a95	-0.017384807
22	0x3d4ce7fa	0.050025918
23	0x3c9e1bf0	0.019300431
24	0xbc0efe3c	-0.008727606
25	0x3c953fbd	0.01821887
26	0xbcf9714f	-0.030449538
27	0xbc35673f	-0.011071979
28	0x3cb5b05c	0.022178821
29	0xbd66e8b4	-0.056374267
30	0x3cd707e8	0.026248887
31	0x3d0ca77e	0.03433942
32	0x3d2f22ad	0.04275768
33	0x3cbcda13	0.023053205
34	0x3b59648c	0.0033171503
35	0xbd105ad8	-0.035242885
36	0x3d37d966	0.04488506
37	0x3d3a90c3	0.04554821
38	0x39e15548	0.00042978884
39	0x3c2d15c4	0.010564271
40	0x3d0ef113	0.034897875
41	0x3d41f4c1	0.047352556
42	0xba518472	-0.0007992453
43	0xbc4117ac	-0.011785429
44	0xbb98d249	-0.00466374
45	0xbd41a55a	-0.047276832
46	0xbc8f6685	-0.01750494
47	0x3d37697f	0.044778343
48	0x3c28ee9e	0.010310797
49	0x3d30190d	0.04299264
50	0x3c87af34	0.016563036
51	0xbbe15b2e	-0.0068773245
52	0xbb6a248e	-0.0035727355
53	0x3ce50c85	0.027960071
54	0x3c9066cd	0.017627144
55	0x3d62ddeb	0.05538742
56	0x3d2881c1	0.041139368
57	0x3d1e305d	0.03862034
58	0xbccc1c11	-0.024915727
59	0xbcbcfd4c	-0.02307
60	0x3d4e7d31	0.05041236
61	0xbd2d2688	-0.042273074
62	0x3ca76e30	0.020438284
63	0xbc8ca45c	-0.017168216
64	0xbcae6235	-0.021287063
65	0x3c991720	0.018687785
66	0x3c9bea17	0.019032521
67	0xbd25880d	-0.04041295
68	0xbbd245d9	-0.006417018
69	0xbd7a863f	-0.061163183
70	0xbc387d29	-0.011260309
71	0xbc942ff9	-0.018089281
72	0xbd5e8a1c	-0.05433093
73	0x3b8847c2	0.004158945
74	0xbd44b5f0	-0.04802507
75	0x3d3c760a	0.04601101
76	0x3d0fdd88	0.035123378
77	0x3d545375	0.051837403
78	0xbc17bd48	-0.009261437
79	0xbba94d62	-0.0051666955
80	0x3d020d65	0.031751055
81	0x3caf5cfd	0.021406645
82	0xba4f6e10	-0.0007912824
83	0x3d271128	0.040787846
84	0x3d379128	0.044816166
85	0xbd1d51cd	-0.03840809
86	0xbcdc31a9	-0.026879149
87	0xbd1a4623	-0.037664544
88	0xbd379f5c	-0.04482971
89	0xbd199da4	-0.037503853
90	0xbd1a1f0c	-0.037627265
91	0xbd13d1a3	-0.036088597
92	0xbd1ff075	-0.039047677
93	0x3b63abcd	0.0034739852
94	0x3c8b21d2	0.0169839
95	0xbcded5ef	-0.02720162
96	0xbcb6af0f	-0.022300271
97	0x3b1d46f5	0.0023998593
98	0x3cea011a	0.028564978
99	0x3d1be44f	0.03805953
100	0x3d6478e8	0.055779368
101	0x3cd61f63	0.026138013
102	0xbd2741ec	-0.040834352
103	0xbd28833b	-0.041140776
104	0x3cfc78c2	0.0308193
105	0x3d15cf2d	0.03657453
106	0x3cb2e5f8	0.021838173
107	0x3d45db31	0.04830474
108	0x3cefe048	0.02928175
109	0x3cdbe242	0.026841287
110	0x3b201400	0.0024425983
111	0x3d0bcf32	0.034133144
112	0x3d1e57b5	0.038657863
113	0x3c8a9689	0.016917484
114	0xbd247579	-0.040151093
115	0xbacf4728	-0.0015814053
116	0xbd6e97bd	-0.058250178
117	0xbd600ea6	-0.05470147
118	0xbd12be68	-0.035826117
119	0xbc562fa3	-0.013072881
120	0xbce71ac7	-0.02821101
121	0x3d0db669	0.034597788
122	0x3bde5970	0.006785564
123	0x3cc057cf	0.02347937
124	0x3b55367d	0.0032533698
125	0x3cbfdcbc	0.023420684
126	0xbd1a8953	-0.03772862
127	0x3d42eb53	0.047587704
128	0xbd202af9	-0.039103482
129	0xbcad20f1	-0.021133872
130	0x3cb5c4ec	0.022188626
131	0x3d19f71e	0.037589185
132	0xb9a25850	-0.00030964846
133	0xbc9a4358	-0.01883094
134	0x3ceeb4e3	0.029138988
135	0xbae02255	-0.0017100075
136	0xbcaa9649	-0.020823615
137	0xbc6edba0	-0.01457873
138	0xbc869d92	-0.016432557
139	0x3cb7a5d3	0.022417938
140	0xbd464c30	-0.0484125
141	0xbcbf4b76	-0.023351412
142	0xbd4fafde	-0.05070483
143	0xbcd0d281	-0.025491001
144	0x3c8ca030	0.017166227
145	0xbd99cf50	-0.07510245
146	0xbc25d03a	-0.010120446
147	0xbd10097e	-0.035165302
148	0x3cad5d7d	0.021162743
149	0x3d115f93	0.035491537
150	0x3cbb0458	0.02282922
151	0x3d4320c1	0.04763866
152	0x3d56276b	0.052283686
153	0xbce6a51f	-0.028154908
154	0x3c03b51d	0.008038786
155	0x3cf4be93	0.02987603
156	0xbc5e9493	-0.013585228
157	0x3cc2fb11	0.023801358
158	0xbcdc8f94	-0.026923932
159	0x3d2de44a	0.04245404
160	0xbba06be1	-0.0048956727
161	0x3ce5d84c	0.02805724
162	0x3d416b9f	0.047221776
163	0x3cf75041	0.030189635
164	0x3d7c0836	0.061531268
165	0x3b95b5e8	0.004568804
166	0x3d3083fc	0.04309462
167	0x3ca61353	0.020272886
168	0x3bd5fe28	0.006530542
169	0xbca8f39c	-0.020623975
170	0xbcb7e2fc	-0.022447102
171	0xbcba2992	-0.0227249
172	0x3c69afb2	0.01426308
173	0xbcacdf9a	-0.021102715
174	0xbd102915	-0.03519543
175	0xbd278298	-0.04089603
176	0xbcd648fa	-0.026157845
177	0xbcda4788	-0.026645437
178	0x3c9b4ac8	0.018956557
179	0xbc32f0ca	-0.010921666
180	0xbd61129a	-0.05494938
181	0x3d20396c	0.03911726
182	0x3bd10449	0.0063786847
183	0xbb09cdde	-0.0021027247
184	0x3d294cb5	0.04133292
185	0x3d19b898	0.037529558
186	0x3d3a984f	0.04555541
187	0x3cb00f49	0.021491664
188	0xbd79df44	-0.06100394
189	0x3bb841df	0.005623087
190	0x3cb097db	0.021556785
191	0xbd385f53	-0.045012783
192	0x3ceba8c1	0.028766992
193	0xbd42aa80	-0.047525883
194	0xbc3a0781	-0.011354328
195	0x3d345909	0.044030223
196	0xbd3b5718	-0.045737356
197	0x3c65d84b	0.014028619
198	0x3ce72163	0.028214162
199	0xbd105bcc	-0.035243794
200	0xbd136351	-0.035983387
201	0xbb8c568c	-0.004282778
202	0xbc910062	-0.017700378
203	0xbca46e8f	-0.02007225
204	0xbcea8b80	-0.028630972
205	0x3cba05ae	0.022707786
206	0xbc23dfd5	-0.010002096
207	0x3bb51a5e	0.005526825
208	0x3c27e023	0.010246309
209	0x3986aa17	0.00025685198
210	0x3ac1b2ce	0.0014778019
211	0xbc5abed2	-0.013351159
212	0x3c97a831	0.018512817
213	0xbd03c086	-0.032166027
214	0x3c868571	0.016421052
215	0xbd17d790	-0.03707081
216	0xbc8117be	-0.015758391
217	0x3c98b037	0.018638713
218	0xbcba86cd	-0.022769356
219	0xbbc84a8f	-0.0061124037
220	0x3d2d705f	0.042343494
221	0x3d157803	0.036491405
222	0xbc6a90c8	-0.014316745
223	0xba9994d8	-0.0011717333
224	0xbbd4a386	-0.00648922
225	0xbc864216	-0.016388934
226	0xbcb9cde6	-0.022681188
227	0x3b1c99a1	0.002389528
228	0x3cd2f835	0.02575312
229	0xbc2a683c	-0.010400828
230	0x3d10783a	0.035270907
231	0xbcc20db3	-0.023688173
232	0xbcef140e	-0.029184368
233	0x3bc9d970	0.006159954
234	0x3c641b7a	0.013922567
235	0xbd0e485f	-0.034736987
236	0xbd0d7b1a	-0.034541227
237	0xbb6863ec	-0.0035459949
238	0x3c24160b	0.010015021
239	0xbd0971db	-0.033555847
240	0xbc86025b	-0.016358545
241	0xbbf1c293	-0.0073779314
242	0xbc8ff0c5	-0.017570863
243	0x3d3cb7fe	0.046073906
244	0xbcc3f64a	-0.02392115
245	0x3c0e1575	0.008672108
246	0xbcc01f77	-0.023452504
247	0xbd1d0274	-0.038332418
248	0xbcd9468e	-0.0265229
249	0x3d7547ff	0.059883114
250	0xbb31e735	-0.0027145867
251	0x3d1473ee	0.03624337
252	0x3c924afd	0.017858023
253	0xbd7295f9	-0.059225056
254	0xbd36f677	-0.04466864
255	0xbcc413a3	-0.023935145

fc1.bias f4 [120]
0	0x3c8da0d6	0.017288607
1	0x3dc15290	0.09439576
2	0xbd56c211	-0.05243117
3	0x3d51ff98	0.051269144
4	0x3d9a027f	0.07520007
5	0x3db63aab	0.08897909
6	0xbdfddf27	-0.123960786
7	0x3ccfe0e1	0.025375785
8	0x3d4f906d	0.050674845
9	0xbd8148ca	-0.063127115
10	0x3cf227b7	0.029559953
11	0x3c8ea02d	0.017410362
12	0xbd0354ee	-0.032063417
13	0xbc01d2cb	-0.007923792
14	0xbc82d6ed	-0.015971625
15	0x3bae468a	0.0053184675
16	0x3da6873a	0.08131261
17	0x3b44397c	0.002994149
18	0x3d15e8c4	0.036598936
19	0xbdb42f93	-0.087981366
20	0xbd864343	-0.06555798
21	0x3c382a79	0.011240595
22	0x3dacf1b1	0.084445365
23	0x3d2b83da	0.04187379
24	0xbcb4b6ed	-0.022059882
25	0x3cf84aca	0.0303091
26	0xbddf5955	-0.109057106
27	0x3d34b480	0.04411745
28	0xbd19f57a	-0.03758762
29	0xbc57dc88	-0.013175137
30	0x3d90f05f	0.07077097
31	0xbb3ab5ce	-0.0028489712
32	0x3d00da61	0.031458262
33	0x3c06b619	0.008222126
34	0xbc200f10	-0.009769216
35	0xbd8b3590	-0.067973256
36	0xbd44228f	-0.04788452
37	0x3cc375d1	0.02385989
38	0x3d5f1903	0.054467212
39	0xbd58d767	-0.0529398
40	0xbd820812	-0.063491955
41	0x3d9ae1e6	0.07562618
42	0x3d8ead5f	0.06966662
43	0x3d4cebc0	0.050029516
44	0x3c7a92de	0.015293805
45	0x3cb9b99b	0.022671511
46	0xbd819bfd	-0.063285805
47	0x3d2da5c4	0.042394415
48	0x3df24df0	0.11831272
49	0x3d01f8f2	0.031731553
50	0xbbe35a2f	-0.006938241
51	0x3d58ffcc	0.052978322
52	0xbdae7054	-0.08517519
53	0xbd92884a	-0.07154901
54	0xbdad1a9c	-0.08452341
55	0xbda11a74	-0.07866374
56	0x3c1daad1	0.009623245
57	0xbbde0868	-0.0067759044
58	0x3d08a6fd	0.033362377
59	0xbb9e0936	-0.0048228754
60	0xbd34f218	-0.04417619
61	0xbd13a24f	-0.03604346
62	0x3dd63862	0.10459973
63	0xbd3c85ab	-0.046025913
64	0xbc8836ed	-0.016627753
65	0x3d0301c4	0.031984106
66	0x3c5f237f	0.013619303
67	0x3c2b81f8	0.010467999
68	0x3d099684	0.03359081
69	0xbc04f3c8	-0.008114763
70	0xbd7741e0	-0.060365558
71	0xbd4b9146	-0.04969909
72	0xbcd112ca	-0.025521655
73	0x3d9efcf2	0.07763089
74	0xbd9fd79e	-0.078047976
75	0x3c8f2246	0.017472398
76	0xbd0c5c36	-0.034267627
77	0x3cef1bb2	0.02918801
78	0x3cfb3941	0.03066695
79	0x3dd74c45	0.10512594
80	0x3daac4e5	0.08338336
81	0x3d53caf9	0.05170724
82	0x3d1f18ce	0.038842015
83	0xbc8e3290	-0.017358094
84	0x3d394e91	0.045240942
85	0x3d813593	0.063090466
86	0xbde9ca71	-0.11415566
87	0x3d1c8ee4	0.03822221
88	0x3df63dad	0.120234825
89	0x3d1f6100	0.038910866
90	0xbd935458	-0.07193822
91	0x3dbde9cb	0.09273108
92	0xbd12b32e	-0.03581541
93	0x3c83a98a	0.016072053
94	0xbb34aea0	-0.0027569905
95	0x3d03ec5c	0.03220783
96	0xbc989226	-0.018624377
97	0xbc9ab502	-0.01888514
98	0x3d9f35d7	0.07773941
99	0xbd3005b0	-0.042974174
100	0x3dcdd8ed	0.10051141
101	0xbd232b13	-0.039836
102	0xbc2f620c	-0.010704529
103	0xbdb02e5b	-0.086025916
104	0x3c4a19ff	0.0123352995
105	0x3aa7fb0c	0.0012815907
106	0x3d47de4c	0.048795983
107	0x3d2ee69b	0.04270039
108	0x3d308dc3	0.043103945
109	0x3e047391	0.1293471
110	0x3d56b7dd	0.05242144
111	0x3cacb039	0.021080123
112	0xbbc27247	-0.005934033
113	0xbd13b008	-0.03605655
114	0x3da22d0a	0.07918747
115	0x3d035042	0.03205896
116	0xbcdca409	-0.026933687
117	0x3d2a5773	0.041587304
118	0xbcc56e61	-0.024100484
119	0xbdc8906b	-0.097931705

hash1.weight f4 [64, 120]
0	0xbb74c0f9	-0.0037346466
1	0x3d274139	0.040833686
2	0xbd62b533	-0.055348586
3	0x3da2f7eb	0.07957443
4	0xbc62ddfc	-0.0138468705
5	0xbd8d5c47	-0.06902366
6	0x3ddb5320	0.10709214
7	0xbdbbab11	-0.09163488
8	0xbd831239	-0.0639996
9	0x3dcdb36e	0.10043989
10	0x3db32edd	0.08749173
11	0xbc6f652b	-0.014611523
12	0xbd5ff0c3	-0.054672968
13	0x3d01869c	0.031622514
14	0x3db2bc90	0.08727372
15	0xbdcfbad4	-0.101430565
16	0xbda187b7	-0.07887214
17	0xbda5d124	-0.08096531
18	0x3d4cbc19	0.04998407
19	0xbcaae4f2	-0.020861123
20	0xbdb55a3c	-0.088551015
21	0xbdfa2286	-0.12213616
22	0x3d24dfca	0.040252484
23	0xbb22e7a2	-0.0024857302
24	0x3e0ec31c	0.13941616
25	0x3ca4af60	0.020103157
26	0xbd9eeee8	-0.077604115
27	0x3de0c682	0.10975362
28	0xbe083c41	-0.13304235
29	0x3ce076ab	0.027400335
30	0xbe16d09f	-0.1472802
31	0x3d5008dc	0.0507897
32	0xbde591bd	-0.11209438
33	0x3d14076e	0.036139898
34	0xbcee9bd8	-0.029127046
35	0x3d0f1022	0.034927495
36	0xbd2b3da5	-0.041806836
37	0x3c98859b	0.018618396
38	0x3da7d51a	0.08194943
39	0x3b62b39a	0.0034591914
40	0xbdd7f9ab	-0.10545667
41	0xbd2c3761	-0.042045
42	0x3d182a98	0.037149996
43	0x3def0e3c	0.11672637
44	0xbdbe5e5d	-0.09295342
45	0x3c02a296	0.007973334
46	0xbcde3076	-0.027122717
47	0xbdd7fde8	-0.10546476
48	0xbde51ed4	-0.111875206
49	0xbd3241ab	-0.043519657
50	0x3d623521	0.05522645
51	0xbdc8f7a7	-0.09812861
52	0x3e0d45d2	0.13796166
53	0x3dd4cc4a	0.103905275
54	0x3d8d522c	0.06900439
55	0x3c6ffbec	0.014647465
56	0xbdd6b059	-0.104828544
57	0x3dc6c745	0.097059764
58	0xbd77c66b	-0.06049196
59	0xbd446720	-0.04794991
60	0xbd836489	-0.0641566
61	0xbd6a6b81	-0.05723143
62	0xbda9584e	-0.08268796
63	0x3d53cc0d	0.05170827
64	0x3bb5085e	0.005524679
65	0xbccae0c0	-0.024765372
66	0xbd90b314	-0.070654064
67	0x3d856f5d	0.065153815
68	0xbce4d9af	-0.02793583
69	0xbcd6d2ae	-0.026223507
70	0x3d2190eb	0.039444845
71	0xbc823c43	-0.015897876
72	0xbd9b6e9c	-0.075894564
73	0x3df07919	0.117418475
74	0x3cc037b6	0.023464065
75	0xbdb6a425	-0.08918027
76	0xbdaae5f6	-0.08344643
77	0xbd643e57	-0.055723514
78	0x3d45084e	0.048103623
79	0xbdbf1877	-0.09330838
80	0xbc58c1d4	-0.013229806
81	0x3b61561a	0.0034383596
82	0xbe0e2e41	-0.13884832
83	0x3bfd9194	0.0077383015
84	0x3db30f06	0.087431
85	0xbcefbffd	-0.029266352
86	0x3cd0ce3c	0.025488965
87	0xbc98e645	-0.018664489
88	0x3c819618	0.01581864
89	0x3d03db07	0.032191303
90	0x3e0dbb5b	0.13841002
91	0xbc853651	-0.016261252
92	0xbd84dd4b	-0.06487521
93	0x3ccffe9f	0.025389967
94	0x3d45782e	0.048210315
95	0x3d62b8db	0.055352073
96	0x3daef31f	0.085424654
97	0xbe0d30c4	-0.13788134
98	0xbc31c7ee	-0.01085089
99	0xbcbb950e	-0.022898223
100	0xbd9d8aaf	-0.076924674
101	0x3dccd595	0.10001675
102	0x3de60b4f	0.11232626
103	0x3d621685	0.055197258
104	0x3bd3010d	0.0064393342
105	0x3debf070	0.11520469
106	0xbde2c086	-0.11071877
107	0x3ccfed90	0.025381833
108	0x3cda38d3	0.026638424
109	0x3dfe0c66	0.124047086
110	0x3cc0b598	0.02352409
111	0x3d290780	0.04126692
112	0xbd83cdff	-0.06435775
113	0x3d36cfe7	0.044631865
114	0xbdd7d5c1	-0.10538817
115	0x3d40b5c7	0.047048356
116	0x3c7b26ce	0.015329076
117	0xbdbbf604	-0.09177783
118	0x3ccfcd26	0.025366377
119	0x3ce5e975	0.028065423
120	0xbdba2e04	-0.09090808
121	0xbcebde37	-0.028792484
122	0xbbebe43c	-0.0071988385
123	0x3b85af4b	0.0040797344
124	0x3d35680b	0.044288676
125	0x3dd53ea6	0.1041234
126	0x3ca1083c	0.019657247
127	0xbd84da88	-0.06486994
128	0xbd22b019	-0.03971872
129	0xbd863378	-0.06552786
130	0x3d93802c	0.07202181
131	0xbb8dc464	-0.00432639
132	0x3ca23004	0.019798286
133	0x3c899875	0.01679633
134	0x3cf2790c	0.029598735
135	0x3d6c2d9e	0.05766069
136	0xbdb3436e	-0.087530956
137	0x3c411018	0.011783622
138	0x3d865ec2	0.06561042
139	0xbe10d26a	-0.14142767
140	0x3c974e51	0.018469961
141	0x3d7daee2	0.06193436
142	0x3d6190e6	0.055069827
143	0x3d229f75	0.03970285
144	0x3cd51a99	0.02601366
145	0x3c512324	0.012764726
146	0x3cfd87ed	0.030948604
147	0xbbaddc50	-0.0053058043
148	0xbd539f0f	-0.051665362
149	0xbbf87ffd	-0.0075836168
150	0x3d0e08fb	0.034676533
151	0x3dcd199e	0.10014652
152	0x3c9d2187	0.019181026
153	0x3d0a17e0	0.033714175
154	0x3d864ecf	0.06558
155	0x3d5053a5	0.05086102
156	0x3dbef53f	0.09324121
157	0x3c982939	0.018574344
158	0xbd906bb1	-0.070517905
159	0xbda0718c	-0.07834157
160	0x3cf30b52	0.029668484
161	0xbc73a243	-0.014870229
162	0xbd753410	-0.059864104
163	0xbbf52767	-0.0074815038
164	0xbd0bc0da	-0.034119464
165	0xbcadbc9e	-0.021208104
166	0x3d8e7a93	0.06956973
167	0x3ceeb7cc	0.029140376
168	0x3dd44363	0.103644155
169	0xbbda912c	-0.006670138
170	0x3d770ad9	0.06031308
171	0x3d9710eb	0.07376274
172	0xbc8239fc	-0.01589679
173	0x3d262c73	0.040569734
174	0xbd96390c	-0.073350996
175	0xbdbdffde	-0.092773184
176	0x3b1901fb	0.0023347128
177	0x3ddd8082	0.108155265
178	0xbd52b81b	-0.051445108
179	0x3d0d1818	0.034446806
180	0xbd2e7356	-0.04259046
181	0xbc7ab124	-0.015301023
182	0x3ca1f614	0.01977066
183	0x3d5e1f0e	0.054228835
184	0x3b3b856f	0.0028613468
185	0x3db6ef82	0.08932401
186	0xbd8b2923	-0.067949556
187	0x3dbe5f2f	0.092954986
188	0x3d9f1f14	0.077695996
189	0x3d751836	0.059837542
190	0x3d82be41	0.06383944
191	0x3c9c6919	0.019093083
192	0x3d995ce5	0.07488421
193	0x3df1fa14	0.11815277
194	0xbce5b4d7	-0.028040333
195	0xbda11653	-0.07865586
196	0xbdbd7c3a	-0.0925221
197	0x3cf8abd5	0.030355373
198	0xbd22a1ac	-0.039704964
199	0x3d9c9a76	0.076466486
200	0xbd814a84	-0.06313041
201	0xbdfe748e	-0.12424575
202	0x3dddc494	0.1082851
203	0xbd778648	-0.060430795
204	0xbd6fbfe3	-0.058532607
205	0xbd70f2fc	-0.058825478
206	0xbd1807b7	-0.037116732
207	0x3c349eee	0.01102422
208	0xbc45db8c	-0.01207627
209	0xbd4d1e9b	-0.050078016
210	0xbccb61ee	-0.02482697
211	0xbd576acb	-0.05259208
212	0x3d8e2a39	0.06941647
213	0xbd8055b4	-0.062663466
214	0x3d330500	0.04370594
215	0xbd88ad8e	-0.06673728
216	0x3d936958	0.07197827
217	0x3d31978d	0.04335742
218	0x3cbc6c9a	0.023001004
219	0xbce837c3	-0.028346902
220	0x3ce3e583	0.0278194
221	0xbd91981f	-0.07109093
222	0xbd2d9114	-0.042374685
223	0x3ad942c8	0.0016575688
224	0xbd4896a5	-0.04897179
225	0x3dd5b3bb	0.104346715
226	0x3cb13190	0.021630079
227	0xbcf4a24a	-0.029862542
228	0x3ba16b24	0.0049261022
229	0xbc9c8acd	-0.019109154
230	0x3da79fff	0.08184814
231	0x3d9306a0	0.07178998
232	0x3d5981a8	0.053102165
233	0xbd4e2263	-0.050325762
234	0xbdafac1c	-0.08577749
235	0x3afe87c6	0.0019419126
236	0x3ceeecd7	0.029165668
237	0x3d6f5fec	0.058441088
238	0xbcf8608e	-0.030319478
239	0xbb243e03	-0.0025061376
240	0x3c0f579e	0.008748917
241	0x3d39efae	0.045394592
242	0x3c28b102	0.010296108
243	0x3d7235f3	0.05913348
244	0x3dc48a27	0.09596663
245	0xbc49cfa9	-0.012317576
246	0xbd0ef178	-0.03489825
247	0x3da349d9	0.0797307
248	0x3d58ce9f	0.052931424
249	0xbd3c59ca	-0.045984067
250	0xbd82d8b8	-0.06388992
251	0xbce87808	-0.028377548
252	0xbd573258	-0.052538246
253	0x3d051949	0.032494817
254	0xbd828db2	-0.063746825
255	0x3d964447	0.073372416

hash1.bias f4 [64]
0	0xbd77526e	-0.060381345
1	0xbabda339	-0.00144682
2	0x3e919200	0.28431702
3	0x3d26f7de	0.04076373
4	0xbd6b4b35	-0.05744477
5	0xbdbfc363	-0.09363439
6	0x3d3db84e	0.046318345
7	0x3df419c6	0.119189784
8	0x3e02d092	0.12774876
9	0x3ce76e54	0.02825085
10	0xbdbce91f	-0.09224152
11	0x3e3b8e67	0.18316041
12	0x3de3b38f	0.111182325
13	0xbd87f615	-0.06638733
14	0xbd25927f	-0.040422913
15	0x3dda6172	0.106631175
16	0x3d488d77	0.048963036
17	0x3dc094c4	0.09403375
18	0xbc117d0c	-0.008879911
19	0x3be01a9b	0.006839109
20	0xbe024e77	-0.12725244
21	0x3e3a3fcc	0.18188399
22	0x3bff4b03	0.0077909245
23	0xbcb36472	-0.021898482
24	0xbe1402bf	-0.14454173
25	0x3c85ac33	0.016317463
26	0xbc484d49	-0.0122254575
27	0x3daaeb48	0.083456576
28	0x3cb52270	0.022111148
29	0xbdfad992	-0.122485295
30	0xbc867708	-0.01641418
31	0x3df7c683	0.1209841
32	0xbcac10be	-0.021004077
33	0x3d578335	0.052615363
34	0xbd8205ef	-0.06348788
35	0x3da366b0	0.079785705
36	0xbe2385fd	-0.15969081
37	0xbd70054d	-0.058598805
38	0xbe362a1a	-0.17789498
39	0xbd2e06e8	-0.042487055
40	0xbe046643	-0.12929635
41	0x3e88d793	0.2672697
42	0x3cfbb4d1	0.030725868
43	0xbd6386f3	-0.05554862
44	0xbe4b3a28	-0.19846404
45	0x3d62f398	0.05540809
46	0x3e3ab041	0.18231298
47	0x3d4afc3d	0.04955696
48	0x3dda5b17	0.10661905
49	0x3c1acf66	0.009448862
50	0xbb9a1d38	-0.00470319
51	0xbd279784	-0.04091598
52	0x3d033c7b	0.0320401
53	0xbdebf986	-0.11522202
54	0xbea33f46	-0.3188421
55	0x3d876b49	0.0661226
56	0x3cde683d	0.027149314
57	0xbdc0f6f9	-0.09422106
58	0xbb53531f	-0.003224559
59	0xbdd043e3	-0.10169198
60	0x3dc22688	0.094800055
61	0xbd73842e	-0.05945223
62	0xbd7c185d	-0.061546672
63	0xbd866281	-0.06561757

fc2.weight f4 [10, 64]
0	0x3e2f7f4a	0.171384
1	0x3dc84c01	0.097801216
2	0x3e5248c7	0.20535575
3	0xbd88012a	-0.06640847
4	0x3d344bd7	0.04401764
5	0xbdbca38e	-0.09210883
6	0xbdc1223e	-0.09430359
7	0xbe4ec414	-0.20191985
8	0xbccb2eb8	-0.02480255
9	0xbde3854f	-0.11109411
10	0x3e003e45	0.12523754
11	0xbe042b8d	-0.12907238
12	0x3e0c5cbb	0.13707249
13	0xbe35a8dc	-0.17740196
14	0x3e4d23c3	0.20033173
15	0x3de9e904	0.11421397
16	0xbc77a8bf	-0.015115916
17	0x3e1cdc83	0.15318494
18	0x3e0851c0	0.13312435
19	0x3d15710d	0.036484767
20	0xbdee490b	-0.116350256
21	0x3e6f963b	0.23397152
22	0xbe1baf9a	-0.15203705
23	0xbd44b3bc	-0.04802297
24	0x3e619f18	0.22033346
25	0x3db07033	0.0861515
26	0x3e7c979a	0.24667206
27	0xbd2ef607	-0.0427151
28	0xbdcbf20d	-0.09958277
29	0xbda64d79	-0.081202455
30	0xbe4332a5	-0.19062288
31	0x3da3f974	0.08006564
32	0xbe3c41c9	-0.1838447
33	0x3df0c0a8	0.11755496
34	0xbda812a4	-0.082066804
35	0xbd0f605d	-0.03500401
36	0xbe347b8b	-0.17625253
37	0x3e488707	0.19582759
38	0x3d92c34b	0.071661554
39	0x3c90106b	0.017585954
40	0xbdf2123b	-0.118198834
41	0x3cb3a9bd	0.021931523
42	0xbe67be93	-0.22631292
43	0xbdc5d108	-0.0965901
44	0xbe122a7a	-0.14274016
45	0xbe366591	-0.17812182
46	0x3dc6e16d	0.09710965
47	0x3dca3b00	0.098745346
48	0xbe18ef11	-0.14934947
49	0xbe96c84a	-0.29449683
50	0xbde48780	-0.11158657
51	0x3e4e0058	0.20117319
52	0x3d625a0c	0.055261657
53	0x3ca731e5	0.020409534
54	0xbdff3e83	-0.12463095
55	0x3dd565ea	0.10419829
56	0x3e4c37b6	0.19943127
57	0xbe3bde3b	-0.18346493
58	0x3e2e10a7	0.1699854
59	0x3ad5668d	0.0016281173
60	0x3d995f56	0.07488887
61	0x3e272151	0.16321303
62	0x3d3c826c	0.046022817
63	0x3e02e8ee	0.12784168
64	0xbdbf1161	-0.09329487
65	0xbd6f05fd	-0.05835532
66	0xbe9d7f99	-0.30761412
67	0xbe68320a	-0.22675338
68	0x3d203cae	0.03912037
69	0xbe3fb649	-0.1872188
70	0x3daae988	0.08345324
71	0xbc59bd79	-0.013289803
72	0xbd8669e1	-0.065631635
73	0x3e478942	0.19485953
74	0x3dbec6bd	0.0931525
75	0xbea7a764	-0.32744896
76	0xbdc85d25	-0.09783391
77	0x3e18221c	0.14856762
78	0xbd4de520	-0.05026734
79	0xbd0c04c3	-0.03418423
80	0xbde22048	-0.110413134
81	0x3dcd2f8b	0.10018834
82	0xbe080c1a	-0.13285866
83	0x3d48def2	0.049040742
84	0xbd6b650f	-0.057469424
85	0xbd0180d8	-0.031617016
86	0xbd2b309c	-0.041794404
87	0xbdf16847	-0.117874674
88	0xbd1ee803	-0.038795482
89	0x3e96b9dc	0.29438674
90	0x3d17a52e	0.037022762
91	0x3bb8e5a3	0.005642609
92	0x3e26f95f	0.16306065
93	0x3d7ef1f2	0.062242456
94	0x3d2eefd6	0.042709194
95	0xbe77ec57	-0.2421125
96	0x3a982582	0.0011607858
97	0xbdf1d3c9	-0.11807973
98	0xbe327896	-0.17428812
99	0xbd84db02	-0.06487085
100	0x3e7abfc6	0.24487218
101	0x3c225896	0.009908816
102	0x3e83e17c	0.25757968
103	0x3e1bcf0b	0.152157
104	0x3e75ca29	0.24002899
105	0xbe947073	-0.28992042
106	0xbdb218af	-0.08696114
107	0x3e162c9a	0.14665452
108	0x3e6af4ab	0.22944896
109	0x3cada405	0.021196375
110	0xbd7c6cfa	-0.061627366
111	0x3dd9dd5f	0.10637926
112	0xbddf4df9	-0.10903544
113	0xbdc2bfb9	-0.095092244
114	0xbd4e3350	-0.050341904
115	0xbcbc5ba9	-0.022992926
116	0xba75e80d	-0.00093805866
117	0xbe0ae328	-0.13563216
118	0x3e520371	0.20509125
119	0xbe7caf66	-0.24676284
120	0xbe02b709	-0.12765135
121	0x3e65a3de	0.22425792
122	0xbdf68e52	-0.12038864
123	0xbda1885c	-0.078873366
124	0xbb8e9171	-0.004350834
125	0x3e9a9114	0.3018881
126	0x3dfac9e1	0.122455366
127	0x3daf39fa	0.0855598
128	0x3b9c4872	0.0047693783
129	0x3db7fa4c	0.08983287
130	0x3d9f221c	0.07770178
131	0x3e790355	0.24317677
132	0x3dab54ab	0.083657585
133	0x3c89ef24	0.016837664
134	0x3d05d2e5	0.032671828
135	0xbc904d3c	-0.017614953
136	0x3e2ad9d9	0.16684665
137	0x3deed6e3	0.1166208
138	0xbe475b57	-0.19468437
139	0x3e78a564	0.24281842
140	0x3e0e26e1	0.13882019
141	0x3d337794	0.04381521
142	0xbe1c5d2c	-0.15269917
143	0x3e6bc3e0	0.23023939
144	0xbc979fe7	-0.018508865
145	0x3e3f6090	0.1868918
146	0x3e85dc26	0.26144522
147	0xbdb1a7cb	-0.08674582
148	0x3c6d62d6	0.014488896
149	0x3e3bb68e	0.18331358
150	0x3d1e54de	0.038655154
151	0xbd30f8d8	-0.043206066
152	0x3d9af9b4	0.07567158
153	0xbe0574d7	-0.13032852
154	0x3da9e29d	0.08295176
155	0xbe0a303a	-0.1349496
156	0x3b9096d3	0.004412511
157	0xbe8c6bba	-0.2742594
158	0x3dc52a9d	0.096272685
159	0x3e856810	0.26055956
160	0x3e60ad10	0.21941018
161	0x3d7e2d3f	0.06205487
162	0xbdfa8efc	-0.12234303
163	0xbe86f17c	-0.26356113
164	0xbd8f7c22	-0.07006098
165	0x3d5109c1	0.051034693
166	0xbe53d288	-0.2068578
167	0x3e0e6539	0.13905801
168	0x3e510059	0.20410289
169	0x3e21821e	0.15772292
170	0x3e055f5f	0.13024662
171	0xbd2e2a6d	-0.04252093
172	0x3cf03bfa	0.029325474
173	0xbe6a7e00	-0.22899628
174	0x3e58ae2e	0.21160194
175	0x3cd35420	0.02579695
176	0x3e31ce18	0.17363775
177	0xbd675783	-0.056479942
178	0xbdaf4985	-0.085589446
179	0xbdf034d4	-0.11728826
180	0x3e0cc793	0.13748007
181	0xbc77ff31	-0.015136526
182	0xbe8d401d	-0.27587977
183	0xbe10be58	-0.1413511
184	0x3e1d1c85	0.1534291
185	0x3d93ca7e	0.07216357
186	0x3c867be9	0.016416507
187	0xbdcd14f9	-0.10013766
188	0x3e406c97	0.18791424
189	0x3e4c86bf	0.19973277
190	0xbe543854	-0.20724612
191	0xbdebfee9	-0.1152323
192	0xbe0375ff	-0.1283798
193	0xbe143cc9	-0.14476313
194	0x3cc45627	0.023966862
195	0x3dda31bb	0.106540166
196	0x3e0d5575	0.1380213
197	0x3d3b554b	0.04573564
198	0x3e5d7498	0.21626508
199	0xbcd5e51b	-0.026110223
200	0xbd89d62f	-0.067303054
201	0xbca31c13	-0.019910848
202	0xbe670098	-0.2255882
203	0xbc6dd492	-0.014516013
204	0xbe0561b7	-0.13025557
205	0x3df525d8	0.11970109
206	0xbd5e0c2d	-0.05421083
207	0xbd2f8e61	-0.042860392
208	0x3e4aee1a	0.19817391
209	0xbe09bd5b	-0.1345114
210	0x3d122274	0.03567739
211	0xbdb3e8cc	-0.08784637
212	0xbd7842a2	-0.06061042
213	0x3dae1485	0.085000075
214	0x3c2ec1c2	0.010666313
215	0xbe2691e0	-0.16266584
216	0xbdbb99b0	-0.09160173
217	0xbe49686d	-0.19668742
218	0xbe669db2	-0.22521093
219	0x3d522df3	0.05131335
220	0xbd509f65	-0.05093326
221	0x3e1a3337	0.150586
222	0x3de4d4f1	0.11173428
223	0x3de8b8cb	0.113633715
224	0x3d30be70	0.043150365
225	0x3df30418	0.11866015
226	0x3d7ce1eb	0.06173889
227	0xbda387de	-0.07984899
228	0xba40ffb6	-0.00073623226
229	0x3db86792	0.090041295
230	0xbd590a4a	-0.052988328
231	0x3da04343	0.07825329
232	0x3d2d9539	0.042378638
233	0x3e272e0a	0.16326156
234	0x3dbfcd51	0.09365333
235	0xbdef09e6	-0.1167181
236	0xbe83c310	-0.25734758
237	0x3dda2631	0.10651816
238	0x3db0a800	0.086257935
239	0xbe482a53	-0.19547395
240	0xbde1abf7	-0.11019128
241	0x3d12e22b	0.03586022
242	0xbd8dbab7	-0.06920379
243	0x3d9c3c5e	0.076287016
244	0x3e1263ce	0.14295885
245	0xbe234193	-0.15942983
246	0x3ded7f89	0.11596591
247	0xbca50b03	-0.020146852
248	0x3dc29b91	0.09502328
249	0x3dc412ca	0.09573896
250	0xbc14ff30	-0.009094045
251	0x3d6e246d	0.058140207
252	0x3cc5614c	0.024094246
253	0xbe28dd19	-0.16490592
254	0xbdfd1637	-0.12357753
255	0x3e7af7ad	0.24508543

fc2.bias f4 [10]
0	0xbd386820	-0.045021176
1	0xbe992447	-0.2991049
2	0x3e342827	0.17593442
3	0x3d430344	0.047610536
4	0x3ea00844	0.31256306
5	0xbe417c75	-0.18895133
6	0x3e02defd	0.12780376
7	0xbe73c2c1	-0.23804761
8	0x3e1f0e14	0.15532714
9	0xbed8b584	-0.42325985
