2.NeuralHashing/cifar_net.pth (torch, 251604 bytes, 10 tensors)

conv1.weight f4 [6, 3, 5, 5]
0.10045808 0.13853791 0.10500364 0.1712306 0.07326538 0.15639126 0.56329894 0.63604605
0.4418572 0.111314565 -0.15727143 -0.20044748 -0.31084144 -0.36674362 -0.25074354 0.053752076
-0.275633 -0.49728718 -0.40475616 -0.065936424 -0.03706417 -0.040078808 0.045132168 -0.054900296
-0.04067286 -0.038413968 -0.07661143 0.057053156 0.12032094 -0.049119186 0.24795048 0.51749307
0.63896686 0.43032014 0.1405666 -0.15686451 -0.24131478 -0.42552543 -0.37769306 -0.3085186
0.067199185 -0.31007633 -0.3669754 -0.17421564 -0.020695617 -0.033381615 -0.022291906 0.16043732
-0.07287038 0.078673095 -0.07099405 -0.33373362 -0.06992649 -0.10828652 -0.26232466 0.061289806
0.29578155 0.35133183 0.087645054 0.14055562 -0.10234567 -0.263305 -0.23117647 -0.2809831
-0.028413326 0.15972699 -0.1765855 -0.29009023 0.022378067 0.14404204 0.13249637 0.16348983
0.30344647 0.17617668 0.19301279 0.09949793 0.14560309 0.08830866 -0.03627485 0.03860513
0.124668 0.10999302 0.043990497 -0.08777585 -0.051187385 0.03514565 0.19001207 0.16673598
-0.04924592 0.013031704 -0.013993717 0.03287199 0.083610035 -8.4821266e-05 -0.0745613 0.048684098
0.13474064 -0.03923055 0.057507366 -0.03330105 0.016215114 0.09632012 -0.009405109 -0.25254828
-0.30662772 0.10998212 0.12986791 0.11999475 -0.082919665 -0.25205 0.06820526 0.07439883
0.02392692 -0.1977651 -0.32944655 0.076958805 0.03952912 0.05792309 -0.13460702 -0.241665
-0.06564834 -0.032801088 0.07861638 -0.13794531 -0.20167188 0.23218633 0.30560035 0.03942943
-0.055712562 -0.24911392 0.28532586 0.30094317 0.039336484 -0.060714938 -0.20545624 0.23818935
0.17428018 0.09473248 0.02092375 -0.13289863 0.1905292 0.06785993 0.034461103 0.122478396
-0.020605259 0.048699677 -0.006769151 0.056500982 0.13214655 -0.029901424 0.043389592 -0.09819044
-0.073627844 0.09350927 -0.0065524452 0.37960932 -0.3317088 -0.6289483 0.28387716 0.050257392
0.3589467 -0.46973595 -0.66765916 0.44461492 0.27665347 0.09533426 -0.28887808 -0.20204699
0.19314641 0.299756 -0.035948206 -0.060672678 -0.008939419 -0.011288403 -0.031034704 0.07389164
-0.15160583 -0.06744154 0.09016668 0.07209901 0.38021168 -0.261797 -0.50447965 0.3240218
0.27229434 0.48612046 -0.5158988 -0.5605615 0.4656922 0.24236341 0.112446755 -0.27125478
-0.30671307 0.25680572 0.20812288 -0.053484663 -0.14640573 0.027610067 0.16779254 -0.017018735
-0.0061251796 -0.13722336 -0.12376775 -0.0599405 -0.11911904 0.39601657 -0.2800347 -0.43273294
0.32441562 0.00079050235 0.41682008 -0.44464976 -0.6288867 0.38683116 0.2251656 0.33436742
-0.240645 -0.17518947 0.19800495 0.21743558 -0.049240865 0.03153011 -0.027423164 -0.0039824005
-0.08398386 -0.11998056 -0.075381614 -0.24855536 -0.2766292 -0.12722924 -0.095478125 -0.0379294
-0.04125856 0.043461982 0.020228216 -0.040766206 -0.2760222 -0.052377004 -0.16428144 -0.088652946
-0.08292278 -0.19150229 -0.16309816 -0.15662423 -0.2191441 -0.16374765 -0.185656 -0.2160682
-0.09692055 -0.14018223 -0.043371 -0.040585306 -0.026836254 -0.012220696 -0.013906435 -0.0028360595
00000000: f7bc cd3d e2dc 0d3e 260c d73d 1357 2f3e
00000010: 290c 963d 0825 203e 5c34 103f ead3 223f
00000020: 1b3b e23e e4f8 e33d c30b 21be 1b42 4dbe
00000030: 9c26 9fbe d2c5 bbbe 7561 80be 232b 5c3d
00000040: c51f 8dbe 6d9c febe 333c cfbe ad09 87bd
00000050: 99d0 17bd ad29 24bd 82dc 383d 22df 60bd
00000060: 9698 26bd f757 1dbd 74e6 9cbd 92b0 693d
00000070: d36a f63d 3331 49bd bbe6 7d3e 6d7a 043f
00000080: 5593 233f ec52 dc3e b1f0 0f3e 17a1 20be
00000090: 391b 77be 78de d9be fc60 c1be 26f6 9dbe
000000a0: ba9f 893d 53c2 9ebe 33e4 bbbe 9665 32be
000000b0: db89 a9bc 29bb 08bd 849d b6bc ae49 243e
000000c0: 113d 95bd 5c1f a13d 5465 91bd 22df aabe
000000d0: 9f35 8fbd 53c5 ddbd 6b4f 86be 050b 7b3d
000000e0: ae70 973e c4e1 b33e 407f b33d d0ed 0f3e
000000f0: 9b9a d1bd eacf 86be 86b9 6cbe 04dd 8fbe
00000100: 10c3 e8bc 798f 233e d4d2 34be b586 94be
00000110: 3552 b73c c27f 133e 21ad 073e e169 273e
00000120: 565d 9b3e a967 343e 25a5 453e 92c5 cb3d
00000130: fa18 153e 2cdb b43d f094 14bd 6a20 1e3d
00000140: f051 ff3d 0544 e13d 612f 343d d3c3 b3bd
00000150: dda9 51bd e3f4 0f3d 8692 423e d6bc 2a3e
00000160: 17b6 49bd ee82 553c e745 65bc c8a4 063d
00000170: bd3b ab3d 12e2 b1b8 98b3 98bd fa68 473d
00000180: 73f9 093e 37b0 20bd d88c 6b3d af66 08bd
00000190: 8fd5 843c 7c43 c53d e317 1abc 024e 81be
000001a0: 4ffe 9cbe 4e3e e13d 18fc 043e cfbf f53d
000001b0: c9d1 a9bd b30c 81be 33af 8b3d 6a5e 983d
000001c0: 6302 c43c ef82 4abe 38ad a8be 949c 9d3d
000001d0: 49e9 213d c340 6d3d 6cd6 09be 0877 77be
000001e0: a372 86bd 6f5a 06bd a001 a13d 8941 0dbe
000001f0: 1383 4ebe 41c2 6d3e a677 9c3e c180 213d
00000200: db32 64bd b817 7fbe 3b16 923e 3915 9a3e
00000210: 4b1f 213d 3ab0 78bd 1f63 52be e9e7 733e
00000220: 8176 323e 1a03 c23d 4968 ab3c 9416 08be
00000230: 161a 433e 26fa 8a3d 1627 0d3d f4d5 fa3d
00000240: 5ccc a8bc 5079 473d c1cf ddbb 936d 673d
00000250: 6d51 073e d5f3 f4bc 49b9 313d 1218 c9bd
00000260: 32ca 96bd ca81 bf3d e5b5 d6bb 275c c23e
00000270: bcd5 a9be c102 21bf 5958 913e b2da 4d3d
00000280: ddc7 b73e 3b81 f0be b6eb 2abf 91a4 e33e
00000290: 86a5 8d3e 9c3e c33d d4e7 93be 68e5 4ebe
000002a0: 2cc8 453e 9e79 993e 6d3e 13bd ea83 78bd
000002b0: a476 12bc fef2 38bc 7e3c febc 8054 973d
000002c0: 8f3e 1bbe ca1e 8abd 4fa9 b83d a5a8 933d
000002d0: 1bab c23e 420a 86be 9425 01bf 2fe6 a53e
000002e0: 2a6a 8b3e c8e4 f83e f211 04bf f580 0fbf
000002f0: 356f ee3e 1d2e 783e 7c4a e63d e8e1 8abe
00000300: 7f09 9dbe 0a7c 833e 2a1e 553e bc12 5bbd
00000310: 62eb 15be 822e e23c cfd1 2b3e e06a 8bbc
00000320: bbb5 c8bb 4884 0cbe f279 fdbd 2b84 75bd
00000330: aff4 f3bd afc2 ca3e b560 8fbe 2c8f ddbe
00000340: ce19 a63e b739 4f3a 7169 d53e 22a9 e3be
00000350: b8fe 20bf bc0e c63e d091 663e 3532 ab3e
00000360: a56b 76be de64 33be cfc1 4a3e 6fa7 5e3e
00000370: cab0 49bd b725 013d 8ba6 e0bc cc7e 82bb
00000380: bbff abbd 5eb8 f5bd ad61 9abd 4c85 7ebe
00000390: 58a2 8dbe 6248 02be 098a c3bd dc5b 1bbd
000003a0: bcfe 28bd 3105 323d a5b5 a53c 77fa 26bd
000003b0: c852 8dbe 4589 56bd 6539 28be ad8f b5bd
000003c0: 6bd3 a9bd 2d19 44be 3403 27be 1a62 20be
000003d0: 5067 60be 77ad 27be 9b1c 3ebe fb40 5dbe
000003e0: 487e c6bd ee8b 0fbe caa5 31bd c73c 26bd
000003f0: b4d7 dbbc 5039 48bc d1d7 63bc 2fdd 39bb

conv1.bias f4 [6]
-0.42422068 -0.082907505 -0.27332807 0.4149599 -0.17633101 -0.44184425
00000000: 7433 d9be 69cb a9bd a8f1 8bbe a075 d43e
00000010: 1e90 34be 6939 e2be

conv2.weight f4 [16, 6, 5, 5]
0.018157918 -0.031400897 -0.11725428 0.030609151 0.0048866016 0.04060957 -0.04310444 -0.13758948
-0.13846616 -0.057029124 0.045213856 0.020175513 -0.103670016 -0.27318642 -0.1376499 -0.041208133
0.046779975 -0.05540883 -0.27564836 -0.14365913 -0.13866009 -0.066281304 -0.19471669 -0.18609324
-0.209188 0.08184942 0.12665708 -0.0060954443 -0.16922978 -0.054121297 -0.058789097 0.13398844
0.110130705 -0.14713703 -0.26220047 0.017069917 0.12990402 0.1607149 -0.0285188 -0.2836688
-0.049597364 0.03666257 0.12576878 0.044317365 -0.101161726 -0.006276917 0.07246171 0.13859
0.06556082 -0.0907306 0.20629577 -0.1378192 0.12539756 0.2976012 0.29038942 0.0886313
-0.10426616 -0.11142321 0.25579712 0.193869 -0.005780702 -0.13960007 -0.21385947 0.09989129
0.096146196 -0.079281196 -0.17460527 -0.12919553 0.057063285 0.011921581 -0.27763435 -0.3550945
-0.252948 -0.057616632 -0.08057972 0.04190552 -0.10556751 -0.05097327 0.13720992 0.13986374
0.062189385 -0.02624293 -0.079677165 -0.104922436 0.08697597 0.15671454 0.0015738327 -0.09217399
-0.14208479 0.060051277 0.120541595 0.032463484 -0.036359318 -0.19594835 -0.063808315 0.020015826
-0.013390626 -0.14612028 -0.19754934 -0.20885582 0.117098086 0.00065223454 -0.0008602092 0.06794457
0.032810397 0.106831685 0.0030014224 -0.10110069 0.0860866 0.067516126 0.1059483 0.1033887
-0.0021517798 0.18088213 0.11160295 0.09863862 0.04104965 -0.008965439 0.037188083 0.015807347
0.05193077 -0.030577557 0.005616566 0.04001649 0.1506425 -0.054445665 0.046717707 0.0563312
0.18120648 0.15067162 -0.058718428 -0.019764736 -0.037427604 0.101276666 0.18330659 -0.076058626
-0.005563728 -0.091287605 0.028947357 0.106403045 -0.13518588 -0.021532252 -0.04592235 -0.071092375
0.060238086 -0.14938404 -0.08363765 -0.19383809 -0.14929265 -0.107160166 0.046538904 -0.09336429
-0.019233942 -0.0035418742 0.06944611 -0.08091018 -0.07810304 -0.13591991 0.06932887 -0.06829922
-0.0467265 -0.10445629 -0.064916104 -0.021719 0.05989437 0.050815467 0.07281097 0.032917622
-0.010150874 0.067950584 -0.006677727 -0.08585791 -0.09893401 0.03668285 -0.06740726 0.023693461
0.04220548 0.034616314 0.079195544 0.07292792 0.07532499 0.008428497 0.016272005 0.030260045
-0.068615526 0.009433062 -0.05599342 -0.11974002 0.0051558726 -0.104361385 -0.041291617 -0.036025077
-0.028488532 -0.046194393 -0.009968851 -0.092809446 0.029905671 -0.10156055 -0.0655348 0.005728716
-0.070768766 0.014366489 -0.08001446 -0.13303871 0.053977393 -0.0140610635 0.17131661 -0.097896785
0.071613155 -0.037815478 -0.07501481 0.010941882 0.013941583 0.07237428 0.07317937 -0.023878759
0.030622032 -0.112310946 -0.061450828 -0.08196219 0.055401217 -0.025575962 0.06806262 0.049723323
-0.1310245 -0.0025099865 0.007560808 -0.032595508 0.013214844 -0.06969839 -0.035099074 0.0009909896
0.06072855 -0.052190766 0.03211324 0.044213288 0.05643463 -0.040495895 0.06326807 -0.09035887
-0.011395435 -0.036482837 0.00854956 -0.13776092 -0.10343448 -0.050517038 -0.107362755 0.000284965
-0.14675651 -0.06169578 -0.043232795 0.05754605 -0.0044816784 0.029691668 -0.018501865 -0.05342611
00000000: eabf 943c 3a9e 00bd 0323 f0bd 0bc0 fa3c
00000010: c91f a03b 3856 263d 488e 30bd 42e4 0cbe
00000020: 13ca 0dbe 5f97 69bd 2a32 393d 1e47 a53c
00000030: f250 d4bd 17df 8bbe 18f4 0cbe dcc9 28bd
00000040: 5c9c 3f3d 5ff4 62bd c821 8dbe 611b 13be
00000050: e9fc 0dbe 7ebe 87bd d063 47be 3a8f 3ebe
00000060: 6135 56be aba0 a73d 65b2 013e 4bbc c7bb
00000070: 924a 2dbe 4bae 5dbd d6cc 70bd 4434 093e
00000080: 358c e13d 17ab 16be 243f 86be 36d6 8b3c
00000090: 8f05 053e 7292 243e 42a0 e9bc 093d 91be
000000a0: 9b26 4bbd 7e2b 163d 88c9 003e 2086 353d
000000b0: e12d cfbd 99ae cdbb ce66 943d 89ea 0d3e
000000c0: c044 863d f7d0 b9bd 333f 533e 7a20 0dbe
000000d0: 3868 003e 2f5f 983e ecad 943e 5484 b53d
000000e0: 7f89 d5bd da31 e4bd d7f7 823e 9885 463e
000000f0: 0b6c bdbb 52f3 0ebe fafd 5abe ce93 cc3d
00000100: 4ce8 c43d 2e5e a2bd b9cb 32be d54b 04be
00000110: 31bb 693d bc52 433c 1726 8ebe f2ce b5be
00000120: 6682 81be 6bff 6bbd fb06 a5bd 1fa5 2b3d
00000130: c733 d8bd 59c9 50bd c280 0c3e 7138 0f3e
00000140: 4cba 7e3d 6afb d6bc c82d a3bd 93e1 d6bd
00000150: 7520 b23d c779 203e 1049 ce3a b8c5 bcbd
00000160: ad7e 11be 54f8 753d 83de f63d 6ef8 043d
00000170: 82ed 14bd afa6 48be efad 82bd 3bf8 a33c
00000180: 5b64 5bbc 8ea0 15be 604a 4abe 4dde 55be
00000190: 1fd1 ef3d b8fa 2a3a aa7f 61ba 8626 8b3d
000001a0: 3264 063d 92ca da3d 83b3 443b e10d cfbd
000001b0: 2c4e b03d e545 8a3d 6cfb d83d 74bd d33d
000001c0: e004 0dbb 2a39 393e 1690 e43d 0b03 ca3d
000001d0: ae23 283d c7e3 12bc 8852 183d 697e 813c
000001e0: 5cb5 543d c97d fabc 2c0b b83b 55e8 233d
000001f0: 0742 1a3e 6b02 5fbd 115b 3f3d 8bbb 663d
00000200: 318e 393e a949 1a3e bc82 70bd a8e9 a1bc
00000210: b04d 19bd 246a cf3d b9b4 3b3e a0c4 9bbd
00000220: ef4f b6bb fff4 babd 0223 ed3c d7e9 d93d
00000230: 2b6e 0abe 6864 b0bc 1319 3cbd e198 91bd
00000240: 36bc 763d 21f8 18be 374a abbd 7e7d 46be
00000250: 2ce0 18be ca76 dbbd 949f 3e3d c735 bfbd
00000260: 8090 9dbc ca1e 68bb c339 8e3d 3db4 a5bd
00000270: 7df4 9fbd 972e 0bbe 4bfc 8d3d 76e0 8bbd
00000280: 4964 3fbd 2eed d5bd bcf2 84bd 0bec b1bc
00000290: cd53 753d e123 503d eb1d 953d a1d4 063d
000002a0: da4f 26bc ad29 8b3d d6d0 dabb 46d6 afbd
000002b0: ea9d cabd c240 163d d10c 8abd ca18 c23c
000002c0: a7df 2c3d d6c9 0d3d 4631 a23d 3c5b 953d
000002d0: fd43 9a3d ae17 0a3c de4c 853c eae3 f73c
000002e0: 4c86 8cbd 218d 1a3c 5b59 65bd 413a f5bd
000002f0: 98f2 a83b 6cbb d5bd 6621 29bd 088f 13bd
00000300: c860 e9bc 5536 3dbd 6454 23bc e112 bebd
00000310: bdfc f43c fafe cfbd 1c37 86bd f4b7 bb3b
00000320: 37ef 90bd 6c61 6b3c 9fde a3bd 4d3b 08be
00000330: 6617 5d3d 6060 66bc 9f6d 2f3e 1c7e c8bd
00000340: eba9 923d 67e4 1abd 5da1 99bd 9445 333c
00000350: 3d6b 643c f738 943d 11df 953d 639d c3bc
00000360: 0edb fa3c 4803 e6bd ddb3 7bbd cbdb a7bd
00000370: 63ec 623d ae84 d1bc 6a64 8b3d afaa 4b3d
00000380: 492b 06be 967e 24bb a8c0 f73b de82 05bd
00000390: 1383 583c 08be 8ebd 0cc4 0fbd 18e4 813a
000003a0: 80be 783d fcc5 55bd 2c89 033d fe18 353d
000003b0: 0028 673d 06df 25bd b192 813d 120e b9bd
000003c0: ebb3 3abc 076f 15bd 7413 0c3c 3311 0dbe
000003d0: 75d5 d3bd f4ea 4ebd 01e1 dbbd 5b67 9539
000003e0: 5747 16be b7b4 7cbd df14 31bd 68b5 6b3d
000003f0: 0bdb 92bb f13b f33c 3991 97bc 56d5 5abd

conv2.bias f4 [16]
-0.12590694 -0.01887036 0.6393754 0.010534728 -0.20204873 -0.24816859 -0.2618597 0.42713898
0.058654983 0.06742252 -0.2352623 -0.56643826 1.0605931 -0.34752506 -0.44817153 -0.040133145
00000000: c0ed 00be 0396 9abc 1bae 233f da99 2c3c
00000010: dde5 4ebe e81f 7ebe 7912 86be f6b1 da3e
00000020: 3540 703d d114 8a3d 9ae8 70be 1902 11bf
00000030: 84c1 873f ceee b1be bd76 e5be a762 24bd

fc1.weight f4 [120, 400]
0.00391768 0.023814827 0.01665912 -0.006134501 -0.009786434 0.08380813 0.05320068 -0.028633304
0.056289446 0.011605077 0.0670909 0.04179356 0.001547362 -0.026865914 -0.023688786 -0.047172327
0.01782987 0.0012419857 0.00031074657 -0.08241883 -0.06603762 -0.08573677 0.06743698 0.017284386
-0.046421435 -0.030992419 -0.04025588 -0.043420915 -0.03796804 -0.028578062 0.022262676 -0.02786006
-0.052721567 -0.01000259 -0.033141654 -0.039164677 0.0043809325 0.0037367158 -0.008739816 0.020487156
-0.014709062 -0.0056458255 -0.018332208 0.0081158485 0.024049642 -0.025738392 0.018890128 -0.03222855
0.04596981 -0.0053188093 -0.02097986 0.024115587 0.045569066 0.009052093 0.021466965 0.012200782
0.026390625 -0.03708323 -0.015629072 -0.06539172 0.054019373 0.025479948 0.0025232108 -0.033434674
-0.041146066 0.051266365 0.05462526 0.0012684516 0.016665563 0.039205354 0.037190482 0.03906353
0.01604935 0.097015336 0.056974925 0.021895042 -0.0231971 0.053487446 0.04969738 0.018173974
-0.04359562 0.005462574 0.0141878715 0.009973567 -0.04609608 -0.003300326 -0.025096338 0.01694542
-0.034958612 0.0031020425 -0.051043063 -0.0052286307 -0.042936593 0.012671828 0.017488549 0.026831586
0.01140947 0.04005496 0.004069927 0.017419118 0.030485457 -0.08170445 -0.0800821 -0.0643198
-0.013723473 0.009402143 0.026954621 -0.10112437 -0.077593744 -0.071615785 -0.059557553 -0.050324213
-0.03934906 -0.088561766 -0.041123807 -0.028281193 -0.00697898 -0.039385352 -0.044222865 -0.06303876
-0.075995766 0.005237004 0.006410056 -0.01964582 -0.06826214 -0.0662418 0.004645189 -0.011728706
-0.059196677 -0.011623851 -0.079942025 -0.017111758 0.014955143 -0.051779993 -0.016566228 -0.041732386
-0.06557235 -0.035876498 0.038876284 0.029270686 -0.043968514 0.03669163 0.018500062 0.040389348
0.08676591 0.0055390843 0.019461963 0.099721044 0.07348218 -0.019220846 -0.011014042 0.018548662
-0.007122099 0.05969161 0.10150654 -0.057848927 -0.07352758 -0.049637895 -0.013604206 0.06739928
0.00989491 0.017533911 -0.028255709 -0.009796432 0.044797316 0.057084702 0.067942746 0.054074172
0.013069079 0.006089092 0.028385773 0.0031855518 0.017047415 -0.033649504 -0.039065424 0.052646574
-0.008994152 -0.020296663 0.012044007 0.018478025 0.050554525 0.04843596 -0.010668427 0.00389462
-0.028053056 0.02335018 0.026818646 -0.017489335 0.025625333 -0.027237603 -0.0067259483 -0.0022094497
-0.031666733 0.025516704 0.029099902 0.02136607 -0.07037792 -0.07318186 -0.0026219208 -0.04846564
0.015480156 0.013158272 0.062460963 0.0029670827 0.05352853 -0.03389865 0.014670753 0.01875839
0.023275988 -0.018870354 0.022240454 0.014870277 0.01414824 0.059332177 0.04066463 -0.026678678
-0.003744755 -0.03483485 0.039584804 0.0041073635 0.051151473 0.058555856 0.026734333 0.06898959
0.05833476 0.061231773 0.052707244 -0.04381225 0.023051541 0.029141027 0.057781357 -0.030467652
-0.006748832 0.016375033 -0.066050276 0.017386373 -0.00670953 -0.039922226 -0.014593939 -0.008786439
0.04031623 -0.023420915 -0.008290763 0.03474824 0.058274735 -0.0036260607 0.0069778636 -0.0089058485
-0.030319806 0.025237234 0.027890654 -0.025521055 -0.032760482 -0.053333383 -0.025356272 -0.029524038
00000000: e25f 803b 5017 c33c b578 883c ed03 c9bb
00000010: 4757 20bc 99a3 ab3d f5e8 593d 6490 eabc
00000020: c38f 663d 3923 3e3c f466 893d b92f 2b3d
00000030: dad0 ca3a e815 dcbc fc0e c2bc c537 41bd
00000040: f30f 923c 20ca a23a b3eb a239 34cb a8bd
00000050: bb3e 87bd c296 afbd 661c 8a3d fc97 8d3c
00000060: 6724 3ebd d0e3 fdbc 5ae3 24bd 21da 31bd
00000070: 6084 1bbd 8a1c eabc 3760 b63c c83a e4bc
00000080: 92f2 57bd e7e1 23bc 8bbf 07bd 246b 20bd
00000090: ed8d 8f3b b0e3 743b 7231 0fbc aed4 a73c
000000a0: 47fe 70bc 9e00 b9bb 6d2d 96bc 56f8 043c
000000b0: c103 c53c 52d9 d2bc 78bf 9a3c 1602 04bd
000000c0: d74a 3c3d 6849 aebb f5dd abbc 0d8e c53c
000000d0: a1a6 3a3d 3b4f 143c 7ddb af3c cae5 473c
000000e0: 2731 d83c 96e4 17bd 8a08 80bc 18ec 85bd
000000f0: 6b43 5d3d 53bb d03c 745c 253b ccf2 08bd
00000100: c788 28bd aefc 513d bdbe 5f3d 2c42 a63a
00000110: 3886 883c cb95 203d 0c55 183d 1401 203d
00000120: ed79 833c faaf c63d 8a5e 693d 3b5d b33c
00000130: d807 bebc a715 5b3d 7b8f 4b3d 96e1 943c
00000140: 5291 32bd 64ff b23b 3f74 683c 2c68 233c
00000150: 3ecf 3cbd 484a 58bb d696 cdbc 1fd1 8a3c
00000160: c330 0fbd a34b 4b3b 8812 51bd ef54 abbb
00000170: 48de 2fbd 809d 4f3c 2544 8f3c eacd db3c
00000180: c9ee 3a3c ab10 243d 065d 853b 8ab2 8e3c
00000190: a3bc f93c aa54 a7bd 1602 a4bd 19ba 83bd
000001a0: 6bd8 60bc 720b 1a3c f0cf dc3c 4b1a cfbd
000001b0: 78e9 9ebd 4cab 92bd 9ff2 73bd c320 4ebd
000001c0: 7b2c 21bd df5f b5bd 7071 28bd f6ad e7bc
000001d0: edaf e4bb 8952 21bd 0923 35bd 771a 81bd
000001e0: aba3 9bbd 2c9b ab3b 720b d23b 45f0 a0bc
000001f0: 05cd 8bbd c8a9 87bd ab36 983b c229 40bc
00000200: 3778 72bd f771 3ebc a5b8 a3bd f52d 8cbc
00000210: 6b06 753c 4217 54bd e6b5 87bc 94ef 2abd
00000220: cc4a 86bd 3cf3 12bd bd3c 1f3d 14c9 ef3c
00000230: 5418 34bd f649 163d 718d 973c 4d6f 253d
00000240: 53b2 b13d 3581 b53b b26e 9f3c 8c3a cc3d
00000250: d37d 963d 0975 9dbc 3e74 34bc 5df3 973c
00000260: 7f60 e9bb 317f 743d a9e2 cf3d fff2 6cbd
00000270: a195 96bd 1b51 4bbd 2de4 5ebc a208 8a3d
00000280: 431e 223c 47a3 8f3c 8478 e7bc 3781 20bc
00000290: 647d 373d a6d1 693d 9125 8b3d e17c 5d3d
000002a0: b11f 563c 0287 c73b 4889 e83c b1c4 503b
000002b0: 05a7 8b3c 10d4 09bd 1103 20bd efa3 573d
000002c0: 355c 13bc 3045 a6bc 3a54 453c 3a5f 973c
000002d0: 4312 4f3d c964 463d a0ca 2ebc e23c 7f3b
000002e0: 86cf e5bc e048 bf3c c7b2 db3c cb45 8fbc
000002f0: 38ec d13c 6521 dfbc 5865 dcbb 6acc 10bb
00000300: fab4 01bd 6808 d13c eb62 ee3c e507 af3c
00000310: 4d22 90bd 5fe0 95bd 88d4 2bbb e883 46bd
00000320: 7ba0 7d3c cb95 573c 11d7 7f3d 6373 423b
00000330: bb40 5b3d 50d9 0abd 995d 703c 32ab 993c
00000340: 49ad be3c 0096 9abc 9d31 b63c 76a2 733c
00000350: 05ce 673c 4c06 733d f48f 263d 3e8d dabc
00000360: 906a 75bb fdae 0ebd ad23 223d 1097 863b
00000370: 3584 513d 44d8 6f3d f601 db3c 6a4a 8d3d
00000380: 6ef0 6e3d 2bce 7a3d 8de3 573d 7974 33bd
00000390: 96d6 bc3c 2ab9 ee3c 25ac 6c3d 4c97 f9bc
000003a0: 4e25 ddbb ef24 863c 5e45 87bd de6d 8e3c
000003b0: 9edb dbbb 7d85 23bd 6b1b 6fbc fff4 0fbc
000003c0: a222 253d 38dd bfbc fbd5 07bc 2c54 0e3d
000003d0: 7db1 6e3d 34a3 6dbb 90a6 e43b d6e9 11bc
000003e0: 3e61 f8bc 51be ce3c f17a e43c 8811 d1bc
000003f0: db2f 06bd 1b74 5abd f5b7 cfbc 65dc f1bc

fc1.bias f4 [120]
-0.016951567 -0.035649654 -0.0046767117 0.062419046 0.07625008 0.057059847 0.025178907 -0.021335887
0.18085285 -0.10572971 -0.03013687 -0.005036938 -0.25251657 0.044237792 -0.005871979 0.11088408
0.20806855 0.0013134441 -0.04545689 0.29826203 -0.010375366 0.06884422 0.011544078 0.06826906
0.082992055 0.076218165 0.08415982 -0.022874437 0.005855228 0.13205892 0.050465442 -0.209228
-0.08890033 0.07759394 -0.012215158 0.014160514 -0.0607121 -0.06168778 -0.12648313 0.11635095
0.022234099 0.026397089 -0.057743162 -0.10357543 -0.08371904 -0.0024652027 -0.028381651 0.09060646
0.032804385 -0.04191221 -0.17017394 -0.21210307 0.19571644 -0.034645952 0.107807755 0.0810495
-0.05534238 0.07465796 -0.0008737378 -0.031337056 0.00013848662 -0.033465147 0.084125765 -0.016373184
0.20916152 0.053197797 0.12839833 -0.033782497 -0.034676634 0.007080129 -0.018529916 0.023612088
-0.13436873 -0.02578568 -0.0019891767 0.105441816 -0.019857895 -0.009089055 -0.037192088 0.15005983
-0.014689739 -0.019920805 0.07042213 0.22181827 0.2399863 0.01870532 0.005297078 0.10620185
0.120840475 -0.1896396 0.06489403 -0.031225564 -0.08176699 -0.039031446 -0.032338526 0.0037997763
-0.019998448 0.16456285 0.025190275 -0.043195423 -0.04232125 0.006832785 0.1785429 -0.11727287
0.13269173 0.1125209 0.0036951585 0.060314238 0.092395775 -0.006646213 -0.033996664 0.17583588
0.0025665653 0.10580249 -0.013512146 -0.013057117 -0.010728832 0.024782646 -0.06659995 -0.04382754
00000000: 03de 8abc 5f05 12bd 1a3f 99bb 1dab 7f3d
00000010: 0029 9c3d 96b7 693d ff43 ce3c 99c8 aebc
00000020: 7d31 393e d188 d8bd 99e1 f6bc e60c a5bb
00000030: da49 81be b032 353d bb69 c0bb 3117 e33d
00000040: ec0f 553e df27 ac3a 0131 3abd cdb5 983e
00000050: 70fd 29bc 33fe 8c3d 5f23 3d3c a6d0 8b3d
00000060: bdf7 a93d 4518 9c3d fc5b ac3d 2c63 bbbc
00000070: 36dd bf3b 743a 073e dab4 4e3d dd3f 56be
00000080: 6011 b6bd 92e9 9e3d 1622 48bc 8001 683c
00000090: 40ad 78bd 53ac 7cbd cb84 01be 6849 ee3d
000000a0: 4924 b63c b53e d83c 1884 6cbd 5b1f d4bd
000000b0: e374 abbd 3d8f 21bb a380 e8bc e18f b93d
000000c0: e45d 063d 23ac 2bbd 1442 2ebe 8c31 59be
000000d0: e469 483e eae8 0dbd 50ca dc3d 48fd a53d
000000e0: b1ae 62bd 46e6 983d 8d0b 65ba 495b 00bd
000000f0: b836 1139 c012 09bd 214a ac3d 0e21 86bc
00000100: 702e 563e efe5 593d da7a 033e 845f 0abd
00000110: 1609 0ebd 6d00 e83b 0dcc 97bc 236e c13c
00000120: f597 09be 7e3c d3bc d95c 02bb e1f1 d73d
00000130: 06ad a2bc 42ea 14bc bb56 18bd 49a9 193e
00000140: 3bad 70bc f530 a3bc 7a39 903d 5424 633e
00000150: f8be 753e e63b 993c 1c93 ad3b 5b80 d93d
00000160: 367b f73d e230 42be 29e7 843d c1cc ffbc
00000170: 7475 a7bd 70df 1fbd 6775 04bd ab05 793b
00000180: c9d3 a3bc 2a83 283e d65b ce3c afed 30bd
00000190: 0c59 2dbd 8ee5 df3b f3d3 363e c22c f0bd
000001a0: 57e0 073e 5c71 e63d 792a 723b 100c 773d
000001b0: ff39 bd3d 7ac8 d9bb 1640 0bbd 520e 343e
000001c0: d233 283b faae d83d 0c62 5dbc 85ed 55bc
000001d0: fcc7 2fbc fa04 cb3c 8e65 88bd 8284 33bd

fc2.weight f4 [84, 120]
0.010602671 0.03170367 -0.06686623 0.074418865 -0.07228221 0.05404458 0.066048846 0.033883985
0.06694387 0.03909976 -0.010233928 0.08350577 -0.04583916 -0.08754153 0.051003132 0.05863791
-0.044613115 -0.042418305 0.029196553 0.0008655086 -0.003848168 0.0133584365 0.06941963 -0.08223325
-0.08648184 -0.028650012 -0.06039282 0.013042204 0.08349072 -0.013612524 0.09008579 0.00038367603
0.04334132 0.056327097 0.011196946 0.008370218 -0.023391768 -0.050371807 -0.10267279 0.08140309
0.041906703 0.085644946 0.016724985 -0.060045585 0.06804844 -0.06042747 0.04842131 0.07159165
0.005697475 -0.09654652 -0.02759766 0.005712615 -0.039937783 0.04488171 0.009022459 0.058571868
-0.079451576 -0.028592747 -0.09193812 -0.09213246 0.041307986 0.014667528 0.005564322 -0.022526685
-0.080220856 -0.061723754 -0.08430619 0.09618157 -0.05038547 0.02671032 -0.086326934 -0.07925147
0.06838555 0.022518458 0.032932624 0.05897373 0.04243149 -0.06496241 0.03447005 -0.02176814
0.047056206 0.038715098 0.0038110688 0.01402168 -0.09683475 0.04927961 0.0128403865 -0.030496819
-0.033482164 -0.008285347 -0.06845942 0.06477919 -0.035421237 0.061476108 0.0700847 0.070302136
0.04407069 -0.030917427 -0.07217556 0.027783096 0.09124703 -0.022239875 -0.05870875 -0.06816972
-0.030847238 -0.0716655 -0.015070956 -0.09961044 0.013905462 -0.061209265 -0.09189921 0.06921564
0.007961277 -0.033684306 -0.06279724 0.063405946 -0.00021091927 0.07806927 -0.05973045 -0.05232824
-0.058912493 -0.006808459 0.037866898 0.032681223 -0.03924255 -0.057482522 -0.00961048 -0.051301308
-0.08551228 -0.057306398 0.062208377 0.099048674 -0.016427126 -0.013600407 0.052692562 0.09652197
0.08736884 0.093078665 0.06344009 -0.036785435 0.05380931 0.021683289 -0.020255703 0.051517703
0.054994367 0.035633355 0.022383641 0.025034975 -0.071851335 0.041062858 0.04711644 0.034642305
-0.07714586 0.027887104 0.03348903 0.04782235 0.019933594 0.086029515 0.00624313 -0.04886166
-0.09633324 0.09918895 -0.092413925 0.016130479 -0.014117651 0.05321775 0.04478817 0.015206576
0.07745262 0.06299917 0.027990466 -0.029657029 0.052557997 -0.0826639 -0.017477931 0.090076014
0.02192429 0.0065289685 -0.024533082 0.04605337 -0.015009517 0.073614985 0.07106508 -0.056958996
0.029739052 -0.0036741295 -0.03347665 0.07166486 -0.016991222 -0.017781906 0.011232884 -0.06759522
0.051761217 0.048253883 0.07692879 0.020948756 -0.026894374 0.063041426 -0.053236462 0.048864786
0.03889099 -0.027193524 -0.035390202 -0.031217763 -0.02889364 0.025188057 0.04195299 -0.0058435597
-0.00018053755 -0.007153241 0.0035566625 -0.072480954 0.03098532 0.0015330563 0.104161255 -0.073529094
-0.009177977 -0.021141462 0.028768461 -0.07409607 0.022749227 -0.058915675 -0.052414387 0.06437396
-0.08886138 0.047916625 0.05657876 -0.0797659 0.03682109 -0.08157944 -0.055189718 0.054381758
0.07675528 -0.021826768 -0.0337783 0.00582259 0.061791427 -0.016704928 -0.13087632 0.08581984
-0.008430069 -0.007805958 0.032767892 -0.07070486 -0.028974088 -0.074630395 -0.027076632 0.06206487
0.046799187 0.05835644 -0.00071803684 -0.06973044 -0.07866147 -0.010438219 0.01959844 -0.050990194
00000000: d3b6 2d3c b5db 013d 29f1 88bd eb68 983d
00000010: b208 94bd d95d 5d3d 9e44 873d efc9 0a3d
00000020: de19 893d 1227 203d 35ac 27bc 1305 ab3d
00000030: d8c1 3bbd f948 b3bd a9e8 503d 4e2e 703d
00000040: 3ebc 36bd d1be 2dbd 9c2d ef3c 4de3 623a
00000050: 8c31 7cbb 58dd 5a3c e12b 8e3d e869 a8bd
00000060: 641d b1bd 6eb3 eabc 765e 77bd f8ae 553c
00000070: 2ffd aa3d 1007 5fbc e67e b83d 2028 c939
00000080: ab86 313d 3eb7 663d 6573 373c 3d23 093c
00000090: 18a0 bfbc ab52 4ebd 1d46 d2bd aab6 a63d
000000a0: 5da6 2b3d 9e66 af3d d602 893c 5cf2 75bd
000000b0: fb5c 8b3d cb82 77bd 6c55 463d a59e 923d
000000c0: e2b1 ba3b 2fba c5bd 7d14 e2bc e330 bb3b
000000d0: cd95 23bd e2d5 373d f0d2 133c 0ee9 6f3d
000000e0: 82b7 a2bd 563b eabc 0e4a bcbd f1af bcbd
000000f0: 9032 293d 1250 703c eb54 b63b e289 b8bc
00000100: d54a a4bd 0cd2 7cbd b9a8 acbd d8fa c43d
00000110: ff60 4ebd 9acf da3c 2dcc b0bd 984e a2bd
00000120: b90d 8c3d a178 b83c 5ce4 063d 708e 713d
00000130: a4cc 2d3d 030b 85bd 7830 0d3d 1953 b2bc
00000140: 02be 403d b993 1e3d 20c3 793b 30bb 653c
00000150: 4c51 c6bd 6bd9 493d 7c60 523c 77d4 f9bc
00000160: 9824 09bd 44bf 07bc 7434 8cbd f4aa 843d
00000170: dc15 11bd 5fce 7b3d 9188 8f3d 91fa 8f3d
00000180: 7883 343d 8b46 fdbc c8d0 93bd 6099 e33c
00000190: b9df ba3d 6630 b6bc 9678 70bd 919c 8bbd
000001a0: 59b3 fcbc 5dc5 92bd 2cec 76bc 8f00 ccbd
000001b0: bcd3 633c 91b6 7abd a735 bcbd eec0 8d3d
000001c0: 0470 023c 8ef8 09bd d79b 80bd fada 813d
000001d0: 362a 5db9 c8e2 9f3d eba7 74bd 2356 56bd
000001e0: 3a4e 71bd 7e19 dfbb 521a 1b3d bfdc 053d
000001f0: ccbc 20bd cb72 6bbd 4675 1dbc 5221 52bd
00000200: 1021 afbd 1dba 6abd 36ce 7e3d 08da ca3d
00000210: 2e92 86bc 3ed4 5ebc 28d4 573d 50ad c53d
00000220: 6fee b23d 07a0 be3d e1ec 813d 53ac 16bd
00000230: 2767 5c3d 27a1 b13c 4aef a5bc 3a04 533d
00000240: c641 613d 48f4 113d e65d b73c 2616 cd3c
00000250: cb26 93bd 8731 283d 2bfd 403d 17e5 0d3d
00000260: a6fe 9dbd 7f73 e43c cb2b 093d 5ee1 433d
00000270: c74b a33c 3e30 b03d 2c93 cc3b 2a23 48bd
00000280: 5d4a c5bd 9423 cb3d 8343 bdbd 1124 843c
00000290: b84d 67bc dbfa 593d cd73 373d 0125 793c
000002a0: 7b9f 9e3d b505 813d 434c e53c 4cf3 f2bc
000002b0: 0e47 573d b14b a9bd e12d 8fbc c679 b83d
000002c0: 929a b33c f5f0 d53b 9af9 c8bc 75a2 3c3d
000002d0: 7aea 75bc 74c3 963d 928a 913d d64d 69bd
000002e0: 509f f33c aac9 70bb d01e 09bd 07c5 923d
000002f0: 2d31 8bbc 5cab 91bc 210a 383c 5d6f 8abd
00000300: 9203 543d dda5 453d d78c 9d3d ba9c ab3c
00000310: 9751 dcbc dd1b 813d 7a0e 5abd 7126 483d
00000320: 294c 1f3d f4c4 debc 51f5 10bd 65bc ffbc
00000330: 5bb2 ecbc 2f57 ce3c e6d6 2b3d 557b bfbb
00000340: ae4e 3db9 bc65 eabb e516 693b e570 94bd
00000350: edd4 fd3c d5f0 c83a 7f52 d53d 6c96 96bd
00000360: 3a5f 16bc dc30 adbc d6ab eb3c aebf 97bd
00000370: 965c ba3c 9051 71bd 78b0 56bd 7fd6 833d
00000380: f5fc b5bd 3944 443d 21bf 673d 4e5c a3bd
00000390: b6d1 163d 1f13 a7bd 9d0e 62bd 68bf 5e3d
000003a0: df31 9d3d 0dce b2bc 1d5b 0abd 6dcb be3b
000003b0: 0219 7d3d c6d8 88bc 7104 06be 50c2 af3d
000003c0: 461e 0abc 1fc9 ffbb a037 063d b6cd 90bd
000003d0: 115b edbc d2d7 98bd d0cf ddbc bc37 7e3d
000003e0: 81b0 3f3d 2a07 6f3d a33a 3cba d5ce 8ebd
000003f0: 4419 a1bd 1005 2bbc e88c a03c 18db 50bd

fc2.bias f4 [84]
0.014967918 0.028287735 0.20802547 -0.10850178 0.0075921556 0.008737452 0.2132019 0.00028241702
0.16490363 0.050049633 0.044376336 -0.086957596 0.11802587 -0.05325182 0.11480947 -0.025700308
-0.104342386 0.045967672 -0.03709182 0.38576305 0.13258097 0.037322506 0.21902722 0.24245872
-0.0558375 0.15831971 0.19443889 -0.122774296 -0.0907969 0.12976362 -0.02453942 0.3734144
0.029144296 0.089438066 -0.08140375 -0.06559287 0.14905927 0.1012847 0.23036343 0.17709522
-0.04421774 0.012062368 -0.06828859 0.08854381 -0.047481768 -0.031977907 -0.029404728 -0.06779441
0.32293135 -0.010989037 0.010197228 0.07881428 0.14103386 0.19816726 0.04861671 -0.0730496
-0.096790425 -0.03497199 0.15109754 0.07596169 0.012942795 0.40165976 0.032763127 -0.09029762
0.34660107 0.08138613 0.03125414 0.21677943 -0.26628765 -0.13115676 0.46502987 -0.0959303
-0.08955165 -0.083280705 0.28606766 0.18539582 -0.07833109 0.028852519 -0.020254323 0.0072590313
-0.06425239 0.43064302 0.03619662 0.095068485
00000000: 003c 753c aebb e73c a104 553e 2e36 debd
00000010: 9ec7 f83b 8827 0f3c 9951 5a3e 5f11 9439
00000020: 7fdc 283e d800 4d3d f6c3 353d d316 b2bd
00000030: 8cb7 f13d 951e 5abd 3a21 eb3d 7489 d2bc
00000040: 76b1 d5bd 9948 3c3d 98ed 17bd bc82 c53e
00000050: 4ec3 073e 7cdf 183d ac48 603e 1947 783e
00000060: ddb5 64bd 901e 223e fd1a 473e 1771 fbbd
00000070: baf3 b9bd c1e0 043e e506 c9bc 2c30 bf3e
00000080: 05c0 ee3c 4e2b b73d 02b7 a6bd 8e55 86bd
00000090: fea2 183e 5a6e cf3d 64e4 6b3e 7358 353e
000000a0: a91d 35bd 3da1 453c e3da 8bbd 7556 b53d
000000b0: 3e7c 42bd 44fb 02bd 2fe2 f0bc ccd7 8abd
000000c0: 4257 a53e 5d0b 34bc 4612 273c 6269 a13d
000000d0: 2e6b 103e 5cec 4a3e 5122 473d 079b 95bd
000000e0: 0f3a c6bd ca3e 0fbd 50b9 1a3e cd91 9b3d
000000f0: 040e 543c 59a6 cd3e a132 063d f5ed b8bd
00000100: b275 b13e c5ad a63d 5704 003d 6dfb 5d3e
00000110: db56 88be f54d 06be 6518 ee3e 1b77 c4bd
00000120: db66 b7bd 138f aabd 7677 923e 67d8 3d3e
00000130: 0d6c a0bd 1e5c ec3c 65ec a5bc 2bdd ed3b
00000140: c296 83bd 3e7d dc3e e842 143d 44b3 c23d

fc3.weight f4 [10, 84]
0.04252651 0.096857734 -0.12968937 0.086789586 0.12757073 -0.015919618 0.21745689 0.042182624
-0.10057986 0.12001011 0.2275035 0.07303763 0.107692175 -0.009377682 0.23141211 -0.024399484
0.1489029 0.19849086 0.108216204 -0.009643314 -0.0012484414 0.050708175 -0.13042852 0.19093058
0.113021046 0.2363352 0.012053752 0.119869635 -0.061119393 0.01993303 0.05857754 -0.14047702
-0.015180953 -0.029398182 -0.015411971 0.13052523 -0.036754895 -0.08452323 0.0026064087 -0.17677689
-0.038880195 -0.1337001 0.13234559 0.20375873 0.064415365 -0.015482729 -0.07753426 0.12231752
-0.15473062 -0.0728831 -0.05459005 -0.0719709 0.065960154 0.03106872 -0.15679564 0.13612752
0.09736972 -0.1479068 0.19507048 -0.068251066 0.0507488 -0.029654268 -0.01923752 0.08547171
-0.23623842 0.29993376 0.10106316 0.027928747 0.15283301 -0.007025057 -0.2299302 1.7514645e-05
0.034295272 -0.03531545 0.02141121 -0.15895271 -0.0008538438 -0.1711392 0.030062154 0.157161
-0.03134488 -0.27801263 0.13976781 0.3057488 -0.08352221 0.07606954 0.08961279 0.071718216
0.2711841 0.16090217 -0.0866589 -0.00085160387 -0.19327584 0.08654671 0.02592525 -0.005937483
0.07721974 -0.0205828 0.08192014 0.0730441 -0.021316828 0.21398549 0.2307046 -0.05689638
-0.18085547 -0.09714488 -0.20491551 -0.1433134 -0.10419394 -0.12565531 -0.13627145 0.041965753
0.051173046 -0.0052042226 -0.11175029 -0.35944754 -0.014076812 0.12180888 0.016480358 0.13957387
-0.11055227 0.11487524 -0.029242732 -0.054284956 0.106001355 -0.016616618 -0.018986063 0.2299316
0.04558247 -0.07791338 0.061671916 -0.0792415 -0.09778206 0.17632197 -0.15757143 -0.218016
-0.06020166 -0.20979127 -0.012931412 0.19643043 -0.04455053 0.21432807 -0.22481899 -0.08747968
0.080059335 -0.069928095 0.07475016 0.060478713 -0.034024548 -0.010197432 0.23360738 -0.00913956
0.17991044 0.28750065 -0.1283913 0.2293269 0.03909578 0.08785809 -0.23258245 0.030608596
-0.10091112 0.11127774 -0.018061895 0.09892195 0.00495018 -0.21219586 0.10387863 -0.047351956
0.040797167 -0.016533915 -0.04612101 0.014727853 -0.037494224 -0.053274333 0.26325 0.04322267
-0.13992877 -0.06847784 0.13531405 -0.02908022 -0.109811746 0.07181887 0.16239592 -0.0574244
0.016301531 -0.0841649 -0.026789611 0.33883253 0.13369271 -0.008933716 0.08207051 -0.14305428
0.0073532113 0.14100856 -0.052894555 -0.19164732 -0.17212412 0.07614711 0.17350237 0.13535288
0.06300446 0.011200224 -0.020128962 -0.19603854 -0.00075906416 -0.20094825 0.00993235 -0.13934617
0.04200341 -0.06625621 0.095899604 -0.040297315 0.111312285 -0.043071676 -0.10547039 0.099045046
0.13552809 -0.10128247 0.08582736 -0.0117857065 -0.11056752 0.12524043 0.053416748 0.18984738
0.0063857865 0.023817105 0.15047924 -0.051424913 -0.06854967 0.05848265 -0.12696888 0.11620329
0.10974457 0.28290606 -0.07923677 0.081522614 -0.0030819648 -0.03310416 0.2921046 -0.0014850765
0.033854853 0.19403449 0.19499351 0.031375576 0.0038767061 -0.0069839503 0.07879847 -0.1096891
-0.046277992 0.29908252 -0.20879748 0.09523791 0.05234129 0.062055744 0.11464818 -0.0053829253
00000000: 4730 2e3d 595d c63d 4acd 04be bdbe b13d
00000010: e7a1 023e dc69 82bc 05ad 5e3e b0c7 2c3d
00000020: d0fc cdbd dcc7 f53d adf6 683e c194 953d
00000030: b78d dc3d d9a4 19bc 4cf7 6c3e 6de1 c7bc
00000040: 007a 183e 3041 4b3e 75a0 dd3d fefe 1dbc
00000050: bea2 a3ba 60b3 4f3d 0e8f 05be 4e83 433e
00000060: 9477 e73d db01 723e 1a7d 453c 367e f53d
00000070: 5458 7abd 984a a33c 01ef 6f3d 35d9 0fbe
00000080: 88b9 78bc 75d4 f0bc 7e82 7cbc 68a8 053e
00000090: 4d8c 16bd 841a adbd 48d0 2a3b 0005 35be
000000a0: d740 1fbd aee8 08be 9a85 073e 21a6 503e
000000b0: 34ec 833d 46ab 7dbc 48ca 9ebd 9c81 fa3d
000000c0: b471 1ebe bc43 95bd d199 5fbd 7b65 93bd
000000d0: 1e16 873d d483 fe3c 098f 20be 0365 0b3e
000000e0: c769 c73d e174 17be 8ec0 473e 37c7 8bbd
000000f0: f9dd 4f3d 82ed f2bc 0198 9dbc cb0b af3d
00000100: 7ce8 71be eb90 993e 34fa ce3d d4ca e43c
00000110: 4280 1c3e 7332 e6bb d372 6bbe 6aec 9237
00000120: 3379 0c3d efa6 10bd 9066 af3c 80c4 22be
00000130: 7dd4 5fba 1d3f 2fbe e844 f63c d0ee 203e
00000140: 7d63 00bd ac57 8ebe 4b1f 0f3e 1b8b 9c3e
00000150: b10d abbd 59ca 9b3d e986 b73d 00e1 923d
00000160: a4d8 8a3e 8ac3 243e 397a b1bd 2b3e 5fba
00000170: 1aea 45be 673f b13d 3161 d43c 388f c2bb
00000180: 6225 9e3d 439d a8bc bfc5 a73d 2598 953d
00000190: a1a0 aebc 031f 5b3e d43d 6c3e 2e0c 69bd
000001a0: 2d32 39be e5f3 c6bd 5fd5 51be bfc0 12be
000001b0: a263 d5bd c9ab 00be be8a 0bbe 48e4 2b3d
000001c0: d49a 513d 2f88 aabb 56dd e4bd 8209 b8be
000001d0: 6ea2 66bc ef76 f93d d101 873c 74ec 0e3e
000001e0: 3b69 e2bd b643 eb3d 748e efbc e759 5ebd
000001f0: 3d17 d93d 931f 88bc a988 9bbc 3073 6b3e
00000200: afb4 3a3d 0d91 9fbd b19b 7c3d 5e49 a2bd
00000210: f641 c8bd bf8d 343e 685a 21be 963f 5fbe
00000220: 0496 76bd 86d3 56be 46de 53bc 0f25 493e
00000230: 9e7a 36bd d178 5b3e f336 66be 8c28 b3bd
00000240: 26f6 a33d 7636 8fbd 9d16 993d 87b8 773d
00000250: 535d 0bbd 2113 27bc c636 6f3e 18be 15bc
00000260: 713a 383e 4933 933e 0279 03be acd4 6a3e
00000270: e622 203d f1ee b33d 182a 6ebe e1be fa3c
00000280: 7daa cebd 95e5 e33d 8af6 93bc 9797 ca3d
00000290: 1f35 a23b df49 59be 52be d43d 20f4 41bd
000002a0: ee1a 273d 2272 87bc 62e9 3cbd 184d 713c
000002b0: 8b93 19bd 3036 5abd b4c8 863e 410a 313d
000002c0: 7d49 0fbe 1c3e 8cbd c48f 0a3e a439 eebc
000002d0: fbe4 e0bd c615 933d 1e4b 263e d935 6bbd
000002e0: ca8a 853c a65e acbd e375 dbbc 757b ad3e
000002f0: bee6 083e b95e 12bc 9514 a83d d27c 12be
00000300: 35f3 f03b 8c64 103e f6a7 58bd 323f 44be
00000310: 4e41 30be 04f3 9b3d 9baa 313e f299 0a3e
00000320: 7b08 813d 2581 373c 7ee5 a4bc 54be 48be
00000330: effb 46ba 61c5 4dbe 4cbb 223c c3b0 0ebe
00000340: c50b 2c3d 56b1 87bd 0367 c43d cc0e 25bd
00000350: b2f7 e33d ed6b 30bd dc00 d8bd 21d8 ca3d
00000360: e0c7 0a3e 2f6d cfbd 41c6 af3d d618 41bc
00000370: 3971 e2bd 073f 003e 85cb 5a3d 5a67 423e
00000380: dc3f d13b 171c c33c 3b17 1a3e eea2 52bd
00000390: c563 8cbd 818b 6f3d 2104 02be fefb ed3d
000003a0: c3c1 e03d 10d9 903e e346 a2bd 54f5 a63d
000003b0: cafa 49bb 3a98 07bd bc8e 953e e6a6 c2ba
000003c0: 63ab 0a3d fab0 463e 61ac 473e ad83 003d
000003d0: 5610 7e3b 9fd9 e4bb 1861 a13d aea4 e0bd
000003e0: fe8d 3dbd 5821 993e 02cf 55be 180c c33d
000003f0: d263 563d 2a2e 7e3d aacc ea3d 4063 b0bb

fc3.bias f4 [10]
-0.35000035 -0.6508239 0.16374213 0.4184685 0.56242603 0.020008331 0.2665711 -0.15363337
0.20256203 -0.33546066
00000000: 3f33 b3be 659c 26bf 04ac 273e 8141 d63e
00000010: 27fb 0f3f 83e8 a33c 027c 883e 1152 1dbe
00000020: 6c6c 4f3e 80c1 abbe
