2.NeuralHashing/cifar_net.pth (torch, 241300 bytes, 10 tensors)

conv1.weight f4 [6, 3, 5, 5]
000000 0b dc 11 3d d0 94 7b 3d 82 08 6d 3e 1f 72 a2 3e
       0.03561024 0.061421216 0.23147777 0.31727692
000010 f0 7d 36 3e 5e 5c 58 3e e8 35 0c bd 3c 7c 18 3e
       0.17821479 0.21128985 -0.034231097 0.14891142
000020 e8 4f 1c 3d 4d 32 b1 3d e2 90 63 3e 4a 88 87 3d
       0.038162142 0.08652172 0.22223237 0.06617792
000030 10 81 fb bd 85 71 1d bd 64 f4 5b 3d b2 26 0d 3e
       -0.12280476 -0.03843834 0.053699866 0.13784292
000040 65 f1 cb 3b d7 3e 04 bd 02 de 4e be 22 27 f5 bd
       0.006223845 -0.03228649 -0.20201877 -0.119703546
000050 55 7f 9f 3d 0e a4 28 be b7 8a 2c be 38 56 94 be
       0.077879585 -0.16468832 -0.1684979 -0.2897203
000060 b2 d1 64 be f9 3d 90 bd 06 df d5 bd 5c f0 5c bd
       -0.22345617 -0.0704307 -0.10442929 -0.053940162
000070 5b f4 b7 bd d1 b7 cb bd 45 68 38 bd a0 03 69 be
       -0.08982154 -0.099471696 -0.045021314 -0.22755289
000080 ba 20 69 be 06 da 8f bd 6b bb a8 bd 6d b2 8a 3d
       -0.2276639 -0.070240065 -0.08238872 0.06772313
000090 e2 ba c1 bd ec ef a0 be 80 e4 6a be 6b 43 20 be
       -0.09459473 -0.31433046 -0.22938728 -0.15650718
0000a0 64 19 91 3d 09 88 d8 bd 9b 3b 84 be 19 cc a8 be
       0.07084921 -0.10572822 -0.25826725 -0.32968214
0000b0 23 db 60 be 67 18 6e 3e b0 73 7a 3c b2 2d 0e be
       -0.21958594 0.23251496 0.015286371 -0.13884619
0000c0 43 f7 c7 bd db 52 3d be 3e 98 ad bd 77 5f 22 bd
       -0.09763958 -0.18488638 -0.084763035 -0.039641824
0000d0 4b 80 d3 bd e3 6b e4 bd 68 2f 5d bc 5f 42 23 3d
       -0.10327204 -0.1115339 -0.013500072 0.03985822
0000e0 d0 fc 18 be e4 03 f1 bd e0 7a 92 bd 4f 74 01 bb
       -0.1494019 -0.1176832 -0.07152343 -0.0019753163
0000f0 fa 09 32 3e 61 31 d4 3d 4f d8 16 be a6 a4 3e bd
       0.17386618 0.10360981 -0.14730953 -0.04654374
000100 f8 3e ab 3d bb 39 1b 3e 9b 6f 56 3c 59 01 a4 bd
       0.0836162 0.15158741 0.013088132 -0.080080695
000110 59 0a 38 be 0c 2c 8a 3c 3e a8 4a 3e 48 fa 2f 3e
       -0.17972697 0.016866706 0.19790742 0.17185318
000120 e1 45 be bd 37 de 11 be a9 24 4c bd 4b 75 aa bc
       -0.09290672 -0.14244924 -0.04983965 -0.020807883
000130 e6 bf 2a be bb 42 b4 bd 95 94 98 bd 27 0d 1d be
       -0.16674766 -0.0880179 -0.07450215 -0.15337048
000140 20 7b 84 bd 05 e9 e5 bc 2e e2 77 be ab 29 41 bd
       -0.06468797 -0.028065214 -0.24207374 -0.04715888
000150 fa c6 4b be 92 14 f0 bd e7 68 23 be f4 72 e4 bd
       -0.19900122 -0.117226735 -0.15957986 -0.11154738
000160 11 b2 a7 bd 30 4d 44 be ec 26 a7 bd bd ef ea bd
       -0.0818826 -0.1917007 -0.08161721 -0.11471508
000170 39 7e 2d be 3f 03 17 be 3c 75 7b be e5 d0 3d be
       -0.16942681 -0.14747332 -0.2455644 -0.18536718
000180 7d 1f 11 be 77 91 0d be 87 d9 96 39 62 0a ec bd
       -0.14172168 -0.13825022 0.000287723 -0.11525418
000190 e0 4f b9 3d e4 42 d5 bc 7a b5 aa bd 42 aa 95 bc
       0.09048438 -0.026032872 -0.08335395 -0.018269662
0001a0 e8 3d 89 bd 6c ab ff bd da ba 2c bd 47 75 4b 3c
       -0.06701261 -0.12483868 -0.042170383 0.012418098
0001b0 a1 ca 82 bc 6b c6 c4 3d fc 80 8d bd 3c 82 8d bc
       -0.015965762 0.09608158 -0.069093674 -0.017274015
0001c0 dd 79 35 3e b5 bb b3 ba 7c 28 aa 3d 10 06 70 bb
       0.17722268 -0.0013712557 0.08308503 -0.0036624707
0001d0 e7 c5 c5 3d 9d db e7 3d 09 e8 39 bc 5e 2d 94 3d
       0.096568875 0.11321185 -0.011346825 0.072352156
0001e0 45 fd df 3d 30 ff 49 3d 1e 3a 6d 3c a5 08 24 3e
       0.10936979 0.04931563 0.014479188 0.16018923
0001f0 7b 6e cc 3d 07 25 4a bd db 81 5a bd ed d9 4f 3d
       0.0998201 -0.04935172 -0.053346496 0.05074494
000200 f4 22 6b bd d6 f5 58 3d 37 93 98 3d f6 d3 45 3d
       -0.05740638 0.052968822 0.07449954 0.048297845
000210 26 47 37 3e ca 1c 27 3e 7a cc 5d 3e d9 70 21 3d
       0.17898235 0.16319576 0.21660033 0.03941426
000220 d7 59 3e 3e 23 61 26 3e b9 7a 71 3e 41 94 3f 3e
       0.18588959 0.16247992 0.23581971 0.18708898
000230 53 26 05 3e 3d 53 1b 3e f2 ad 60 3e 3d 08 20 3e
       0.13002901 0.15168472 0.21941355 0.15628143
000240 fb 83 2c 3e 27 bb 90 3c 3b 5a 10 3e 07 bf fc 3d
       0.16847222 0.017667366 0.1409692 0.12341123
000250 08 48 a6 3c 70 9f 73 3d 9d 3f 51 bc 9c 4a 45 3e
       0.020298019 0.059478223 -0.012771514 0.19266742
000260 26 f7 5a 3d d4 33 fb 3d f8 45 39 3d 36 95 91 3d
       0.053458355 0.12265745 0.045232743 0.07108538
000270 8e c0 52 3e bf b9 f2 3e de 10 ea 3e a7 b6 cf 3e
       0.20581266 0.47407338 0.45715994 0.4056904
000280 63 67 3a be 5b d1 14 be 45 4f 25 bc d5 7a e0 bc
       -0.18203501 -0.14532988 -0.0100897 -0.02740232
000290 a7 4d d8 bd cb 6d 39 be 49 63 57 be 21 bf cc be
       -0.10561686 -0.18108289 -0.21033968 -0.3998957
0002a0 02 0a a9 be eb 16 6b be 24 d5 23 bd c9 ac d7 3c
       -0.33015448 -0.22957961 -0.03999819 0.026327508
0002b0 76 d8 34 be ce de d4 bd 1e 67 07 3e 0b 44 1c be
       -0.17660698 -0.10394059 0.1322293 -0.15260331
0002c0 23 cd 1c 3d 7a 2e 55 bd e3 1f 0e 3e 3d 19 18 3e
       0.03828157 -0.052046277 0.13879351 0.14853378
0002d0 4e a8 c5 bd 1c c2 c4 3d 0c d2 c6 3e 41 8c dc 3e
       -0.09651242 0.09607336 0.38832128 0.43075755
0002e0 c7 de 1d 3e 1d e0 19 be 36 7a e3 bd 7f 3d ae bc
       0.15417014 -0.15026899 -0.11107294 -0.021269558
0002f0 8b de d5 3b ad 46 16 be 9b 2b 6f 3d 74 d3 a0 bd
       0.0065267733 -0.14675398 0.058391195 -0.078528315
000300 0c 87 ab be 47 19 ca be a4 d6 a4 be 87 79 65 3e
       -0.3350147 -0.3947241 -0.32195008 0.2240964
000310 71 60 e3 3d 5a 86 40 bd b7 f7 8d bd a6 82 67 bd
       0.11102379 -0.047003128 -0.069320135 -0.05652108
000320 01 1b 4b 3d d6 9a 14 3d ed 95 23 bc b8 6d 27 bc
       0.0495863 0.036280476 -0.009984476 -0.01021903
000330 47 d9 cb bd c4 da 92 bd ed 2e 29 3e af 6d 84 3e
       -0.09953552 -0.071706325 0.16521807 0.25864932
000340 4c f4 5f 3e e4 22 07 3e b7 99 c8 bc 01 36 12 3d
       0.21870536 0.13196903 -0.02448736 0.035696033
000350 f9 13 67 be fa a5 e6 bd 13 56 1a 3c 9c 7a 19 3d
       -0.22566213 -0.11262126 0.009419936 0.037470445
000360 26 14 87 bd d1 ea 9c be a3 e7 2c be 3f 4a 41 be
       -0.0659564 -0.306479 -0.16885237 -0.18875979
000370 0a 7e 40 3e 22 c6 18 3e 7e 0a f2 bb 5e b5 d9 3d
       0.1879808 0.14919332 -0.0073865047 0.10630296
000380 7f dd d5 3d d2 53 c4 3d 9f dd 10 3e e0 e3 a1 3c
       0.10442638 0.095863 0.14147042 0.01976198
000390 6d ce c1 3d eb c0 88 3c 16 55 32 3c 71 04 15 3e
       0.09463201 0.016693553 0.010884544 0.14552476
0003a0 82 59 32 3d ac ed 3e 3e 09 b4 07 3e aa a3 0f 3d
       0.043542393 0.18645352 0.13252272 0.03506819
0003b0 c9 7b 3d 3d cf 4b 39 3e f3 18 17 3e e9 27 11 3d
       0.04626063 0.18095325 0.14755611 0.035438452
0003c0 b7 91 0f 3c 10 59 82 3d ae 90 be 3d b3 8e 82 bc
       0.0087627685 0.063646436 0.09304939 -0.015937185
0003d0 ac 20 42 bd e2 12 22 3d da bd d0 3d 11 da 24 3d
       -0.04739444 0.03956879 0.10192461 0.040247027
0003e0 26 2f 6c 3d 45 75 89 3d 05 b8 5d bd 3a cf 22 3b
       0.05766215 0.067118205 -0.054130573 0.0024842755
0003f0 3a c2 0f 3e dd 6e 6b 3d 1e 50 ca bc fd d6 d2 bb
       0.14038935 0.057478774 -0.024696406 -0.00643432

conv1.bias f4 [6]
000000 04 30 e9 3d 1e d2 35 3f cf 1e ca bd a8 82 98 3e
       0.113861114 0.7102374 -0.098691575 0.29787183
000010 98 e2 0b 3f b4 b2 ce 3d
       0.5464263 0.10092679

conv2.weight f4 [16, 6, 5, 5]
000000 94 e1 41 bc 49 71 e8 bc d2 bb 02 3e 9e 37 80 3b
       -0.011833567 -0.028374331 0.1276696 0.00391288
000010 9b 75 bb 3c 0f f0 49 be 12 a8 2e bd 90 e7 8b 3d
       0.022883227 -0.19720481 -0.042640753 0.068312764
000020 85 35 3d 3d 0e 89 2e bd c1 ee 43 bd 45 54 94 bd
       0.04619362 -0.042611174 -0.047835115 -0.07242636
000030 d8 35 35 3b 9c 76 ad 3c ef bc 65 3d 09 7a 53 be
       0.0027650502 0.021174721 0.056088384 -0.20652021
000040 8f e9 ca bc 88 73 b1 3d e2 80 c7 3d dc bc 87 3c
       -0.024769573 0.08664614 0.09741379 0.016569547
000050 ad f7 35 be 4f 3b 50 3c 07 59 0f bc b2 94 72 bc
       -0.17770262 0.012709453 -0.008749253 -0.01480596
000060 d5 47 84 3b 1a 07 e2 bd ab 37 3f bd 51 fd cb bd
       0.0040368834 -0.11036511 -0.04668395 -0.09960426
000070 d1 6f 27 3d 12 34 d9 3d f9 2d 87 bc 63 c5 3c bd
       0.04087812 0.10605635 -0.016501414 -0.04608668
000080 38 ab 0f 3d 64 ed ee bc 5c 01 b8 3d 28 a6 5f bd
       0.035075396 -0.029165931 0.08984634 -0.05460182
000090 cb 19 23 bd fa 7b 68 3d 9b e3 9e 3d ce 04 b8 3b
       -0.03981952 0.05675886 0.07758256 0.005615807
0000a0 ed e7 88 3d 8d 85 8f 3d aa 3e b7 3d 70 8b 0b bc
       0.06684861 0.07007895 0.08947499 -0.008517131
0000b0 3a 76 80 3d 1a 5f 09 3d 7b 5d 4c 3d a4 50 c4 3a
       0.0627255 0.03353796 0.049893837 0.0014977646
0000c0 d7 47 b3 bd 58 37 3d bc 1c 8e bd bd b3 ac 1b bd
       -0.08753937 -0.0115488395 -0.09255621 -0.038006496
0000d0 2d 9c 84 bd 5f 27 44 bc 9a 73 73 3d bf 51 bb bd
       -0.06475101 -0.011972277 0.059436418 -0.09146451
0000e0 e2 86 03 be e7 4d e0 bd e5 6c 83 bc 1a e7 17 3d
       -0.12844422 -0.10952359 -0.016043136 0.03708563
0000f0 51 49 53 bd 4d 16 39 3c e5 5f 9e bd 3d 82 81 3c
       -0.05158359 0.011296821 -0.07733134 0.015809173
000100 1a 94 fd ba 2a 1a 5e 3d 89 c4 0b 3d bd f1 f8 bc
       -0.0019346506 0.05422417 0.034122977 -0.030388707
000110 b4 80 4b bd 67 9a 97 3c 32 fc b3 bd 5e c9 37 bd
       -0.049683288 0.018506242 -0.08788337 -0.044869773
000120 aa 24 00 be 4d e2 e4 bc 77 b6 d0 bd 40 18 ae bd
       -0.12513986 -0.02793994 -0.101910524 -0.08500719
000130 9f 2b f1 bd c7 da 9f bd 64 57 f6 3c 89 dd 25 bd
       -0.11775898 -0.078054 0.030070968 -0.040494476
000140 4c 0b 95 bd 62 82 6c bc 31 67 06 bc 4a 2c 4d 3d
       -0.07277545 -0.014435383 -0.008203314 0.050091065
000150 e0 7a 99 3d 5b 56 3a bd 5d eb a4 bc cb 12 96 3d
       0.0749414 -0.04549251 -0.020131761 0.07327803
000160 b1 a9 a3 3c ec 3c 19 bd 11 91 ad bd d4 a8 26 bc
       0.019978376 -0.037411615 -0.08474935 -0.010172088
000170 04 55 80 bd ad 5a ab bd 68 d1 2a bd 35 98 26 bd
       -0.062662154 -0.083669044 -0.04170361 -0.0406725
000180 d7 90 9a bc 4a 72 21 3d 18 8c 4e bc 89 35 b2 bd
       -0.018867893 0.039415635 -0.012606643 -0.08701617
000190 ab 07 92 3d 50 3d 74 3b e3 64 5b 3d c8 4a 2c bc
       0.07130369 0.003726799 0.05356301 -0.010515876
0001a0 9a 70 5e 3d e7 4c 68 bd e3 d3 b5 3d 75 f4 2e bd
       0.054306604 -0.056713965 0.08878305 -0.0427136
0001b0 b6 fe 86 bd 29 b6 80 bb b5 e1 35 3d 6f ee b2 3d
       -0.06591551 -0.003927965 0.044404704 0.08736884
0001c0 d9 31 15 bd 88 6b ab 3d 9e a5 4e bc 97 0a f4 3c
       -0.03642449 0.08370119 -0.012612728 0.029790206
0001d0 21 e9 19 bd 36 58 1a bd d6 b4 22 3d 5a df 23 3d
       -0.037575845 -0.03768178 0.03972324 0.040007927
0001e0 98 6e 47 bc 8b d3 8f 3d 45 ba d9 b9 ad 6e 3c bc
       -0.012172364 0.070227705 -0.00041528247 -0.011500997
0001f0 c3 f5 1d bd b7 5b 7c 3e c2 49 db 3d 1a 3c d8 3d
       -0.038564455 0.24644361 0.107074276 0.105583385
000200 73 0d 19 3e 6e 20 9e bc 4f 1b 89 3e fc 24 c2 3d
       0.14946537 -0.019302573 0.26778647 0.094797105
000210 1b d0 6c 3e f9 42 00 3e 05 cc 9f 3b 58 82 5c 3e
       0.23126261 0.12525548 0.004876616 0.21534097
000220 2d c1 0e 3d 69 17 35 3e 84 d9 94 3d 88 ad d0 3d
       0.034852196 0.17684712 0.0726805 0.101893485
000230 4d ca b5 3d 83 9f da 3d bc 3b ca 3d 08 7f e8 bc
       0.088764764 0.10674956 0.09874675 -0.028380886
000240 a3 1c ea 3d c9 53 56 3e 82 3c 84 3d 82 83 41 3e
       0.11431243 0.20930399 0.064568534 0.18897822
000250 38 bf 77 3d 86 59 5f 3e 91 7e 92 3d 44 00 7b 3d
       0.060485095 0.21811494 0.07153047 0.06127955
000260 d6 95 7b 3d 27 f2 c6 bd 3c 9c 1d bd 0b e4 9a 3c
       0.06142219 -0.09714156 -0.038479075 0.018907567
000270 73 3a 14 3c 15 f6 d5 bc f5 6b 06 bc eb 35 3c be
       0.0090471385 -0.026118318 -0.00820445 -0.18379943
000280 0a 01 e0 3c f3 6d 3d bd dc e9 d3 3d 71 a7 62 bb
       0.027344245 -0.046247434 0.103473395 -0.0034584666
000290 9c d3 ef bd de 96 e3 bd 5b 99 f9 bc a2 5d 94 bc
       -0.11710283 -0.1111276 -0.030468633 -0.018111054
0002a0 20 0b 8e 3b 1f f4 92 bd a1 b6 c2 bd 22 0d 0a be
       0.0043348223 -0.07175469 -0.0950749 -0.13481572
0002b0 93 51 6f be be 4c 05 be 2f 71 be bd 9f 2f df bc
       -0.23370962 -0.13017556 -0.09298932 -0.027244387
0002c0 84 d1 a1 bd 51 98 35 ba 29 2a 91 3c c7 aa 82 bd
       -0.0790129 -0.0006927299 0.017720299 -0.063802294
0002d0 a3 f5 28 3c 48 56 9f bd c4 60 7f bc 6b c4 b7 bd
       0.010312471 -0.07780129 -0.015587036 -0.08973011
0002e0 5c a9 9a bd 1b 52 65 bd 88 fd 17 be 09 d2 b5 bd
       -0.07551834 -0.055986505 -0.14842808 -0.08877952
0002f0 1d 25 cb bd 48 ae 99 bd 43 83 9c bd 58 19 9f bd
       -0.09919188 -0.07503945 -0.07642224 -0.07768506
000300 8e 71 05 be 25 26 dd bd 7c f2 ad bd 75 eb 29 be
       -0.13031599 -0.10798291 -0.08493516 -0.16593726
000310 af 80 09 be 6b 31 7a bd 9c f2 c4 bd 3f 4a d1 bd
       -0.13427995 -0.061082285 -0.096165866 -0.102192394
000320 5b ac 78 3d 9e 2f cb 3d dc c7 7a bc 81 2d a9 3d
       0.060711246 0.09921192 -0.015306439 0.08260632
000330 23 cb 63 bc a4 29 e3 bc df 2d e6 3d ec 2c 2a 3e
       -0.013903412 -0.027729817 0.11239218 0.16618699
000340 a3 73 50 3d 0c b2 25 bc 86 f2 b8 3d 37 5b ad 39
       0.05089153 -0.01011325 0.09030633 0.00033065092
000350 a8 40 ae 3c db 65 0a 3e 04 64 c4 3d 3c a6 0e bb
       0.021271065 0.13515417 0.09589389 -0.0021766564
000360 87 10 91 3c fa 0b c7 3c 94 2b 2d 3e 4d ba b0 3d
       0.017708076 0.024297703 0.16911155 0.08629284
000370 ab 59 94 3c 6e 87 78 3c 30 ec 86 bc c5 92 8a 3d
       0.018109163 0.015169008 -0.016470045 0.06766275
000380 cb 77 f2 3d ce 0d 64 bb 5b 7c 00 3c 57 45 49 3b
       0.11839255 -0.0034798267 0.007842149 0.0030711496
000390 5f cd 52 bc 14 13 1c 3b 94 2d 02 bd 7f 81 3a bd
       -0.012866347 0.0023815082 -0.031781748 -0.045533653
0003a0 ac 20 99 bc 99 a1 53 bd 5b 3a 61 3d 0d 29 85 3d
       -0.018692337 -0.051667783 0.054987293 0.065019704
0003b0 36 66 b1 3c 83 b4 79 bd fe be 8d bc 64 f7 31 3d
       0.021655183 -0.060963165 -0.017302986 0.04344882
0003c0 39 bc 23 3d b2 1d df 3c 79 1a d3 3c e7 42 21 bd
       0.039974425 0.02723584 0.02576946 -0.039370444
0003d0 a5 5b 75 3d 0f eb e9 bc bc 62 c9 bc 82 a0 8b 3d
       0.059901852 -0.028554467 -0.024583213 0.06817724
0003e0 70 56 29 bd 69 8a 12 3d 1e 61 37 3e 41 dc fd 3c
       -0.0413422 0.03577653 0.17908141 0.030988814
0003f0 00 e4 0a 3e cc 72 af 3c 8e e1 00 3e 86 e9 92 3d
       0.13563538 0.021417044 0.12586042 0.07173447

conv2.bias f4 [16]
000000 b5 53 1c 3c ca b3 a6 3e 4d 34 ae bd 13 39 06 bc
       0.009541442 0.32559043 -0.08506069 -0.0081923185
000010 eb 78 54 3e ba 37 a0 bd 5c 90 f6 3b 28 8d ab bd
       0.20749252 -0.07823129 0.007524533 -0.08376533
000020 f5 22 a0 bd ad 0b 8d 3e 3c 64 a5 bd 68 60 99 3d
       -0.078191675 0.2754797 -0.08075759 0.07489091
000030 88 d2 06 be 93 20 1b 3e f6 f3 1b be cc 04 17 be
       -0.13166249 0.15149145 -0.15229782 -0.14747924

fc1.weight f4 [120, 400]
000000 2e 6b 88 3d 61 2e 19 b8 25 91 98 3d 01 5f a9 3d
       0.06661068 -3.6521236e-05 0.07449559 0.08270074
000010 ad 2b 90 3d 0d 6e a2 3a 3d 8c ec 3c 7d 33 f0 b9
       0.070395805 0.0012392417 0.028875465 -0.0004581473
000020 cc eb 92 bc 64 d6 c4 bc d4 49 3c 3d 84 41 2b bd
       -0.017934702 -0.02402801 0.045968845 -0.041810527
000030 b1 e7 02 bd 01 07 40 3d 40 1f 25 3c 0a c0 21 3d
       -0.03195924 0.04688168 0.010078251 0.039489783
000040 48 bb 54 bd 16 0f 20 3c 57 51 22 3d a7 c9 9f 3c
       -0.051936418 0.009769222 0.039628353 0.019505335
000050 9d a0 86 3b b5 7b ed bc 1d fd c1 3c 88 8e 0c bd
       0.004108502 -0.028989652 0.023680264 -0.034315616
000060 5e 81 31 3c ea 67 b6 bb e9 d5 cf bc 5a ac 1c 3d
       0.010834066 -0.0055665867 -0.025370555 0.038250305
000070 9c 74 3b 3d 9c ad 01 3d f9 7c 65 bc b0 63 09 3c
       0.045765504 0.031659707 -0.014006847 0.008385584
000080 0b d6 82 3c ac 02 2b 3d 39 a4 dc 3c 4c 24 76 3d
       0.015971204 0.041750595 0.026933776 0.06009321
000090 5c 97 67 3d 31 a7 9d 3b 64 46 bc bc 68 e3 51 bd
       0.056540832 0.0048111905 -0.022982784 -0.051242262
0000a0 9b 91 12 3d 5e a7 cc 3c e6 2d 22 bd 5b ea ed 3c
       0.03578339 0.02498215 -0.039594553 0.029042413
0000b0 3a a1 77 3c fa 2c 85 3d 71 7d 2b 3d fb 92 7f 3c
       0.015114123 0.06502719 0.041867677 0.015599008
0000c0 e0 33 0e bd 9e 45 fa 3c 11 d6 83 bc 59 06 46 bd
       -0.03471744 0.030550774 -0.016093286 -0.048345897
0000d0 26 b9 59 3c 93 e2 05 3d 0f ed 44 bb 41 b4 b7 3c
       0.013288772 0.03268678 -0.0030048524 0.022424819
0000e0 7e 34 79 bc e5 38 ce bb 9c be a3 bd 5f 7f 3f bd
       -0.015210269 -0.0062934035 -0.0799534 -0.04675233
0000f0 dc 48 fd bc 61 ea 45 bd 6a 90 59 bd bd 18 8a 3b
       -0.030918531 -0.048319224 -0.05311624 0.004214375
000100 f3 00 11 3d fd 47 2f bc 31 b6 e3 bc 7e fd 51 3d
       0.035401296 -0.010698316 -0.027796837 0.05126714
000110 f2 c1 1d 3d 69 41 ed 3c 87 d7 50 3d d9 aa 97 bc
       0.03851504 0.028961854 0.050986793 -0.018514084
000120 c5 43 c2 bc 94 30 11 bd 5d df 23 bd 03 fb 7c bd
       -0.023713956 -0.03544672 -0.040007938 -0.06176282
000130 72 49 4f bc 1d d5 51 bc 3a 77 e3 bc 35 44 11 bd
       -0.012651788 -0.012807158 -0.027766813 -0.035465438
000140 bf a1 f2 bb 24 e9 34 bd 6e bf d6 bc db 40 01 3d
       -0.0074045355 -0.044167653 -0.026214328 0.03155599
000150 b4 84 92 bd 64 1d 06 3d a9 c5 31 bd 06 d1 da 3c
       -0.07154217 0.032742873 -0.043401394 0.026710998
000160 9b bc 13 bd b1 fe 50 bc cf a5 4b 3c 96 fc 1f 3d
       -0.03606854 -0.012756036 0.012429669 0.039059244
000170 68 6c d2 bc 5b 46 40 3d 67 06 5b bd 32 24 1f 3d
       -0.025686458 0.046942096 -0.053472903 0.038852878
000180 25 49 b1 3b 07 69 41 bc 9f 26 39 3d 40 09 d3 3c
       0.005410331 -0.011804826 0.045202848 0.025761247
000190 1f e5 f4 bb 02 9a 0d bd bd 7d de bc 6f 0c 01 bd
       -0.0074736024 -0.0345707 -0.027159566 -0.031506
0001a0 31 13 cd 3c ea 00 95 bc 31 6d f1 bb 6a 4a 01 bc
       0.025033565 -0.018188912 -0.007367753 -0.007891277
0001b0 57 ec f8 3b ae f5 c2 bc 91 be b4 bc 4f ee 26 3d
       0.0075965333 -0.02379879 -0.022063525 0.040754613
0001c0 8c de 4a bb 1e 24 50 3c df 88 2e 3d 17 0b 18 ba
       -0.0030955402 0.0127039235 0.042611 -0.00057999924
0001d0 45 ad e6 3c 4f 6a 83 3b f0 b3 c5 3c 92 7c b7 ba
       0.028158793 0.0040104757 0.024133652 -0.0013998917
0001e0 b6 3d a7 bc 69 08 95 ba f7 b5 ff bc 9c 58 0d 3d
       -0.020415168 -0.0011370304 -0.031214697 0.034508333
0001f0 cc c9 4c bc 7d 72 05 3d e6 e2 08 3d 99 dd 31 bb
       -0.012499284 0.032579888 0.033419512 -0.002714014
000200 7f 81 1e 3d ec 60 8c 3c 4a d2 35 bb d5 c7 c4 bc
       0.038697716 0.01713606 -0.002774375 -0.024021069
000210 71 7f f7 3c 0f c4 33 b9 a4 f2 2b 3c e0 94 63 bd
       0.030212136 -0.00017143808 0.010494862 -0.0555619
000220 c1 2b 03 bd a3 00 f5 bc 0e 12 4c 3d be 20 f3 3c
       -0.03202415 -0.02990753 0.049821906 0.029678699
000230 da 33 8e bc 9c d7 b1 bc 11 47 47 bc ed 1d cf bc
       -0.01735871 -0.021709256 -0.01216294 -0.025282824
000240 a7 80 f9 3c 12 86 b4 bc 9d 77 2c bd e6 7b e8 bb
       0.030456854 -0.022036586 -0.04210626 -0.007094848
000250 2c cb fa bc 15 3a 90 3c 01 76 84 bc b8 66 32 bd
       -0.030614458 0.01760582 -0.01616955 -0.04355499
000260 43 c6 13 bd 6d d8 55 bc 0f 95 3b bb 25 b9 7b bc
       -0.03607775 -0.013052088 -0.0028622781 -0.015363966
000270 1f 05 3b bd 50 50 e2 bb ea 42 8a bb 55 4e 00 bd
       -0.04565918 -0.0069065467 -0.0042194026 -0.031324703
000280 df 04 43 bd 52 00 cf bc ec 1f 4e bc f3 21 0b 3d
       -0.047612067 -0.025268707 -0.012580853 0.033967923
000290 fd 74 3c 3a 21 3e b1 3c 24 5a 28 bd f3 48 04 bd
       0.00071890635 0.02163607 -0.04110159 -0.032296132
0002a0 e4 f0 26 bb 10 0d 23 bd 1a 8f c1 3b ed 01 dd bc
       -0.0025473172 -0.03980738 0.0059069516 -0.026978457
0002b0 dd 0e 39 3c fc a2 b3 3c 15 02 d1 3b 0d 53 bb 3c
       0.011295048 0.021928303 0.006378422 0.02286675
0002c0 ef fc 15 3d 4d b0 4d ba 6a 28 dd 3c 73 6d 67 3a
       0.03661817 -0.00078464 0.02699681 0.000882826
0002d0 f7 53 61 bd 58 3e 6b bd fe 57 b5 3b e4 c2 0c bd
       -0.055011716 -0.057432503 0.005534171 -0.03436555
0002e0 08 53 06 3d fc 69 c0 bc 97 7e c4 3b f6 26 74 bb
       0.03279403 -0.023488037 0.005996536 -0.0037254668
0002f0 e6 9c 00 bd 3f 85 73 bc 94 3e 53 3d 13 5e 39 3c
       -0.03139963 -0.014863311 0.05157335 0.011313933
000300 6b a6 f5 bc 87 e9 32 3d e1 e2 b3 bc 4d 22 52 3d
       -0.02998658 0.04367974 -0.02195877 0.051302243
000310 58 b0 1b bd 81 b7 67 3c 33 2a 06 bc 20 97 2e 3d
       -0.03800997 0.014142872 -0.008188772 0.042624593
000320 05 3d d6 3b 81 7d 15 bd 9c 6d 86 bd 7b bb 08 bd
       0.006538036 -0.036496643 -0.06563875 -0.03338192
000330 dd 38 0c bd aa a1 17 bc ea 24 16 bd 2c ec 01 3c
       -0.034233917 -0.009254852 -0.036656298 0.007929843
000340 6c e5 3f bd e0 8a 47 bd ad 26 14 bd 18 05 95 bd
       -0.046849653 -0.048716426 -0.036169697 -0.07276362
000350 df 36 7a bd 28 b0 da 3c 2b db ba 3c 92 b6 4e 3d
       -0.061087485 0.026695326 0.022809586 0.05046708
000360 4e 44 39 3d 2a 8c bd bc 58 d7 a5 3c 40 22 02 bd
       0.045231156 -0.023138124 0.020244285 -0.031770945
000370 f0 89 2b 3d 50 cb 81 3c c1 ac 82 3d 1e c0 6c bc
       0.041879594 0.015844017 0.063806064 -0.014450101
000380 30 49 29 3c e6 74 91 3d b8 39 12 ba 66 a4 0b 3c
       0.010332391 0.07102375 -0.0005578059 0.008523082
000390 21 cd 4d bc 43 0d 69 3d e5 4a 54 3c 98 91 09 3c
       -0.012561114 0.056897413 0.012957309 0.008396529
0003a0 f7 3b 06 3c f1 59 04 3d 49 29 81 3b cd 4f 70 3b
       0.008193008 0.032312337 0.003941689 0.0036668659
0003b0 8b d6 61 3c 91 d7 23 bd e5 6e cb 3b 6f cc ac 3c
       0.013784061 -0.040000502 0.006208288 0.021093575
0003c0 e6 75 bb 3c 85 b5 77 3c 8d 64 02 3d 44 80 ac 3c
       0.022883367 0.015118961 0.031834174 0.021057256
0003d0 db 52 5b bc ab a5 de 3b d6 7d 01 3d 89 2e 4c bd
       -0.0133864535 0.0067946515 0.031614147 -0.049849067
0003e0 3d 6a da bb 88 c7 59 3c 86 1a 3b bd 7c c3 53 bc
       -0.0066654966 0.013292201 -0.04567959 -0.012925025
0003f0 19 bd 83 bd 9f 5b 37 3c 00 c2 0b bd d2 d5 6d 3c
       -0.06432552 0.011191278 -0.03412056 0.014516311

fc1.bias f4 [120]
000000 fc 00 ef 3c 7d f8 01 bd b1 03 91 bd 8b 72 a9 3d
       0.029175274 -0.031731118 -0.07080782 0.082738005
000010 ea 08 01 3c 69 a5 a9 bd 2a a9 6d bc 57 71 93 3c
       0.00787566 -0.082835026 -0.014505664 0.01799838
000020 a9 ad 1d bd b4 c8 c4 3d 16 04 b5 3c b1 15 8f 3d
       -0.038495693 0.096085936 0.022096675 0.06986559
000030 e5 2a 99 bb 9b 46 ae bc 3e 03 07 bd bc c1 e8 bc
       -0.004674303 -0.021273902 -0.032962076 -0.028412692
000040 6e 20 f8 bc 63 87 28 3c 1f 3e 44 bd a3 4f 96 bd
       -0.030288901 0.010286185 -0.047910806 -0.07339408
000050 39 0b 17 bd 5f 61 62 3d b1 b5 00 3d b9 ae 80 bd
       -0.036875937 0.05526864 0.031423274 -0.06283326
000060 27 9b 28 3c 97 0c 1b 3d bb 50 17 3e 6f 8a 0c 3d
       0.010290897 0.037853803 0.1477689 0.034311708
000070 47 e1 4e 3d a0 d3 72 bd 5b 14 31 3d 7f d0 56 bd
       0.05050781 -0.059283853 0.043232303 -0.05244493
000080 8e 4c fc 3c de a1 08 3d b9 91 b2 3b 44 c1 09 3d
       0.030798223 0.033357494 0.0054495004 0.033631578
000090 64 07 1c 3d 77 26 c0 3c 44 bb f2 3a ac 94 a4 3b
       0.038092986 0.023455841 0.0018518944 0.005022606
0000a0 f0 ed bd 3b cb cc 66 3d 35 83 5e bb f1 fe 05 bd
       0.0057961866 0.05634765 -0.0033952717 -0.032713834
0000b0 61 b1 ac 3d 64 01 99 3c 72 28 42 bd 1a 60 02 3e
       0.0843227 0.01867742 -0.047401853 0.12731972
0000c0 93 e7 34 3c 9d ca 45 3c c8 a7 b9 3c c9 52 e6 3d
       0.01104154 0.012072233 0.022663012 0.11246259
0000d0 3d d8 a1 3d 12 38 be bc 81 5d 81 3c 68 5a 07 bd
       0.07902572 -0.023220096 0.015791656 -0.033045202
0000e0 7f 04 e0 bb de 6c df bc 43 c7 e2 3a bb 8c 19 3d
       -0.0068364735 -0.027273592 0.0017301816 0.037487727
0000f0 35 16 14 3b a6 d3 02 3d f1 36 58 bd 1d b3 54 bc
       0.0022596244 0.031940125 -0.05278677 -0.012982157
000100 fb 3c c6 bd 08 be 5a 3d 28 0a 06 3c 59 6e 64 3d
       -0.096796 0.053403884 0.008181132 0.0557693
000110 37 1c 61 3d 0d fe ba 3b 5d 22 18 bd 1a 5b 3b 3d
       0.05495855 0.0057065547 -0.037142146 0.045741178
000120 50 4b c1 3c 08 24 c1 bc da fc f7 3b 47 23 86 bd
       0.023595482 -0.023576751 0.007567984 -0.06549697
000130 d1 6f a4 bc f5 6a 02 3e 1f 8c 0e bd 36 0c 14 3d
       -0.02007285 0.12736113 -0.0348016 0.036144458
000140 aa 74 98 3c 77 26 ad bd 95 13 96 3d 5e c1 e5 3c
       0.018610317 -0.08454602 0.07327954 0.028046306
000150 22 d1 ad 3c b3 de 98 3b a9 9b ec bc c8 2d a9 3c
       0.021217886 0.0046652197 -0.028882818 0.020651713
000160 04 36 ff 3c c8 7c 10 3d 12 4f 10 bd 7c f6 b8 3c
       0.031153686 0.03527525 -0.035231657 0.02257847
000170 16 35 16 bc 42 75 f9 3d 04 da 3d 3d ae 98 21 3d
       -0.00916793 0.12180568 0.046350494 0.039452247
000180 cc 6d b6 3d cc e9 8d bc 2d b9 e6 bc 71 fc c2 bc
       0.08907661 -0.017323397 -0.02816447 -0.023802014
000190 51 bd 3e 3d f4 c6 52 bc e8 9a e2 3d e3 24 e0 bc
       0.046567265 -0.012864817 0.11064702 -0.027361339
0001a0 73 9c a8 bc ca 5f 18 bd 3a 2a 3d 3c fc 65 b9 3c
       -0.020582413 -0.037200727 0.011545712 0.022631638
0001b0 91 d0 be 3d c8 d0 35 bd c9 5a 9f 3c 73 47 26 3d
       0.09317125 -0.044388562 0.01945247 0.040595483
0001c0 f6 ef 0a 3e c4 7b 22 3d 43 0c 1b 3c ff 17 0e 3d
       0.135681 0.039668813 0.009463373 0.034690853
0001d0 66 60 cc 3c d4 16 87 bd 20 6d 38 3a c3 69 30 bd
       0.02494831 -0.06596151 0.0007035304 -0.043069612

hash1.weight f4 [64, 120]
000000 11 f8 e0 3c 24 b1 5b bd 19 10 84 bd ef 94 01 3e
       0.027462037 -0.05363573 -0.06448383 0.1265447
000010 0b f1 3a 3d e3 c4 b7 3d 63 b5 08 3a 43 c0 04 3e
       0.045640033 0.089731 0.0005215017 0.12963967
000020 4e e8 f4 3c 0b 78 88 3d 6f 29 4e 3d a3 aa 96 bd
       0.029895928 0.066635214 0.050332483 -0.07356765
000030 eb fd 57 bc e0 f0 58 bd 77 81 38 3d 76 3f b2 3d
       -0.013183097 -0.05296409 0.045045342 0.087035105
000040 2c 34 e4 bc 9a 8d 96 bd 59 01 cd bc 6c 2c 2c bd
       -0.027856909 -0.07351227 -0.025025057 -0.04203455
000050 80 e8 96 3d ed 72 bb 3d e6 a0 7d 3d a4 86 85 bd
       0.073685646 0.0915278 0.061921023 -0.06519821
000060 7e 1d 09 be 3f 2f e9 3c 53 93 e2 bd 29 85 8f 3d
       -0.13390157 0.028464912 -0.11063256 0.0700782
000070 12 6f 1a 3d ef 47 97 bd 99 2b c0 3d c0 a9 1d 3d
       0.03770358 -0.07386767 0.093833156 0.038491964
000080 e1 71 9e bd aa 1e ef bc b9 b7 66 bd 87 8b c3 bd
       -0.077365644 -0.029189426 -0.056327555 -0.09548097
000090 70 fe 34 bc 58 fd 68 bd 63 21 a1 bd f3 f9 90 bd
       -0.011046991 -0.056882232 -0.07867696 -0.07078924
0000a0 aa 06 d4 3b d6 8a 0c be 63 a0 61 3d a2 04 1d 3d
       0.006470521 -0.13724837 0.055084597 0.038334496
0000b0 71 77 cf bd d7 b8 a3 bd 6f 01 27 3d 5a cc 8b bd
       -0.101302035 -0.0799424 0.04077285 -0.06826086
0000c0 aa ba 08 bc 89 3f 06 3d 5f cd 19 3d 26 d7 28 bd
       -0.008345285 0.032775436 0.037549373 -0.041220807
0000d0 b6 ec 4f bc 7e 60 6f 3c fa 18 87 bd e8 26 b5 3d
       -0.012690714 0.014610408 -0.06596561 0.088453114
0000e0 8b 90 94 bd ec 71 15 bc a9 a3 a5 bd 6e 81 ac 3b
       -0.07254132 -0.009121399 -0.08087856 0.0052644527
0000f0 1c 16 6a 3a 36 3a 1d bd bf cd 36 bc 32 be 08 bd
       0.0008929686 -0.038385592 -0.011157452 -0.03338451
000100 9c 7e aa 3c 5e 18 82 bd e2 02 91 ba 52 fd b5 3d
       0.020812325 -0.06352304 -0.0011063481 0.08886208
000110 a7 de 6a bc 33 bb ef 3c 67 fb cb 3b 37 d5 93 3c
       -0.014335311 0.029264068 0.006225038 0.018046005
000120 83 4a 31 bc f8 f0 76 3d 46 18 7e bd a0 1d 55 3d
       -0.010820988 0.0602884 -0.062034868 0.052030206
000130 5f ea 84 bd c5 b5 65 3d 6c be 7b 3d f3 ab 19 3e
       -0.06490015 0.056081552 0.061460897 0.15007
000140 63 38 7e bd 39 04 1c 3b 13 a2 c1 3d 17 65 be 3d
       -0.062065493 0.0023806228 0.09454741 0.09296625
000150 a3 99 1e 3d 04 99 f6 3d e4 50 cd 3d 89 7b 8d 3d
       0.03872074 0.12040904 0.10025194 0.06908328
000160 ba 16 57 3d 56 54 09 3d 5b 9a ab 3d b6 90 a2 bd
       0.052511908 0.033527695 0.0837905 -0.07937758
000170 ef 87 e5 bb 9c 09 e0 bc 7e 8f cb bd f2 2c a6 3d
       -0.00700473 -0.027348332 -0.09939478 0.081140414
000180 a0 a2 ce bd 4b 1a 3e bd 17 35 e8 3c f4 e7 07 be
       -0.10089612 -0.046411794 0.028345628 -0.13272077
000190 5a 30 e3 3c 9a f2 34 bc 70 71 d4 bd 1f f2 fa 3d
       0.027733017 -0.011044169 -0.10373199 0.12253212
0001a0 d6 15 33 bd fb be 76 3d 54 f5 d7 bc e0 fe 3f bc
       -0.043721996 0.060240727 -0.026362099 -0.011718482
0001b0 bb 1e dc bd 74 01 f2 3c 53 60 7f 3c 48 63 c5 bd
       -0.10748049 0.029541709 0.01558693 -0.09638077
0001c0 b7 bb d8 bd f3 f9 33 bc 03 82 6a 3d a4 f1 88 3b
       -0.10582679 -0.0109848855 0.057252895 0.0041791964
0001d0 83 31 ff bd a9 f6 0a be f6 bf e1 bd 0d 44 83 3d
       -0.124606155 -0.13570656 -0.11022942 0.06409464
0001e0 ce 62 2b 3d f1 8c 96 bd 02 df 05 bd e2 55 b6 3d
       0.041842274 -0.07351101 -0.03268338 0.089030996
0001f0 b4 ef b2 3d e3 29 62 bd 47 41 26 3d 74 b3 1b 3e
       0.08737126 -0.055215728 0.040589597 0.15205175
000200 75 9d a9 3d 50 fd 88 3d 0a 69 d7 3d 94 85 e2 3c
       0.08281986 0.066889405 0.105180815 0.027651586
000210 ac b4 4f 3c 86 c8 35 bd 5e a6 91 3d c2 4d 3d 3d
       0.012677353 -0.044380687 0.0711181 0.046216734
000220 00 d9 b7 3c 0d a2 34 bd f7 fe 08 bd a5 6e 04 3c
       0.02244234 -0.044099856 -0.03344628 0.00808302
000230 b7 cc 53 bd 4a 60 06 3d 34 d9 b6 bd 14 92 8b bb
       -0.051708903 0.032806672 -0.08928147 -0.004259357
000240 c4 69 04 bb 8f 98 da 3d 40 f7 77 3d 9e 15 f3 3c
       -0.0020204643 0.106736295 0.06053853 0.029673394
000250 fb 80 39 3d 94 65 6e bd 17 72 6c bd f3 e0 ab bd
       0.04528902 -0.05820234 -0.057725992 -0.08392515
000260 f0 eb 26 bd 0c cc cc bd c0 22 a5 bd af 50 f1 bd
       -0.04075235 -0.09999856 -0.08063269 -0.11782967
000270 54 4f 9c 3d 76 b7 4d 3d 60 ae b7 bc 24 25 07 3d
       0.07632318 0.05022379 -0.022422016 0.032994404
000280 af f8 8f bc e2 7c 20 3c f5 c8 a1 bd 4a 66 45 3b
       -0.017574636 0.009795399 -0.07899658 0.0030120783
000290 5d 41 c4 3c 3e 58 6e 3d 08 fe bd 3d 81 2d cb bd
       0.023956949 0.058189623 0.09276968 -0.099207886
0002a0 8a be da 3d ac a2 69 3d 48 9c 0f 3b 67 94 3f 3c
       0.10680874 0.0570399 0.002191322 0.011693097
0002b0 06 04 2f 3d a7 a3 e8 3b 24 95 a8 3d 92 fd 98 bc
       0.042728446 0.007099587 0.08231571 -0.0186756
0002c0 53 51 38 bc 14 da 0e 3d c9 f9 a8 bd 37 b7 75 bd
       -0.011249858 0.034875944 -0.08250768 -0.05998918
0002d0 80 43 81 3c 2d bf 4f 3d 78 5a ef bd ba 75 af 3d
       0.015779257 0.05071943 -0.116871774 0.085673764
0002e0 fd 5e 0b 3d 1c 45 19 bd 81 fb 10 bc a3 58 bd 3d
       0.034026135 -0.037419423 -0.008849026 0.09245422
0002f0 0e fe bb bd ec 97 e8 bc 9e 50 9f bc 17 21 b3 3c
       -0.091793165 -0.028392754 -0.019447621 0.021866364
000300 29 6c 01 bd aa 70 80 bc 53 80 38 bd b7 d5 9d 3c
       -0.03159729 -0.015678722 -0.045044255 0.019266946
000310 48 29 bc bd 46 c1 2f bd bf a6 8d bc a5 b2 17 3e
       -0.09187561 -0.04290893 -0.017291425 0.14814241
000320 f4 d7 c8 bd 42 8a ae bd 81 93 dc 3b f6 76 3c 3c
       -0.09806815 -0.08522464 0.006731451 0.011502972
000330 ce f2 3c bd 6a 5e 68 3d 8e ff 27 bd f5 6d 58 bc
       -0.046129994 0.056730665 -0.0410152 -0.01320981
000340 d8 41 be 3d 54 1b 69 3d a2 8a ed bb a6 57 87 bd
       0.092899024 0.056910828 -0.0072491923 -0.066085145
000350 41 4d a0 bd 07 3b 60 bd 37 39 1e 3c 4a d4 1b 3e
       -0.07827235 -0.054743793 0.009657196 0.152177
000360 aa 9c e9 3c 8e 4b 04 be b3 6f 0b 3d 1d 15 af bd
       0.028517086 -0.12919447 0.03404207 -0.08548949
000370 d4 4b 4b 3c 4b ad 8a bd b8 19 5a bd 0a 37 c1 3d
       0.012408216 -0.06771334 -0.053247184 0.09434326
000380 4c ed c5 bd 20 47 4a bd 0c de 47 bc cd b8 72 3d
       -0.096644014 -0.049384236 -0.012198936 0.05925827
000390 4e 7a ce bd 19 4b a5 3c ae d4 e0 bc a9 22 70 bc
       -0.100819215 0.02017741 -0.027445164 -0.014656701
0003a0 c3 45 e2 bc 07 a9 9d 3d 1c d5 0d bd 18 fa b6 bc
       -0.027621156 0.07698255 -0.034627065 -0.02233605
0003b0 51 65 f0 bd e2 68 2f bd ea e8 a0 bd 94 2e 27 bd
       -0.117380746 -0.042824633 -0.07856925 -0.040815905
0003c0 d1 ce 53 bc 61 55 9b bd e2 f4 c1 bd df 46 ca 3d
       -0.012927727 -0.07584644 -0.09470536 0.09876799
0003d0 5f d8 e4 3d a6 bd 82 bb 4d 7d d2 3c 43 87 90 3d
       0.11174082 -0.003989893 0.025694514 0.07057049
0003e0 eb 73 a1 bd f3 ef aa 3d 70 1a ee 3c 2a 64 03 3d
       -0.07883438 0.08346548 0.02906534 0.032077946
0003f0 20 98 3d bc 3a c8 68 bd 18 10 45 bd c5 0c 44 bc
       -0.011571914 -0.056831576 -0.04811105 -0.011965935

hash1.bias f4 [64]
000000 5e db 64 bd 0c fe 15 3e c1 da 08 bd f9 80 1f bc
       -0.055873267 0.14647692 -0.033411745 -0.009735339
000010 a6 da 3d bc 16 e9 29 3c f1 98 eb 3b ff d4 55 bd
       -0.011587774 0.010370513 0.007189863 -0.052205082
000020 36 13 04 3c 31 04 dc 3b 18 ff 03 3d 9a bc b1 3d
       0.008061221 0.006714367 0.0322257 0.08678551
000030 5d 52 95 bd 77 bb 34 bc 7b f1 b5 bd f0 09 83 3c
       -0.072911 -0.011031023 -0.08883949 0.01599595
000040 bd 26 e0 bd 57 ce c0 bd 18 c4 15 3e 10 52 1c bd
       -0.10944889 -0.09414356 0.14625585 -0.0381642
000050 b6 75 da 3c fc a8 1e 3d 85 10 6e bd 06 56 ec 3d
       0.026667457 0.038735375 -0.058121223 0.11539845
000060 89 c6 6a bc b1 bd 1d 3d 77 4d 61 3d 7f cd 9e 3c
       -0.014329561 0.038510982 0.055005517 0.019385098
000070 21 26 0d be 0a ee a1 3d ba 9b 6e 3c 91 5d e5 3d
       -0.13784076 0.079067305 0.014563495 0.11199487
000080 ef b6 b9 3c b2 34 dc 3c bd ae d2 bd ec 76 27 b9
       0.022670237 0.026880596 -0.10287235 -0.00015970663
000090 10 51 00 3d cf 00 d9 bc 11 2a 06 3d ea 06 ce 3d
       0.031327307 -0.026489643 0.03275496 0.100599125
0000a0 18 59 7a bd 98 fb 0f 3c a2 a9 16 3e 62 fb 4b 3d
       -0.061120123 0.008788012 0.14713147 0.049800284
0000b0 5b b2 b5 bc d2 6f df 3c 2d da 06 be d6 67 4e bd
       -0.022179773 0.027275 -0.13169165 -0.050391994
0000c0 d7 15 98 bc 54 f3 78 bb cb d6 0c 3d df be 16 be
       -0.018565102 -0.0037986832 0.03438453 -0.14721249
0000d0 ee e9 5a 3d fe 4f d6 3d 29 10 0c 3d 05 fc 48 3d
       0.05344575 0.10464476 0.0341951 0.04906847
0000e0 60 f9 86 3d e5 2a 10 be 45 87 1a 3e a9 b6 15 3e
       0.06590533 -0.14078863 0.15090664 0.1462046
0000f0 ee 1c 9a bc 1c 71 1d bd eb cc c0 bd b8 d7 02 3d
       -0.018812623 -0.038437948 -0.09414085 0.031944007

fc2.weight f4 [10, 64]
000000 23 77 d0 bd e8 13 0f be 14 38 1f 3e 53 d6 20 bc
       -0.101789735 -0.13972437 0.15548736 -0.009816724
000010 43 a3 0f 3e 76 ef 46 3d b4 a5 0b bc 68 23 f7 3c
       0.14027123 0.04856821 -0.008523393 0.03016825
000020 a5 9f 10 be 41 2f c5 3d 57 6f b8 bd cf 05 d4 3d
       -0.141234 0.096281536 -0.090056114 0.103526704
000030 90 d2 1a 3e fc 2d 18 be b5 72 50 3e 84 05 26 bd
       0.15119386 -0.14861292 0.20356257 -0.040532604
000040 9d 32 e2 3d 96 ee bd 3d 01 bf 1f 3c 46 ff 4e 3e
       0.1104481 0.09274022 0.009750129 0.20214567
000050 84 60 9a be 9a 6c 73 be 54 1d ac bc 49 07 b9 3c
       -0.3015176 -0.23771897 -0.021010078 0.022586482
000060 42 4b 19 be aa a8 4e 3d 5e ce af 3d 64 d1 2d 3d
       -0.14970115 0.05045382 0.08584283 0.04243602
000070 2c 89 59 bd 19 fe 1a bd 11 44 31 be 73 24 14 be
       -0.053109333 -0.037839983 -0.17311122 -0.1446703
000080 ca b1 97 3d 0a a0 9c 3e 6c 34 51 3e 20 31 9d 3d
       0.074069574 0.3059085 0.20430154 0.076753855
000090 0f aa 08 bd 02 e7 63 bd 2c 6c 9a bc fa 95 af bc
       -0.033365306 -0.055640228 -0.018850408 -0.02143382
0000a0 e3 91 10 3d bc 6a e4 bd c0 8a 60 3d a4 b2 5b 3d
       0.03529538 -0.111531705 0.054819822 0.05363716
0000b0 24 b9 07 3e ef b4 17 be 39 3d 83 bd 6e fc 89 bd
       0.1325422 -0.14815114 -0.06408162 -0.067376
0000c0 ab 11 19 be 10 b4 e7 bd d9 d2 92 bd 70 cb 38 3d
       -0.14948146 -0.11313641 -0.07169122 0.045115888
0000d0 fb c7 66 3e db 65 7c bb 99 60 57 3e d3 d3 83 3d
       0.22537224 -0.003851286 0.21032943 0.06436887
0000e0 59 2a 59 be f5 ed 39 3e df 77 09 be 0a ef 0d 3e
       -0.2120756 0.1815718 -0.13424633 0.13860717
0000f0 4a c8 51 be dc d5 3e be 44 94 ed bd 89 e6 96 be
       -0.2048656 -0.18636268 -0.11600545 -0.2947276
000100 c3 27 2b 3d 79 90 22 be a1 6f 7f bc 6c 50 3b bd
       0.041785967 -0.15875424 -0.015590579 -0.045730993
000110 3b 81 d5 bc 63 32 e1 39 9d 89 e2 3d 61 80 84 bd
       -0.026062598 0.00042952885 0.11061404 -0.06469799
000120 a4 12 69 bd 4d c4 2d bd a2 dd a2 bd b4 e9 b9 3c
       -0.056902543 -0.042423535 -0.07952429 0.022694446
000130 4f a3 8d 3e fd 9f bc bc 8c a6 a8 3d 8b 79 72 be
       0.27663657 -0.023025507 0.08234891 -0.23679177
000140 5a 15 e2 3d 1f e9 24 bd 0e b9 02 be bb c3 0b be
       0.11039229 -0.040261384 -0.12765905 -0.13648884
000150 7e 7d c6 bc 68 1a 97 bc 68 b9 cc 3d 7b 34 99 be
       -0.024229761 -0.018445209 0.09996301 -0.29922852
000160 4a 2d 06 3e 3f 6e 6d be d4 b6 83 3c c2 45 d9 3d
       0.13103214 -0.23186587 0.01607839 0.10609008
000170 24 46 b9 3e da c1 a7 3d b1 63 86 bd ee ce ef ba
       0.36186326 0.08191271 -0.065619834 -0.0018295923
000180 79 20 a0 3d a1 52 02 3e 06 99 aa 3e 3c 99 d6 bd
       0.07818694 0.12726833 0.33319873 -0.10478446
000190 8b 09 86 3e cb 3a ac 3d c2 a2 46 3d f5 a8 f1 bd
       0.26179156 0.08409651 0.04849506 -0.11799804
0001a0 99 38 5e 3d 46 1d 62 3e dc d7 56 bd 71 16 d1 3d
       0.054253194 0.2208148 -0.052451953 0.102093585
0001b0 ce b1 b4 bd d3 ce f0 3d 4b 77 36 3e 2d 12 64 3c
       -0.08822976 0.117581986 0.17818944 0.013920349
0001c0 b0 2e b0 3e 87 05 62 3e 8f 91 06 3e c5 59 52 3e
       0.3441062 0.22072421 0.13141464 0.20542057
0001d0 3f a1 56 be 32 0f 2f bd 8e d2 79 be 11 73 54 be
       -0.20959948 -0.0427391 -0.24396726 -0.2074702
0001e0 c7 b9 15 be ef 8a a8 bd a7 66 e4 bd a3 3e 9a 3c
       -0.1462165 -0.082296245 -0.11152392 0.018828696
0001f0 59 7a ac 3d 91 99 9b bc d4 a7 ec 3d e0 08 b4 3c
       0.084217735 -0.018994125 0.11555448 0.021976888
000200 74 0a 79 be a5 1a fa bd af d6 c9 3d 84 e5 72 3e
       -0.24320394 -0.12212113 0.09855401 0.23720366
000210 3b df d5 bd 7c 4b 22 be 83 81 02 be 22 3f 13 bd
       -0.104429685 -0.15849108 -0.12744717 -0.03594888
000220 00 aa 21 be 91 c1 7d 3e 1a f4 52 be 30 ee e1 bd
       -0.15787506 0.24780871 -0.2060093 -0.11031759
000230 e0 c3 85 3d 0f f6 05 be 2a 26 3f be ca 39 15 3e
       0.06531501 -0.13082145 -0.18666902 0.14572826
000240 13 94 ac 3d 98 9d 49 3e fd 32 38 3e 3d 79 cc bd
       0.084266804 0.19689023 0.179882 -0.09984062
000250 c1 36 ef 3d 2f 89 8e 3c 88 99 1e bd 66 3e e9 bd
       0.11680365 0.017399399 -0.038720638 -0.11388855
000260 6f b0 84 3c 85 38 0a bc b3 2c 77 3e 6d c5 66 bc
       0.016197411 -0.008436327 0.24138145 -0.014085156
000270 e3 40 d2 bd 15 a1 84 3e 2d b5 0e be 2b e9 52 bd
       -0.102662824 0.25904146 -0.139363 -0.051491898
000280 2c b6 03 3e 0c 21 b7 bd e5 1a 11 bc c2 e0 6a 3d
       0.12862462 -0.0894185 -0.00885651 0.057343252
000290 6a 06 0d be 31 df a4 bd ab 21 44 be 71 1d bd bb
       -0.13771978 -0.08050383 -0.19153468 -0.005771332
0002a0 50 f8 d5 bd 28 0b 0e 3d d9 e5 3f 3e c6 d7 c0 3d
       -0.104477525 0.03467861 0.18740024 0.094161555
0002b0 4b da 52 3d 0a 46 0f be fe c2 4b 3d 36 a5 5d 3e
       0.05147771 -0.13991562 0.049746506 0.21645054
0002c0 26 17 f1 bd 0e 7a ab 3d 43 8b 37 be c4 e4 66 bd
       -0.11771993 0.083728895 -0.17924218 -0.05637051
0002d0 0c 7d 70 3e 6a 6d 48 3e 71 f2 f1 bb 6b 96 ca bd
       0.23485202 0.19572988 -0.0073836376 -0.09891971
0002e0 f0 ff ee bd 64 83 a5 3d c6 6c 88 3e 4e 0f e0 3c
       -0.1166991 0.080817014 0.26645488 0.027351048
0002f0 50 76 e8 bc a2 ce ab bd 96 a1 e0 3c 78 69 07 3d
       -0.028376728 -0.083890215 0.0274208 0.033059567
000300 4e e8 bd bd a9 d1 35 bd 4c 84 3b be df 01 55 bd
       -0.09272824 -0.0443894 -0.18312186 -0.052003738
000310 ab 6d b4 3d 0c 4d 1b bd 34 7b d7 3d 05 e0 63 3d
       0.0880998 -0.037915275 0.10521546 0.055633564
000320 29 77 24 3c c0 80 68 bd c7 b3 74 3c 44 b0 13 3d
       0.010038176 -0.05676341 0.01493544 0.036056772
000330 56 00 07 be eb 34 11 3e 66 bf da bd eb 0e bb bd
       -0.13183722 0.14180343 -0.106810376 -0.09133705
000340 95 0c d1 bd 6a 61 e6 bd 3c b1 ee bd 5e 3d 99 3d
       -0.10207478 -0.11249049 -0.116548985 0.07482408
000350 02 11 e2 3a 92 a9 03 be 81 f4 4a 3d d6 64 58 3e
       0.00172475 -0.12857655 0.049549583 0.21132216
000360 81 fe 07 be 24 bb 27 bd 15 74 a7 3d 75 3c 82 bd
       -0.1328068 -0.040949956 0.08176438 -0.063591875
000370 47 22 1a bd c5 28 67 3e 5e 49 59 3d 91 0e b0 bd
       -0.037630346 0.22574146 0.053048484 -0.08596528
000380 df 19 6c bd 5b 4c 7b bd aa f8 0f be 20 a7 b3 bd
       -0.05764186 -0.061352115 -0.14059702 -0.08772111
000390 1e ad a8 bd 19 0c 3a 3e 60 53 0a 3e e1 ed 1c be
       -0.082361445 0.18168677 0.13508368 -0.15325119
0003a0 f0 12 48 be 63 af 61 bd 61 eb 45 3e c4 7d 07 3e
       -0.19538474 -0.055098902 0.19328071 0.1323157
0003b0 32 11 bb bd bf fe 12 be 79 2d 1e be 01 e2 cc 3d
       -0.09134139 -0.1435499 -0.15447034 0.10004044
0003c0 f5 37 b8 bd cc 96 34 be 58 a1 d4 3d 46 1d f6 bd
       -0.08995048 -0.1763565 0.103823364 -0.12017302
0003d0 bc 9a ef bd a6 4e 00 3e 20 95 79 bd c2 fe 81 3d
       -0.11699435 0.12530002 -0.060933232 0.06347419
0003e0 a3 72 31 3d 0e e7 fb bd 48 81 ef 3d 24 a9 08 3c
       0.043322217 -0.122999296 0.1169458 0.0083411075
0003f0 c2 84 8e 3d 0e 59 82 bb c5 af 1c 3e 90 6e c7 bd
       0.06958915 -0.0039779013 0.15301426 -0.09737885

fc2.bias f4 [10]
000000 1e ea 27 be 59 71 56 be 81 ce 0b 3d be 21 b4 3d
       -0.16397902 -0.20941676 0.034132484 0.08795498
000010 12 d2 a1 3e bf 25 1a bd 1b e4 a0 3d 4c 35 b7 bd
       0.31605583 -0.037633654 0.07856008 -0.089457124
000020 f7 47 03 3e e5 58 13 be
       0.12820421 -0.1438938
