2.NeuralHashing/cifar_net.pth (torch, 241300 bytes, 10 tensors)

conv1.weight f4 [6, 3, 5, 5]
0	0xbde0de3f	-0.1097989
1	0x3e13c0df	0.14429043
2	0x3c852c73	0.016256547
3	0xbda7d6e4	-0.08195284
4	0xbe2954a5	-0.16536196
5	0x3e9dfd97	0.30857536
6	0x3e89b7d0	0.2689805
7	0x3edf16fd	0.43572226
8	0x3ecdc3bc	0.40188396
9	0x3e0429df	0.12906598
10	0x3c42c81c	0.01188853
11	0x3e24dbf9	0.16099538
12	0x3e9ca724	0.30596268
13	0x3e94f26d	0.29091206
14	0x3e0cad98	0.13738096
15	0xbdedc0b8	-0.11609024
16	0xbd63b3de	-0.055591457
17	0xbe083c24	-0.13304192
18	0xbe6044ff	-0.2190132
19	0xbe70ed5b	-0.23528044
20	0xbe232d53	-0.15935259
21	0xbe800239	-0.25001696
22	0xbebae32a	-0.36501437
23	0xbe8adf75	-0.2712361
24	0xbd94a0d0	-0.07257235
25	0x3ca92002	0.020645145
26	0xbc1efc7d	-0.009703753
27	0xbe0bc982	-0.13651088
28	0xbab0d627	-0.0013491557
29	0xbe4eafb2	-0.2018421
30	0x3de028c9	0.10945279
31	0x3e04b5c9	0.1295997
32	0x3dd8a4f3	0.105783366
33	0x3e48c866	0.19607696
34	0x3e32a742	0.17446616
35	0xbe1bd363	-0.15217356
36	0x3dfe6d5b	0.12423202
37	0x3db72b7a	0.08943839
38	0x3e34d873	0.17660694
39	0x3de7621f	0.11298012
40	0xbe14662b	-0.14492099
41	0xbe3e57f9	-0.18588246
42	0xbe9ab793	-0.3021818
43	0xbdfb0b1c	-0.12257978
44	0xbd827415	-0.06369797
45	0x3cd863b0	0.026414722
46	0xbe1466f0	-0.14492393
47	0xbea7d0a3	-0.32776365
48	0xbe61c836	-0.2204903
49	0x3b73855c	0.0037158346
50	0xbd114f95	-0.035476286
51	0xbce630d0	-0.028099447
52	0xbe8262d8	-0.25466037
53	0xbe31b75a	-0.173551
54	0xbe899cd4	-0.26877463
55	0x3dfba781	0.12287808
56	0x3c876399	0.016526984
57	0x3e4bc6f0	0.19900107
58	0x3df2885f	0.11842417
59	0x3dde0ef8	0.10842699
60	0xbdd0bdde	-0.10192464
61	0x3e422fce	0.18963549
62	0x3e6dfc39	0.23240747
63	0x3def3753	0.11680474
64	0x3de08b4f	0.10964071
65	0xbc019794	-0.007909674
66	0xbd903140	-0.07040644
67	0xbe4bbfe3	-0.19897418
68	0xbdee87da	-0.116470054
69	0xbd0a9daa	-0.033841766
70	0x3e017c9d	0.12645192
71	0x3cb4d763	0.02207536
72	0xbbb6df94	-0.005580852
73	0x3cf9d1c8	0.03049554
74	0x3dd07ee5	0.10180453
75	0x3d3336bb	0.043753367
76	0xbd271891	-0.040794913
77	0xbdacce79	-0.08437819
78	0x3d9ad38e	0.07559882
79	0xbc14b038	-0.009075217
80	0x3c4eed55	0.012629827
81	0x3c37b1c7	0.011211819
82	0x3ceef76e	0.029170718
83	0xbdf8be64	-0.12145689
84	0xbd45486b	-0.048164766
85	0x3d4e3e5f	0.05035245
86	0xbcbdedd7	-0.0231847
87	0xbe375119	-0.1790203
88	0xbdba9c02	-0.091117874
89	0x3d65dc02	0.05611802
90	0xbe231317	-0.15925251
91	0xbe596935	-0.2123154
92	0xbe65bd8a	-0.22435585
93	0xbd84a449	-0.064766474
94	0xbd1b4b3c	-0.037913546
95	0xbdeb66b3	-0.11494198
96	0xbc5c6758	-0.013452373
97	0x3e178f55	0.1480077
98	0x3e6f6803	0.23379521
99	0x3e3a4f84	0.18194395
100	0xbd61857e	-0.05505895
101	0xbe0a3051	-0.13494994
102	0xbe1e5e9f	-0.15465783
103	0xbe78ba5d	-0.24289842
104	0xbe365c68	-0.17808688
105	0xbc3574c5	-0.011075203
106	0x3c23abde	0.009989707
107	0xbc482eb3	-0.012218165
108	0xbe66e599	-0.22548522
109	0xbd84b5cc	-0.064799875
110	0xbe1c9d54	-0.15294391
111	0xbd29dca0	-0.04147017
112	0xbdabdbbf	-0.083915226
113	0xbe91842b	-0.2842115
114	0xbe00e6f8	-0.12588108
115	0xbe2ed6b2	-0.17074087
116	0xbde1ee85	-0.11031822
117	0xbe039598	-0.12850034
118	0xbe56f14b	-0.20990483
119	0xbd08b963	-0.033379924
120	0xbd7d9c79	-0.061916802
121	0xbdc92977	-0.09822362
122	0xbda7a4ed	-0.08185754
123	0x3e077d0e	0.13231298
124	0x3e425352	0.18977097
125	0xbb8888ca	-0.004166697
126	0x3cacb4f9	0.021082388
127	0xbc17a2dc	-0.009255137
128	0xbd201518	-0.039082617
129	0xbdf65522	-0.120279565
130	0x3d26ac0e	0.040691428
131	0x3b6fabd1	0.0036570916
132	0x3d7c4757	0.061591472
133	0xbd730db2	-0.059339233
134	0xbd4a44fd	-0.0493822
135	0xbd470b7a	-0.04859493
136	0xbdffda19	-0.12492771
137	0xbcf0b1df	-0.02938169
138	0xbc985602	-0.0185957
139	0xbd207087	-0.039169814
140	0xbdbe29f5	-0.092853464
141	0xbe004bfe	-0.12528989
142	0xbe3fafae	-0.1871936
143	0xbc5be542	-0.013421359
144	0x3c430018	0.011901878
145	0x3d7726bd	0.060339678
146	0xbbc1a1c8	-0.0059091784
147	0x3df90d66	0.12160759
148	0x3e3a8a0e	0.18216726
149	0x3eb52633	0.35380706
150	0x3e34c1ae	0.17652008
151	0x3d49359c	0.04912339
152	0xbe0124cf	-0.12611698
153	0x3e3edea2	0.18639615
154	0x3e4b0877	0.19827448
155	0x3e288996	0.16458735
156	0x3de71b92	0.112845555
157	0xbec135ab	-0.37736258
158	0x3dcfdb11	0.101492055
159	0x3ddf09c1	0.10890532
160	0x3e41589c	0.18881458
161	0xbcb00402	-0.021486286
162	0xbe981d46	-0.29709834
163	0xbda66beb	-0.081260525
164	0x3e739c59	0.2379011
165	0x3e3ecb02	0.18632129
166	0xbd65d2fd	-0.056109417
167	0xbea2e250	-0.31813288
168	0xbda45378	-0.08023733
169	0x3d5c47f0	0.053779542
170	0x3e19b10c	0.15008944
171	0x3d86c54c	0.065806
172	0xbe6fb2e5	-0.23408087
173	0xbdd95fcd	-0.10613976
174	0x3cf100fe	0.029419418
175	0x3e034bb3	0.12821846
176	0xbe268ed8	-0.16265428
177	0xbee5a585	-0.44852844
178	0xbe1ba247	-0.15198623
179	0x3d6a1dff	0.057157513
180	0x3e904a30	0.281816
181	0x3cec9155	0.028877893
182	0xbeccdd29	-0.40012482
183	0x3d4f9d54	0.05068715
184	0x3e74010d	0.23828526
185	0x3e5e2f94	0.21697837
186	0xbdb78f30	-0.08962858
187	0xbf0f83f8	-0.56060743
188	0xbd884751	-0.066542275
189	0x3e0e4ae5	0.13895757
190	0x3e827c2e	0.25485367
191	0xbc642311	-0.013924376
192	0xbebaa368	-0.36452794
193	0xbe27a6a7	-0.16372167
194	0x3e32a103	0.17444234
195	0x3e842031	0.2580581
196	0x3dfe9445	0.12430624
197	0xbe1a97ac	-0.1509692
198	0xbda4be90	-0.080441594
199	0x3e2d77b0	0.16940188
200	0xbb21d820	-0.002469547
201	0xbcd06cc0	-0.025442481
202	0xbe6a664a	-0.22890583
203	0x3d50097e	0.050790302
204	0x3cf6a75d	0.030109102
205	0x3e2d0d57	0.1689962
206	0xbd4a22a5	-0.049349446
207	0xbea27fab	-0.31738028
208	0x3df27891	0.118394025
209	0x3e382aa0	0.1798501
210	0x3e597903	0.21237569
211	0x3e08842b	0.13331668
212	0xbeaead56	-0.3411662
213	0x3cb6ad4a	0.022299428
214	0x3e9c90cd	0.30579224
215	0x3df0dd2d	0.11760936
216	0xbc2a84b1	-0.010407613
217	0xbe8f9702	-0.28044897
218	0xbcf02d23	-0.029318398
219	0x3d8de181	0.06927777
220	0x3e4d7fb7	0.2006825
221	0x3cd00702	0.025393967
222	0xbdfa3bac	-0.12218413
223	0xbd90082b	-0.07032808
224	0x3e1a4a39	0.15067376
225	0xbd98a7bc	-0.07453868
226	0x3d079945	0.033105154
227	0xbe1d4759	-0.15359248
228	0xbd409a52	-0.04702217
229	0x3d9be722	0.076124445
230	0x3e19cd66	0.1501976
231	0x3e38f1af	0.18060945
232	0xbcb137a2	-0.021632973
233	0xbdc6137c	-0.09671685
234	0xbe5cd06c	-0.21563882
235	0x3de03d5a	0.10949202
236	0x3e9c5648	0.30534577
237	0x3c50e0fc	0.012748953
238	0xbe99d5a0	-0.30045795
239	0xbe6dbb97	-0.23216091
240	0x3e0ddbac	0.1385333
241	0x3daddb11	0.08489049
242	0x3e0a899f	0.13529061
243	0xbe486a40	-0.19571781
244	0xbd800f0c	-0.0625287
245	0x3cd768bf	0.026295064
246	0xbda81fc8	-0.08209187
247	0xbda4909d	-0.08035395
248	0x3d3781bb	0.044801455
249	0x3d8b06ee	0.06788431
250	0x3da37109	0.07980544
251	0x3d42ff90	0.047607005
252	0xbe2b18be	-0.16708657
253	0x3d24e5c3	0.04025818
254	0x3d836106	0.0641499
255	0x3e2262a0	0.15857935

conv1.bias f4 [6]
0	0xbe12a21e	-0.14319655
1	0x3e9ced46	0.30649775
2	0xbd06dc47	-0.032924917
3	0x3edf79c0	0.43647575
4	0x3ea917d3	0.3302599
5	0x3f17d5ef	0.5931081

conv2.weight f4 [16, 6, 5, 5]
0	0xbba2eb95	-0.004971931
1	0xbd22a7e5	-0.039710898
2	0xbc6f968a	-0.014623294
3	0xbd0b6811	-0.034034792
4	0xbd02c008	-0.031921417
5	0xbd5dc6de	-0.054144733
6	0xbdaa70bf	-0.08322286
7	0xbd3b011a	-0.045655347
8	0xbda7eb69	-0.08199198
9	0xbbe5097b	-0.0069896556
10	0xbdc9accd	-0.09847412
11	0x3c35c3b7	0.011094025
12	0x3d283626	0.041067265
13	0x3cdc30fb	0.026878824
14	0xbc937ddd	-0.018004352
15	0x3dbf2a4e	0.09334241
16	0x3d816271	0.06317604
17	0xbb0501e6	-0.002029532
18	0x3dc293c5	0.09500841
19	0x3d27f643	0.041006338
20	0x3dd7e7b5	0.105422415
21	0x3ddcdbe3	0.107841276
22	0x3d9f3104	0.07773021
23	0x3d8a7af6	0.06761734
24	0x3de0c029	0.10974152
25	0x3c46e53b	0.012139614
26	0x3dce8cc4	0.10085443
27	0x3e150846	0.14553937
28	0x3d1d25e1	0.038366202
29	0x3d42fdc2	0.047605284
30	0x3d2602f5	0.040530164
31	0x3e20a807	0.15689097
32	0x3dd9351d	0.10605834
33	0x3c26b02a	0.010173837
34	0x3d055839	0.03255484
35	0xbc7388bd	-0.014864144
36	0x3da4c3e0	0.08045173
37	0xbd2ef624	-0.042715207
38	0xbdb92ffc	-0.090423554
39	0xbe126bc8	-0.14298928
40	0x3b0419c0	0.002015695
41	0xbdaec012	-0.08532728
42	0xbdc4caaf	-0.09608971
43	0xbe0428b5	-0.12906154
44	0xbe499ce2	-0.19688752
45	0xbd8811f7	-0.066440515
46	0x3c987ef0	0.018615216
47	0xbd1fffa9	-0.039062176
48	0xbd8abfe9	-0.06774885
49	0xbdc46578	-0.09589666
50	0x3d82086c	0.063492626
51	0xbc74316f	-0.014904364
52	0xbd0dfb7a	-0.034663655
53	0xbd0612e6	-0.032732867
54	0xbbcbeed8	-0.0062235408
55	0x3d81d825	0.063400544
56	0xbc6708d2	-0.014101224
57	0xbd774fda	-0.060378887
58	0xbcaa7bd7	-0.020811005
59	0xbcf6ab90	-0.030111104
60	0x3e1c8b4d	0.15287514
61	0x3d2e1df5	0.042509038
62	0x3d7cdd03	0.06173421
63	0xbb707331	-0.0036689753
64	0x3c22bc81	0.009932638
65	0x3e43b6ca	0.19112697
66	0x3d2d1c80	0.042263508
67	0xbd550881	-0.052010063
68	0xbd0ed36b	-0.034869593
69	0x3d82899a	0.06373902
70	0x3e251cd1	0.16124274
71	0x3d203159	0.03910956
72	0x3d422098	0.047394365
73	0xbd1e94d5	-0.038716156
74	0xbca06b3a	-0.01958238
75	0x3d0505c4	0.0324762
76	0xbc9d835f	-0.019227682
77	0xbdab6ca1	-0.08370329
78	0xbd995976	-0.074877664
79	0xbd9c5668	-0.07633668
80	0x3d8f797e	0.07005595
81	0x3c4c7f92	0.012481587
82	0xbb1653d3	-0.0022938147
83	0x3c351d71	0.011054383
84	0xbd109dcf	-0.035306748
85	0x3da6fb9c	0.081534594
86	0xbc3cb39e	-0.011517433
87	0x3c5aba77	0.013350121
88	0xbcddd85e	-0.027080711
89	0x3d7827b3	0.060584735
90	0x3c7c16f2	0.01538633
91	0x3ccbb9bc	0.024868838
92	0xbdb428c7	-0.0879684
93	0x3d0d41b3	0.034486484
94	0xbd85424e	-0.06506787
95	0x3d131f14	0.03591831
96	0xbd2cc71e	-0.04218208
97	0xbd956b8f	-0.07295906
98	0xbdf6dca7	-0.12053805
99	0xbdd22a5a	-0.10261984
100	0xbd958295	-0.07300297
101	0xbd57599e	-0.0525757
102	0xbb53abd0	-0.0032298453
103	0xbdae8acd	-0.08522568
104	0xbc29f85d	-0.010374156
105	0x3d183ff6	0.037170373
106	0xbd85a996	-0.065264866
107	0x3d483bb3	0.04888506
108	0xbc61bffb	-0.013778682
109	0xbd2210e9	-0.039566908
110	0x3da03596	0.07822721
111	0x3dc647d8	0.09681672
112	0xbc324d2f	-0.01088266
113	0xbc6d2e13	-0.014476317
114	0x3cd7ef6a	0.026359279
115	0xbd317a87	-0.04332974
116	0x3c9d0c43	0.019170886
117	0x3d6ed601	0.05830956
118	0x3bab1a3c	0.0052216332
119	0x3dd0a59f	0.1018784
120	0x3d341587	0.043965843
121	0xbda59946	-0.08085875
122	0x3c44540a	0.011982927
123	0xbdad5728	-0.08463889
124	0xbd9640ff	-0.07336616
125	0x3d256141	0.04037595
126	0x3d2b2142	0.041779764
127	0xbd32c121	-0.043641213
128	0xbd1d52bf	-0.03840899
129	0x3d7d84f8	0.061894387
130	0x3d8c5d18	0.06853694
131	0xbd9bc68f	-0.076062314
132	0x3c7a4cb2	0.015277075
133	0x3d174a5a	0.03693614
134	0xbca79905	-0.020458708
135	0x3c6a6ba1	0.014307887
136	0xbd19f9ee	-0.037591867
137	0x3bbd4b54	0.005776802
138	0xbb5f7ea2	-0.0034102579
139	0xbcf6b3a6	-0.03011496
140	0xbd841364	-0.06449011
141	0xbd86bec6	-0.06579356
142	0x3d9c132f	0.076208465
143	0xbd9a9f56	-0.07549922
144	0x3cd3d737	0.025859458
145	0x3c7dedbe	0.015498577
146	0xbbac3880	-0.0052557588
147	0x3ceb8bc3	0.028753167
148	0xbda913ae	-0.08255707
149	0x3d0869bb	0.033303957
150	0xbd700b64	-0.058604613
151	0x3ce11e97	0.027480407
152	0xbdc9bdc1	-0.09850646
153	0xbdb88644	-0.09009984
154	0x3d744cc5	0.059643526
155	0xbd84edbc	-0.06490657
156	0xbc01b04c	-0.007915568
157	0xbd572b02	-0.05253125
158	0xbd9190b3	-0.07107677
159	0xbd5fff07	-0.054686572
160	0xbce5aea2	-0.028037373
161	0xbdb76dc2	-0.089564815
162	0xbacadc99	-0.001547712
163	0xbd822d66	-0.06356315
164	0xbdc9b430	-0.09848821
165	0xbe118baa	-0.14213434
166	0xbdf3c0fa	-0.11902042
167	0xbd4a14c7	-0.04933622
168	0xbd3aa92a	-0.045571484
169	0xbda87d77	-0.082270555
170	0xbdd35f43	-0.10320904
171	0xbdd44298	-0.10364264
172	0xbdc63aaa	-0.09679158
173	0xbdd0cdfb	-0.10195538
174	0xbdf949f5	-0.12172309
175	0xbbbd83c4	-0.00578353
176	0xbd12e667	-0.03586426
177	0xbe077a6e	-0.13230297
178	0xbd9d1cb5	-0.07671491
179	0x3b8dd774	0.0043286625
180	0x3d8e0bd4	0.0693585
181	0x39af919d	0.0003348709
182	0x3cbb8f61	0.022895517
183	0xbd95b2a9	-0.07309467
184	0xbc0d63fb	-0.008629794
185	0x3dafca13	0.085834645
186	0xbdbe1f40	-0.09283304
187	0xbe176626	-0.1478506
188	0x3cd5b4a2	0.026087109
189	0x3da75db7	0.081721716
190	0x3e3c28ca	0.18374935
191	0x3cd02442	0.025407914
192	0xbe010c5e	-0.12602374
193	0x3b16d1c3	0.0023013211
194	0x3dbec992	0.0931579
195	0x3d13d349	0.03609017
196	0xbcb97730	-0.02263984
197	0xbda95a20	-0.08269143
198	0xbdcc348a	-0.099709585
199	0x3db45ac9	0.088063784
200	0xbd1b3d5b	-0.03790031
201	0xbd22e3eb	-0.03976814
202	0x3cbee091	0.023300441
203	0xbd980782	-0.07423307
204	0x3b8c5920	0.0042830855
205	0x3d180b2c	0.03712003
206	0xbb9585ae	-0.004563055
207	0x3d38f4d5	0.045155365
208	0xbd0576c4	-0.032583967
209	0xbc15a6e5	-0.009134029
210	0x3d6c53ec	0.05769722
211	0xbd8349b2	-0.06410541
212	0xbd9dbdd7	-0.07702225
213	0x3cd6b4dd	0.02620929
214	0x3dafa649	0.08576638
215	0x3d59481e	0.053047292
216	0xbd02d33c	-0.03193973
217	0xbd886b7e	-0.066611275
218	0x3d85fbb1	0.06542147
219	0xbb8b65b9	-0.0042540696
220	0x3db79bbb	0.0896525
221	0x3d0eb82b	0.034843605
222	0x3dc98fd8	0.09841889
223	0x3d0e6d17	0.034772005
224	0xbcb52ac8	-0.022115126
225	0xbd065950	-0.03280002
226	0xbda99126	-0.08279638
227	0xbca5adaf	-0.02022442
228	0x3d10e23d	0.035372008
229	0x3cff639d	0.031175429
230	0xbd8b7a6f	-0.06810462
231	0xbcd7bb82	-0.026334528
232	0xbcebdc19	-0.028791474
233	0x3cf77e75	0.030211667
234	0x3d340775	0.043952424
235	0xbd49a263	-0.04922713
236	0x3b5dbc1b	0.0033834043
237	0x3d1022a1	0.035189275
238	0x3d85cbee	0.06533037
239	0x3da0a7e2	0.07844521
240	0xbd4ea95b	-0.05045448
241	0xbda2db3e	-0.079519734
242	0x3d893a1a	0.06700535
243	0x3dcf8b2a	0.10133965
244	0x3c051f50	0.008125141
245	0xbd9e99ae	-0.07744156
246	0x3ca815c0	0.020518184
247	0x3d8b70f0	0.068086505
248	0x3dddfc30	0.108391166
249	0x3e3d4693	0.18483953
250	0x3d670603	0.056402218
251	0x3e07db66	0.13267288
252	0x3e37102d	0.17877264
253	0x3e33d04e	0.1755993
254	0x3e048dfd	0.12944789
255	0x3ddaa15b	0.10675307

conv2.bias f4 [16]
0	0xbda18d3c	-0.078882664
1	0xbe1d34a3	-0.1535211
2	0xbe68c7da	-0.22732487
3	0x3db0d58b	0.0863448
4	0xbdbbbc45	-0.09166769
5	0x3ea917f2	0.3302608
6	0x3e9ac299	0.3022659
7	0x3e8c6cf4	0.27426875
8	0xbda2c8e7	-0.07948475
9	0xbe35aa30	-0.17740703
10	0xbda90fd4	-0.08254972
11	0x3e803be8	0.25045705
12	0xbea1365c	-0.31486785
13	0xbe860862	-0.2617827
14	0xbded5c73	-0.11589899
15	0xbd6f1437	-0.058368888

fc1.weight f4 [120, 400]
0	0xbc8fc742	-0.017551068
1	0xbd5e25cb	-0.05423526
2	0xbc31ce51	-0.010852412
3	0xbc763323	-0.01502684
4	0xbd34503a	-0.044021823
5	0x3d6693c8	0.05629328
6	0x3c6975bf	0.014249264
7	0xbab6569a	-0.0013911307
8	0x3c8dc2be	0.017304774
9	0x3c6db879	0.014509314
10	0x3d0f2d6f	0.03495544
11	0xbbdbc2a8	-0.0067065544
12	0xbd87c686	-0.06629662
13	0xbc85e8fa	-0.016346443
14	0xbb754f3a	-0.0037431256
15	0x3bbf23ac	0.00583311
16	0xbd2487c2	-0.04016853
17	0xbd364ca7	-0.044506695
18	0x3b0a06ec	0.0021061255
19	0xbd1a28a6	-0.03763642
20	0x3ca9fd1d	0.020750577
21	0xbd5b50d5	-0.053543884
22	0x3cb8d10c	0.022560619
23	0xbd01bcd9	-0.03167424
24	0xbd11663d	-0.035497893
25	0xbd811a07	-0.063037924
26	0xbd1c31e2	-0.03813351
27	0x3ce4369f	0.027858077
28	0xbb0ee4c5	-0.0021803838
29	0x3ccb14b4	0.024790145
30	0xbd161173	-0.036637735
31	0xbb50363a	-0.0031770603
32	0x3c60c7f8	0.013719551
33	0x3da74b75	0.08168689
34	0x3ca98b1e	0.020696219
35	0x3c2b96fa	0.010473007
36	0xbb13dbc7	-0.0022561417
37	0xbcdd3058	-0.027000591
38	0x3cd7e06a	0.026352126
39	0x3cda940f	0.026681928
40	0x3c4c7465	0.0124789225
41	0xbc80f921	-0.015743794
42	0x3d0e414d	0.034730244
43	0x3d02fafb	0.031977635
44	0xbd146827	-0.03623214
45	0xbd6e0b81	-0.05811644
46	0xbd242847	-0.040077474
47	0xbd305d4d	-0.04305773
48	0xbd219ef7	-0.03945824
49	0xbd3342b0	-0.04376477
50	0xbcc01977	-0.023449643
51	0x3bb97b61	0.00566046
52	0x3c989ea7	0.018630339
53	0x3d5f39dc	0.05449854
54	0x3d3b21fa	0.0456867
55	0x3c0d4d3d	0.008624372
56	0x3d66a328	0.05630794
57	0x3d3ba222	0.04580892
58	0xbcfffd55	-0.031248728
59	0x3d5bf1cb	0.05369739
60	0x3d5db9df	0.05413234
61	0xbd02ea17	-0.031961527
62	0xbd02d1af	-0.03193825
63	0xbd28214f	-0.04104739
64	0xbcd5d425	-0.026102135
65	0xbcbabe13	-0.022795713
66	0x3b4eaad2	0.0031534922
67	0xbc7ad7c1	-0.015310229
68	0x3c266593	0.010156053
69	0xbd4a0296	-0.049318872
70	0x3cef1d9f	0.02918893
71	0x3cc08759	0.023502039
72	0x3b79f2d5	0.0038139124
73	0xbd4e43e3	-0.05035771
74	0x3c3ba000	0.011451721
75	0xbd21f7c6	-0.039542936
76	0x3d38bc34	0.04510136
77	0x3d42c690	0.047552645
78	0x3be35752	0.0069378996
79	0xbcc90b69	-0.024541574
80	0xbc632a27	-0.01386503
81	0x3d47f730	0.04881972
82	0xbc9ce376	-0.01915143
83	0x3c7a45b8	0.015275411
84	0x3ca91258	0.02063863
85	0x3c8aec7c	0.016958468
86	0xbceea154	-0.029129662
87	0xbb8ce7d9	-0.0043000993
88	0x3d0ddcf0	0.03463453
89	0xbcc3851c	-0.023867182
90	0xbd3bb25c	-0.045824394
91	0xbd1fdb04	-0.03902723
92	0xb95c7d58	-0.00021027529
93	0xbd29c8ca	-0.041451253
94	0xbca43978	-0.020046934
95	0xbd5051ea	-0.05085937
96	0xbd129725	-0.035788674
97	0x3cd2c956	0.02573077
98	0x3cce6a88	0.025197282
99	0x3d0ab17f	0.03386068
100	0xbd26acd1	-0.040692154
101	0x3afe3701	0.0019395055
102	0xbc9e9f83	-0.01936317
103	0xbc5015b3	-0.012700486
104	0x3cb2b468	0.02181454
105	0xbd15c0ea	-0.03656093
106	0x3cb52712	0.022113357
107	0xbd256573	-0.040379953
108	0x3c88a85e	0.016681846
109	0x3c505077	0.012714497
110	0x3d124322	0.035708554
111	0xbd3981ce	-0.045289807
112	0xbcdf3ba8	-0.027250126
113	0x3c282ab5	0.010264088
114	0x3d69e15f	0.057099696
115	0xbd0c4705	-0.034247417
116	0x3ca82764	0.020526595
117	0xbbf8b09a	-0.007589412
118	0xbcdf38d6	-0.027248781
119	0x3c80f242	0.015740518
120	0x3c989cfe	0.018629547
121	0x3c9f522a	0.019448359
122	0x3c8e7129	0.017387943
123	0x3b7b7066	0.0038366555
124	0x3d329176	0.043595754
125	0x3c0c9d48	0.008582421
126	0x3c89043a	0.016725648
127	0x3b88cca8	0.0041747876
128	0x3cabdd8e	0.020979669
129	0x3cdad5f6	0.026713353
130	0x3d45f3d4	0.048328236
131	0xbc77d3c1	-0.01512617
132	0xbd3d035f	-0.046145793
133	0x3d4745d1	0.048650566
134	0x3d422cc7	0.047405984
135	0x3b5bb154	0.0033522444
136	0xba14da84	-0.00056783133
137	0xbd78ff45	-0.06079032
138	0xbc910db9	-0.017706739
139	0x3da99bad	0.08281646
140	0x3c800b9e	0.01563054
141	0xbc9c5e57	-0.019087953
142	0xbd2143e5	-0.03937139
143	0x3cde1ea1	0.027114214
144	0x3c6947b5	0.014238288
145	0x3d37f45f	0.044910785
146	0x3d850d2c	0.06496653
147	0x3d800ebd	0.06252811
148	0x3c60b38e	0.013714684
149	0xbca3faa0	-0.020016968
150	0x3cd10590	0.025515348
151	0xbd429d1f	-0.047513124
152	0xbd21e707	-0.039526965
153	0xbbf6967e	-0.0075252643
154	0x3d463284	0.04838802
155	0xbd12d70a	-0.03584961
156	0xbcb0dd2c	-0.021589838
157	0xbc9daf4b	-0.019248625
158	0x3c677b30	0.014128491
159	0x3ce18ab0	0.027531952
160	0xbd024357	-0.0318025
161	0xbd2255ec	-0.039632723
162	0xbd81ff52	-0.063475266
163	0xbc97b501	-0.018518927
164	0x3d716840	0.05893731
165	0xbd479251	-0.048723523
166	0x3c27f192	0.010250466
167	0xbcf90637	-0.030398471
168	0xbd31dfe3	-0.043426406
169	0x3d53446a	0.051578917
170	0x3d76aeee	0.06022542
171	0x3cd266f8	0.025683865
172	0x3d3c7282	0.04600764
173	0xbd0ec297	-0.034853544
174	0x3d060bf9	0.03272626
175	0x3d71fc41	0.05907846
176	0xbc8a39b9	-0.016873227
177	0x3cfed309	0.031106489
178	0x3d49c5b1	0.0492608
179	0xbd3e3304	-0.04643537
180	0x3c3807ed	0.011232358
181	0xbce26847	-0.027637614
182	0xbbc3e7dc	-0.0059785675
183	0x3c5a2eeb	0.01331685
184	0x3cf6908a	0.030098218
185	0x3d39f52b	0.045399826
186	0xba9db69d	-0.0012032572
187	0x3d3f9499	0.046772573
188	0x3d69aa29	0.057047043
189	0xbbfb5567	-0.007670093
190	0x3c0ab148	0.008465119
191	0xbc07df5f	-0.008293002
192	0x3ccf1214	0.025277175
193	0xbcc8f58f	-0.024531154
194	0xbbea1cbe	-0.0071445396
195	0xbc801cce	-0.015638735
196	0x3d3fe30d	0.046847392
197	0xbc8e16a1	-0.017344775
198	0xbce23243	-0.027611857
199	0x3cbfdff9	0.023422228
200	0xbb633b86	-0.003467293
201	0x3cd9fda5	0.026610205
202	0xbcd39f05	-0.025832662
203	0xbd2f8e18	-0.04286012
204	0xbd220ec1	-0.03956485
205	0xbd8948b0	-0.06703317
206	0x3cc86422	0.02446181
207	0xbc0ed498	-0.0087176785
208	0xbc7ebb12	-0.015547531
209	0x3c233138	0.009960465
210	0xbd0ae228	-0.033907086
211	0xbd7a465d	-0.06110226
212	0x3d1a23f5	0.037631948
213	0xbb2735fe	-0.002551436
214	0xbc9cf685	-0.019160518
215	0x3ce9ce17	0.028540654
216	0x3cb27d01	0.021788122
217	0x3d18a771	0.03726906
218	0xbcf586f7	-0.029971583
219	0x3d404337	0.0469391
220	0x3c7e2cc2	0.015513601
221	0xbd65ba4a	-0.056085862
222	0x3d009dea	0.0314006
223	0x3d44af76	0.048018895
224	0xbc8189f0	-0.015812844
225	0xbc56c15d	-0.013107625
226	0xbd4f00e4	-0.05053796
227	0xbd88ccd8	-0.06679696
228	0xbd7de5df	-0.0619868
229	0xba48f67e	-0.0007666125
230	0xbce9e21e	-0.028550204
231	0xbadec3ae	-0.0016995573
232	0xbc17658b	-0.009240518
233	0x3b8072bb	0.003919927
234	0x3d2fe0c3	0.04293896
235	0xbc4f9799	-0.012670421
236	0x3d3cedc4	0.04612519
237	0x3d072bc7	0.033000734
238	0x3d2a5962	0.04158915
239	0x3c8da1d4	0.01728908
240	0x3bd3147b	0.0064416504
241	0xbd379190	-0.044816554
242	0xbd2ecb7c	-0.042674527
243	0x3aa886aa	0.0012857516
244	0x3b261564	0.002534234
245	0x3d4de081	0.05026293
246	0x3d6be914	0.057595327
247	0x3d854e65	0.06509093
248	0x3c0f089b	0.008730079
249	0xbbb41814	-0.0054960344
250	0xbd2c6e38	-0.0420973
251	0xbc94f64a	-0.018183846
252	0x3cfd83c2	0.030946616
253	0x3afb14bf	0.0019155963
254	0xb86b2df2	-5.6071156e-05
255	0xbc677442	-0.014126839

fc1.bias f4 [120]
0	0xbcf6f618	-0.030146644
1	0x3dc188d2	0.094499245
2	0xbd4d2f35	-0.05009385
3	0x3b8b543c	0.004251985
4	0x3dba85a7	0.091075234
5	0xbc8f8b8d	-0.017522598
6	0x3d385a19	0.0450078
7	0x3d7687b2	0.060188003
8	0x3dc49535	0.095987715
9	0x3d9aa419	0.075508304
10	0x3d4d833d	0.050173987
11	0x3cc925a9	0.02455409
12	0xbdae051e	-0.0849707
13	0xbd70b334	-0.05876465
14	0xbd3a3257	-0.045458164
15	0x3b71c247	0.003688948
16	0x3c0c0c28	0.00854782
17	0x3d3d1baf	0.04616898
18	0x3d38550d	0.045002986
19	0x3cc74ebb	0.024329534
20	0xbcf3fa1c	-0.029782347
21	0xbd9fa1c4	-0.07794526
22	0xbd69d13a	-0.0570843
23	0x3db16a12	0.086628094
24	0x3dc39b71	0.095511325
25	0x3e077dce	0.13231584
26	0xbc0a5c95	-0.008444925
27	0xbaaa7f6d	-0.0013007947
28	0xbdd0f94a	-0.10203798
29	0xbcb9c595	-0.022677222
30	0x3cf470e9	0.029838996
31	0xbb708c66	-0.0036704778
32	0xbd26eb9e	-0.040752046
33	0x3c6fe47b	0.014641876
34	0xbd4e7238	-0.050401896
35	0xbd9df4db	-0.07712718
36	0xbcbbe81c	-0.022937827
37	0x3d190f40	0.03736806
38	0x3e02c3f5	0.12770064
39	0xbd69ef34	-0.057112888
40	0x3d6c270d	0.05765443
41	0xbc8a0c64	-0.016851611
42	0xbd3b1b9b	-0.045680624
43	0x3dab1718	0.08354014
44	0x3d4fb8fb	0.05071352
45	0x3a4a1098	0.0007708161
46	0x3d001d88	0.031278163
47	0xbb006b17	-0.001959508
48	0xbacf8262	-0.0015831704
49	0x3dbd8c9d	0.092553355
50	0xbcad200d	-0.021133447
51	0x3db99b9f	0.090628855
52	0x3cabb514	0.020960368
53	0xbcef6c58	-0.029226467
54	0x3cb2065e	0.021731552
55	0xbcfda8e2	-0.030964319
56	0x3d808b89	0.06276614
57	0xbcd9e50e	-0.02659848
58	0xbca2e407	-0.019884123
59	0x3b64b5dc	0.0034898436
60	0xbdb2def9	-0.08733935
61	0xbd214f4d	-0.039382268
62	0xbd1fe4f1	-0.039036695
63	0xbd35d300	-0.04439068
64	0x3c4a1471	0.012333975
65	0xbcd8a923	-0.026447838
66	0x3d07404a	0.033020295
67	0x3ceb58b3	0.028728819
68	0x3d4a8467	0.049442675
69	0x3c31d3e7	0.010853744
70	0x3cac68ac	0.021046005
71	0xbc21507a	-0.009845847
72	0x3cfb1795	0.030650893
73	0x3d4653c2	0.04841972
74	0x3d2e693b	0.042580824
75	0x3d816904	0.06318858
76	0x3cdfba8e	0.027310636
77	0x3d35cd1b	0.044385057
78	0xbd193269	-0.03740159
79	0x3d5c4d9c	0.05378495
80	0xbd2024df	-0.039097663
81	0xbda36a42	-0.079792514
82	0xbd2f798f	-0.042840537
83	0x3c659a08	0.014013775
84	0xbbe45d9c	-0.006969167
85	0xbd39e9c9	-0.04538897
86	0xbce54668	-0.027987674
87	0x3d735d7a	0.059415318
88	0x3c90e59e	0.017687615
89	0xbb70f185	-0.003676505
90	0xbd42093e	-0.047372095
91	0x3d1a76fd	0.037711132
92	0xbc3b8ef2	-0.011447655
93	0x3bf15bba	0.007365671
94	0xbcf1659c	-0.029467396
95	0x3d1f721c	0.038927183
96	0xbd7914af	-0.06081074
97	0xbd1d9bf5	-0.03847881
98	0x3d3bfb30	0.045893848
99	0x3b28f8d9	0.002578309
100	0xbda1eba2	-0.079062715
101	0xbdde6fea	-0.1086119
102	0xbb0ca8c9	-0.0021462908
103	0xbd205bb6	-0.039149962
104	0x3bd3c7cb	0.006463026
105	0xbd353539	-0.04424021
106	0x3dcd943a	0.100380376
107	0xbd430862	-0.047615416
108	0xbd0279ae	-0.031854324
109	0xbd1958d8	-0.037438244
110	0x3c80217a	0.015640963
111	0x3d35248d	0.04422431
112	0xbb1552d0	-0.0022784956
113	0x3c2f20c3	0.010688963
114	0x3d7a012b	0.06103627
115	0x3d55de13	0.05221374
116	0xbce8cd09	-0.02841808
117	0xbda5b8fe	-0.08091925
118	0x3e0d0d9a	0.1377472
119	0xbd416075	-0.04721113

hash1.weight f4 [64, 120]
0	0x3d758e3d	0.059950102
1	0x3c976460	0.01848048
2	0xbdbf17ce	-0.09330712
3	0xbae11cc5	-0.0017174712
4	0x3d20150b	0.03908257
5	0xbd9c8a50	-0.076435685
6	0xbd04214e	-0.032258324
7	0x3d89c841	0.067276485
8	0x3dd70494	0.1049892
9	0x3dfb5b15	0.12273232
10	0xbd060521	-0.032719735
11	0x3d99a8c1	0.075028904
12	0xbda6c602	-0.08143236
13	0xbde89b3d	-0.11357734
14	0xbada927b	-0.0016675735
15	0xbd9973e9	-0.07492811
16	0x3d9489a5	0.07252816
17	0x3c3204bc	0.010865387
18	0xbc2a7972	-0.010404931
19	0xbca301d4	-0.019898333
20	0xbb451210	-0.003007058
21	0xbd47c98c	-0.048776194
22	0xbbe871e1	-0.0070936535
23	0x3c3b905c	0.011447992
24	0x3dbd3762	0.09239079
25	0x3d98da16	0.074634716
26	0xbb04af44	-0.0020246068
27	0x3d98a4c9	0.07453305
28	0xbc029749	-0.0079706395
29	0x3d1e13e0	0.038593173
30	0xbc443c59	-0.011977279
31	0xbcd5c11e	-0.026093062
32	0x3d49771a	0.04918585
33	0xbe0b6636	-0.13613209
34	0xbd786d99	-0.060651395
35	0x3d4db94d	0.050225545
36	0xbd1c7136	-0.038193904
37	0xbd8257e6	-0.063644215
38	0x3db3ea09	0.08784873
39	0xbd88a52c	-0.06672129
40	0xbc9102cb	-0.017701527
41	0xbc9dc1c0	-0.019257426
42	0xbd85e53a	-0.06537862
43	0x3e07fa38	0.13279045
44	0xbdcd8295	-0.10034672
45	0xbd4ed405	-0.050495166
46	0x3d5c9b58	0.053859085
47	0x3dab8e79	0.08376784
48	0x3d181880	0.03713274
49	0xbd4afc58	-0.04955706
50	0x3c793fab	0.0152129335
51	0xbc3ba052	-0.011451798
52	0x3d3f9a6e	0.046778135
53	0xbdcd8d28	-0.10036689
54	0x39d259c0	0.0004012119
55	0x3b894920	0.0041896254
56	0x3dd142b0	0.10217798
57	0xbd95e69f	-0.07319378
58	0x3c96111f	0.01831871
59	0x3d58418d	0.05279689
60	0x3ce34bf1	0.027746173
61	0x3e2d2fb0	0.16912723
62	0x3d92f2f6	0.07175247
63	0xbdae0f60	-0.08499026
64	0xbd315187	-0.04329064
65	0x3d87757e	0.06614207
66	0xbdd9b04c	-0.10629329
67	0xbce2032e	-0.027589407
68	0x3cf03f02	0.02932692
69	0xbe0b7aa8	-0.13621008
70	0x3c4f3980	0.012647986
71	0xbd89dccf	-0.06731569
72	0x3d8865dc	0.06660053
73	0xbd232784	-0.039832607
74	0x3cff01c7	0.031128777
75	0xbd1834fc	-0.037159905
76	0x3d7badde	0.06144511
77	0xbd2651fd	-0.040605534
78	0xbdaaf5cd	-0.08347664
79	0x3da1ab8d	0.07894049
80	0xbd875aa8	-0.06609088
81	0x3d4f9c05	0.0506859
82	0x3da6b937	0.08140796
83	0xbd10e253	-0.03537209
84	0x3ceb9fb6	0.02876268
85	0xbc79c2f0	-0.015244231
86	0x3d645565	0.0557455
87	0x3d47df42	0.0487969
88	0xbd866b41	-0.06563426
89	0xbdaf2b3a	-0.08553167
90	0xbc7cb5b6	-0.015424183
91	0x3d57dc06	0.052700065
92	0xbc321370	-0.010868892
93	0x3cef83cf	0.029237656
94	0x3d5a462f	0.05328959
95	0x3e058749	0.13039888
96	0xbc9a947b	-0.01886963
97	0xbb2b7e36	-0.0026167757
98	0x3dc20f44	0.09475568
99	0xbda0de94	-0.078549534
100	0xb8f73b11	-0.0001178888
101	0x3d8c5997	0.068530254
102	0xbd444aeb	-0.04792301
103	0xbd04d408	-0.03242877
104	0x3d848913	0.06471457
105	0xbd40108c	-0.04689078
106	0x3cd3002c	0.025756918
107	0xbd8c6d4c	-0.06856784
108	0x3cf166e9	0.029468017
109	0x3caa5fc4	0.020797618
110	0x3db72a6c	0.08943638
111	0x3d8b78d0	0.068101525
112	0x3ddc1c48	0.10747582
113	0xbcc34661	-0.02383727
114	0xbc85a941	-0.016316058
115	0x3d95bd13	0.07311454
116	0xbd11e3da	-0.035617687
117	0xbe0607e4	-0.13088948
118	0x3dd69ec1	0.10479499
119	0xbd3c41f6	-0.045961343
120	0x3d28985a	0.04116092
121	0x3e0c8982	0.1372433
122	0x3d87ebdd	0.06636784
123	0xbd51aad6	-0.051188312
124	0x3d28e7e1	0.041236762
125	0xbd403092	-0.04692132
126	0x3d969d3d	0.073542096
127	0x3cb04d53	0.021521246
128	0x3d7ae916	0.061257444
129	0x3e16983e	0.14706513
130	0xbd9f2dae	-0.077723846
131	0xbc79f859	-0.015256965
132	0xbca23fe4	-0.019805856
133	0x3c9ffe94	0.019530572
134	0xbd313fed	-0.043273855
135	0xbdc28dcf	-0.09499704
136	0x3cb49909	0.02204563
137	0x3d051df7	0.03249928
138	0x3c2b6d5d	0.010463086
139	0x3d1f05b6	0.038823806
140	0x3d4c3f4a	0.049865045
141	0xbd27304d	-0.040817548
142	0xbddb36be	-0.107038006
143	0x3db69e1b	0.08916875
144	0xbc4a0ec2	-0.01233262
145	0x3c1fc324	0.009751115
146	0x3d4ae074	0.04953046
147	0xbd0afa8f	-0.033930358
148	0xbc29de0c	-0.0103678815
149	0x3d08e6fc	0.03342341
150	0x3dab1a18	0.08354586
151	0x3d041dce	0.032254986
152	0x3cfa7d6f	0.03057739
153	0x3d7e5e71	0.062101785
154	0x3e07ff04	0.13280874
155	0xbda77202	-0.08176042
156	0x3bab893d	0.005234866
157	0x3db76d9e	0.08956455
158	0xbd3e2b85	-0.046428222
159	0xbdabc1e2	-0.083865896
160	0x3dd41bab	0.1035684
161	0xbc73f4b5	-0.014889886
162	0xbd4d43d9	-0.050113533
163	0xbd9ac4b2	-0.07557048
164	0xbdb9d83c	-0.090744466
165	0xbb193d2c	-0.0023382409
166	0xbdafab2d	-0.08577571
167	0x3daa7308	0.08322722
168	0x3db8edba	0.09029718
169	0xbc7796ca	-0.0151116345
170	0x3d99e191	0.075137265
171	0x3cd757ac	0.026286922
172	0xbdaa0be1	-0.08303047
173	0xbc8e7e67	-0.017394258
174	0xbdd3bcdc	-0.103387564
175	0x3d5fa9c6	0.054605268
176	0x3d955c50	0.07292998
177	0x3c32acfd	0.010905501
178	0xbd7702b9	-0.06030533
179	0x3ce411e3	0.02784056
180	0xbc3f5b79	-0.011679524
181	0x3d66ee7e	0.056379788
182	0x3da3784b	0.079819284
183	0xbd7cbdda	-0.061704494
184	0xbd605958	-0.054772705
185	0x3d80d9fc	0.06291577
186	0xbdb7dd3d	-0.08977745
187	0xbd900b55	-0.070334114
188	0xbd151bac	-0.036403343
189	0x3d806873	0.06269922
190	0x3c273123	0.010204586
191	0x3d61a603	0.05508996
192	0xbb6cc06f	-0.0036125442
193	0xbd6388b3	-0.05555029
194	0xbc9a0c92	-0.018804822
195	0xbc81e404	-0.015855797
196	0x3c70e61b	0.014703299
197	0xbc3435bf	-0.010999142
198	0x3d5456e4	0.051840678
199	0xba9b9b73	-0.0011871889
200	0xbcfaeecc	-0.030631445
201	0x3c05c516	0.008164665
202	0x3d091ccb	0.033474725
203	0xbc9045f1	-0.017611476
204	0xbda20089	-0.07910258
205	0xbd526b0e	-0.051371627
206	0xbda5145b	-0.08060523
207	0x3d6f06b2	0.058355995
208	0xbd8dc979	-0.069231935
209	0x3ca62b3c	0.020284288
210	0xbb2e7a20	-0.0026623085
211	0xbda63cdb	-0.08117076
212	0x3c6dddf8	0.0145182535
213	0xbcfe6231	-0.03105268
214	0xbc1beecb	-0.009517382
215	0x3c276d35	0.010218908
216	0xbdecf233	-0.11569633
217	0xbd31965e	-0.043356292
218	0xbdc12476	-0.094307825
219	0xbd821565	-0.06351737
220	0x3c6c9017	0.014438651
221	0x3c85a7b6	0.016315322
222	0x3b47f0b6	0.0030508465
223	0x3d554f99	0.052077863
224	0xbcfbb540	-0.030726075
225	0x3d912184	0.07086471
226	0xbc685d05	-0.014182334
227	0x3d182a36	0.03714963
228	0x3dd20eff	0.102567665
229	0xbdac19a5	-0.08403329
230	0xbdc4e091	-0.09613145
231	0x3dd62957	0.10457104
232	0xbdadba43	-0.08482792
233	0xbdc1b241	-0.09457827
234	0xbc7ef3c0	-0.015561044
235	0xbdc082ae	-0.09399925
236	0x3d4e70b4	0.05040045
237	0xbdb47dba	-0.08813043
238	0xbcbb0250	-0.022828251
239	0xbe0385eb	-0.12844054
240	0x3d616cf0	0.05503553
241	0xbd5f4cf8	-0.054516762
242	0xbd40aecb	-0.047041696
243	0x3d87e2f0	0.06635082
244	0x3d0881b7	0.03332683
245	0x3d8ef8e4	0.06981066
246	0xbdebf7ca	-0.115218714
247	0xbd94d4ec	-0.07267174
248	0x3ce57824	0.02801139
249	0xbd73d506	-0.059529327
250	0x3da95b17	0.08269327
251	0x3d78718d	0.060655165
252	0xbb495ea9	-0.0030726588
253	0x3d3f79a5	0.04674687
254	0xbd196465	-0.03744926
255	0xbcda2464	-0.02662868

hash1.bias f4 [64]
0	0x3d5a71fa	0.053331353
1	0xbd8c1193	-0.068392895
2	0x3d66ab77	0.056315865
3	0xbd735d6b	-0.059415262
4	0xbd5cc6d7	-0.053900566
5	0x3e03e066	0.1287857
6	0xbe53de2f	-0.20690225
7	0x3ddc845b	0.10767432
8	0xbe0482f4	-0.1294058
9	0xbde3393e	-0.110949025
10	0x3dfd9fbb	0.12383982
11	0xbb34efff	-0.002760887
12	0x3d7d92f8	0.06190774
13	0xbd8942ab	-0.06702169
14	0x3d55442b	0.052066963
15	0x3bcbe925	0.0062228614
16	0x3d27af65	0.040938754
17	0xbc31abf8	-0.010844223
18	0xbddd5021	-0.10806299
19	0x3df79c58	0.12090367
20	0x3c4a67e7	0.012353874
21	0x3dd67ceb	0.10473045
22	0xbe5367b6	-0.20645031
23	0xbc02774f	-0.007963016
24	0x3d7d5ec6	0.06185796
25	0xbd1be099	-0.03805599
26	0xbd5a5771	-0.053306047
27	0x3cf94d38	0.030432329
28	0x3e2eb140	0.17059803
29	0xbe13a70d	-0.14419194
30	0xbd453f7c	-0.048156247
31	0xbcaa65bf	-0.02080047
32	0x3dad0afa	0.08449359
33	0x3df51fc0	0.119689465
34	0x3d8a5a89	0.067555495
35	0xbda015a5	-0.07816628
36	0xbd78265f	-0.06058347
37	0xbd65045f	-0.05591237
38	0xbe38344a	-0.17988697
39	0x3e31f3a0	0.17378092
40	0xbd034cd8	-0.032055706
41	0xbc8f28be	-0.017475482
42	0xbcf049b7	-0.029332025
43	0x3df2560b	0.11832818
44	0xbd5c994e	-0.05385714
45	0x3c541689	0.012944826
46	0xbd4d85f2	-0.05017657
47	0x3e031c96	0.12803873
48	0x3d38da48	0.045130044
49	0xbd8a0f25	-0.0674117
50	0x3dce33ba	0.1006846
51	0xbc959541	-0.018259646
52	0x3ce5050c	0.027956508
53	0x3c953936	0.018215757
54	0x3d919e83	0.07110312
55	0xbc57abc4	-0.013163511
56	0x3d364ffa	0.044509865
57	0xbe24c380	-0.16090202
58	0x3dd7ceed	0.10537515
59	0x3d8833ee	0.0665053
60	0xbc718702	-0.014741661
61	0xbd347431	-0.04405612
62	0xbdfc6c73	-0.123253725
63	0x3db58d24	0.08864811

fc2.weight f4 [10, 64]
0	0xbe073953	-0.13205461
1	0xbddd9373	-0.10819139
2	0xbd804990	-0.06264031
3	0x3d26a774	0.04068704
4	0x3dd94710	0.10609257
5	0x3dec176d	0.115279056
6	0x3df7d934	0.12101975
7	0xbdeb7a05	-0.11497883
8	0x3d7796c1	0.060446505
9	0xbe50869d	-0.20363851
10	0x3c88ee19	0.016715096
11	0x3e351114	0.17682296
12	0xbd909aef	-0.07060801
13	0x3e803efa	0.25048047
14	0x3d0fda16	0.035120092
15	0x3dcb5b12	0.0992948
16	0x3cecef4b	0.028922698
17	0xbe2f481a	-0.17117348
18	0xbb3367b8	-0.0027375054
19	0x3e15049f	0.14552544
20	0xbe0a351a	-0.13496819
21	0x3dccab64	0.09993628
22	0x3e15aaf8	0.14616
23	0xbe2a9a6d	-0.16660471
24	0xbdfa1b68	-0.122122586
25	0x3da32ac6	0.07967143
26	0x3de710dd	0.11282513
27	0xbd04968f	-0.032370146
28	0xbdd5eb1a	-0.10445233
29	0xbc49a1e3	-0.012306663
30	0xbdc5ae44	-0.09652379
31	0xbdcd873e	-0.10035561
32	0x3e874a99	0.264241
33	0xbdb4effe	-0.088348374
34	0x3d81625c	0.06317589
35	0x3de308d0	0.11085665
36	0x3e38a198	0.18030393
37	0x3d5c9a49	0.053858075
38	0xbd5ba74d	-0.053626347
39	0x3e05210e	0.1300089
40	0xbd07b07b	-0.03312729
41	0x3e75690f	0.23965858
42	0xbe80b36a	-0.25136882
43	0xbd82311e	-0.063570246
44	0x3e7ce3f3	0.2469633
45	0x3e3bdbbd	0.18345542
46	0x3e837496	0.25674886
47	0xbe0830da	-0.13299885
48	0xbe0f5635	-0.13997729
49	0x3dbae54a	0.09125765
50	0xbd17e732	-0.03708572
51	0xbd900f4d	-0.070341684
52	0xbdcc0622	-0.09962107
53	0xbc669180	-0.014072776
54	0xbb306392	-0.0026914817
55	0xbe0b1297	-0.1358131
56	0xbe783673	-0.2423952
57	0x3e56fb46	0.2099429
58	0x3e5dff30	0.21679378
59	0x3e0c6894	0.13711768
60	0x3e02babd	0.12766548
61	0xbcf6c55b	-0.030123403
62	0x3bcaaebe	0.0061853817
63	0x3de659b8	0.11247581
64	0xbe0a1e03	-0.13488011
65	0x3d9845aa	0.07435162
66	0xbe60aa06	-0.21939859
67	0x3e345e50	0.17614102
68	0x3e0a2fb1	0.13494755
69	0xbdd17195	-0.10226742
70	0x3bdec96d	0.006798914
71	0xbe244443	-0.16041665
72	0xbc6d5934	-0.0144866
73	0x3e741166	0.23834762
74	0x3ca8f535	0.020624736
75	0x3d1ea8c5	0.03873517
76	0x3c094706	0.00837875
77	0xbe3142d3	-0.17310648
78	0xbd434fe2	-0.047683604
79	0xbbd1c6fe	-0.0064018955
80	0x3d6d25f4	0.057897523
81	0xbe5613f9	-0.20906056
82	0x3cab5860	0.020916164
83	0xbc59f5b9	-0.013303214
84	0xbe10182f	-0.14071725
85	0xbe5d6d54	-0.21623737
86	0x3e8d5f1c	0.27611625
87	0x3e23445c	0.15944046
88	0x3cd3eebc	0.025870673
89	0xbe4a6dac	-0.19768399
90	0x3e26beaa	0.1628367
91	0xbde6a73e	-0.11262368
92	0x3d02e9ad	0.03196113
93	0x3e348729	0.17629685
94	0xbcd7478c	-0.026279233
95	0x3e9766b4	0.29570544
96	0xbe832490	-0.25613832
97	0x3c15db92	0.009146588
98	0xbe232ac0	-0.15934277
99	0x3da89daa	0.08233197
100	0x3e38305a	0.17987195
101	0xbd08a211	-0.033357684
102	0x3e5dc4e6	0.21657142
103	0xbe169b0c	-0.14707583
104	0xbe4a5a8e	-0.19761106
105	0xbdd498fb	-0.10380741
106	0xbe2615b3	-0.16219215
107	0xbe238a47	-0.15970717
108	0xbe1bfe5c	-0.15233749
109	0x3e35bc7f	0.17747687
110	0xbe00d709	-0.1258203
111	0x3e3a4cc4	0.18193346
112	0xbd528f9b	-0.051406484
113	0x3db65355	0.08902613
114	0xbdc2026f	-0.094731204
115	0x3e374d10	0.17900491
116	0xba6da802	-0.00090658676
117	0xbd2ae10c	-0.041718528
118	0x3cc8e9ab	0.024525484
119	0xbc744c64	-0.014910791
120	0xbdc23da7	-0.094844155
121	0x3db74d64	0.08950308
122	0x3d6a0040	0.057129145
123	0x3cd67cc8	0.026182547
124	0xbe0c9bf5	-0.13731368
125	0x3e3af82e	0.18258736
126	0x3e0385ea	0.12844053
127	0xbe234a07	-0.15946208
128	0x3deae8b5	0.114701666
129	0xbd18fb9e	-0.037349336
130	0x3df0c439	0.117561765
131	0xbd72c5ba	-0.059270598
132	0xbc46a12f	-0.01212339
133	0xbdfe659a	-0.12421723
134	0xbe94f6ef	-0.29094645
135	0x3d99129b	0.07474252
136	0x3db25de2	0.08709313
137	0xbdb0deec	-0.08636269
138	0x3c1c2ed1	0.009532646
139	0x3d876867	0.0661171
140	0x3e271f4e	0.16320536
141	0xbd3302d7	-0.04370388
142	0x3ccb73ff	0.024835585
143	0x3e83afcb	0.25720057
144	0xbd882729	-0.06648094
145	0x3c39a50a	0.011330852
146	0x3e2dd424	0.16975456
147	0xbd9e1b16	-0.0772001
148	0x3e4c6e05	0.19963844
149	0xbd7b1fbf	-0.061309572
150	0xbe45f738	-0.19332588
151	0x3dff07ec	0.12452683
152	0x3e1993b2	0.14997748
153	0xbe44bf2e	-0.19213554
154	0x3d28aaa4	0.04117836
155	0x3e448677	0.1919192
156	0xbe880791	-0.26568273
157	0x3ca299ad	0.019848669
158	0xbe38c931	-0.18045498
159	0xbe035675	-0.1282595
160	0x3e1f86b6	0.15578732
161	0x3d908fd1	0.07058681
162	0xbc668f58	-0.014072262
163	0x3ccee8d4	0.025257505
164	0xbe941088	-0.28918862
165	0x3e1abc1d	0.15110822
166	0xbda2f578	-0.07956976
167	0xbccd796b	-0.02508231
168	0xbe375bee	-0.17906162
169	0x3e701741	0.2344637
170	0xbd532dfb	-0.051557522
171	0x3e1ff8ca	0.15622249
172	0x3e503967	0.20334397
173	0x3e198696	0.14992747
174	0x3cc7b94a	0.024380345
175	0xbda68cec	-0.081323475
176	0xbc8824f2	-0.01661918
177	0xbe1fd66c	-0.15609139
178	0xbe484f40	-0.19561481
179	0x3e065d3d	0.13121505
180	0xbe3421b0	-0.17590976
181	0x3e41156c	0.18855828
182	0xbe8f8120	-0.28028202
183	0xbd2d9cef	-0.04238599
184	0x3dfbae9f	0.12289166
185	0x3c20f96e	0.009825094
186	0x3db058f5	0.08610717
187	0x3e08d6e8	0.1336323
188	0x3daf32ee	0.08554636
189	0xbe3ea1fe	-0.18616483
190	0x3dcecb29	0.100973435
191	0xbcc4fcf5	-0.0240464
192	0xbe09d9f4	-0.13462049
193	0xbc7b3d1a	-0.015334392
194	0xbd80a1b2	-0.06280841
195	0xbcd10efe	-0.025519844
196	0x3ac3ad36	0.001492894
197	0x3dfdbc74	0.1238946
198	0xbd0a7c60	-0.03381002
199	0x3e60d056	0.21954474
200	0xbe077e29	-0.1323172
201	0x3cfc7636	0.030818086
202	0xbe3cfe1f	-0.18456315
203	0xbe215f35	-0.15758975
204	0x3ca5757e	0.020197626
205	0x3d2f830d	0.04284959
206	0xbe19f945	-0.15036495
207	0xbe109d93	-0.1412261
208	0xbe29e7f6	-0.16592392
209	0x3d52b00d	0.051437426
210	0x3c471660	0.012151331
211	0xbd402216	-0.046907507
212	0xbb61d92b	-0.0034461718
213	0x3cba6e4a	0.022757668
214	0xbe33e710	-0.17568612
215	0x3dce4d86	0.1007338
216	0xbce53658	-0.027980015
217	0x3d4dc948	0.050240785
218	0xbd7b81e0	-0.061403155
219	0x3c90dd68	0.0176837
220	0x3c9c0979	0.019047486
221	0xbe01eaf0	-0.12687278
222	0x3d99ce25	0.07510022
223	0xbdc09e4f	-0.09405195
224	0x3c6a1bc7	0.014288849
225	0x3dc1b8c5	0.0945907
226	0xbe582cd4	-0.2111085
227	0xbd9e74b9	-0.07737107
228	0xbe747773	-0.23873691
229	0xbdc5502a	-0.09634431
230	0xbcd3b2d5	-0.02584211
231	0xbe39e21f	-0.18152665
232	0x3e0f4d91	0.13994433
233	0xbcef7e4e	-0.029235031
234	0x3dec19ae	0.115283355
235	0x3dc91198	0.09817809
236	0x3cb8ed5b	0.022574117
237	0x3ccc741a	0.024957705
238	0x3dc8cd7e	0.098048195
239	0xbe31e34a	-0.1737186
240	0xbd4cebcc	-0.05002956
241	0x3e2f0114	0.17090255
242	0x3ce8683f	0.02837002
243	0x3c9c2178	0.019058928
244	0x3c107f4f	0.008819415
245	0xbc661932	-0.014044093
246	0x3e151b33	0.14561157
247	0x3d9e3eb5	0.07726804
248	0xbd126b93	-0.035747122
249	0xbe05496e	-0.13016292
250	0x3bc39a43	0.005969317
251	0xbc246f52	-0.010036306
252	0x3e421179	0.18951978
253	0xbd983442	-0.074318424
254	0x3d8d7122	0.06906344
255	0xbe45d521	-0.19319583

fc2.bias f4 [10]
0	0xbe5c86e5	-0.21535833
1	0xbe6fbf57	-0.23412834
2	0x3d907090	0.070527196
3	0xbd1f7fcd	-0.03894024
4	0x3ec76598	0.38944697
5	0xbe2c604d	-0.16833611
6	0x3e9e4d8b	0.30918536
7	0xbe1526ab	-0.14565532
8	0x3d6faedb	0.058516365
9	0xbe1f95ce	-0.1558449
