2.NeuralHashing/cifar_net.pth (torch, 241300 bytes, 10 tensors)

conv1.weight f4 [6, 3, 5, 5]
000000 cf 40 94 bd 1e 2d aa bd 81 de 0e be 7a 71 12 be
       -0.07238924 -0.08309387 -0.13952066 -0.143011
000010 63 d8 17 be e6 f2 34 be 49 88 27 be 58 50 a4 bd
       -0.14828639 -0.17670783 -0.16360582 -0.08023137
000020 aa 89 f3 bc ca d4 28 be 42 13 89 be 64 75 84 be
       -0.02972873 -0.16487423 -0.26772505 -0.25870812
000030 95 29 b5 be ab 08 8a be fa 2f 5f be 93 45 03 be
       -0.35383287 -0.26959738 -0.21795645 -0.12819509
000040 4f 1a 07 be ca 4d 06 be a8 cd b2 3c be 5c 7c bc
       -0.1319363 -0.13115612 0.02182658 -0.015402971
000050 ca 6a f1 3c 3c 47 32 b6 33 a7 96 3d ac 9b f4 3c
       0.029469866 -2.656553e-06 0.073561095 0.029859386
000060 b4 b5 72 3d 5a 52 1b 3d bd 30 2a 3d 6d 21 ba 3d
       0.059255317 0.037920333 0.041550387 0.09088407
000070 9a f2 03 bc 5d 31 cc 3d c6 e3 27 3d bd eb 00 3e
       -0.008053446 0.09970353 0.040988706 0.12589927
000080 98 dd c1 3c 68 f3 0f 3d ae dc d0 3d 6d 8e 78 bd
       0.023665234 0.03514424 0.10198341 -0.060682703
000090 41 26 fa bc e2 06 09 be 23 a5 fa bd 99 12 22 be
       -0.030535819 -0.13381532 -0.122385286 -0.15827407
0000a0 77 fd 80 bd 30 fa 23 38 7c d5 35 3d 4d 11 ea 3d
       -0.062983446 3.9095234e-05 0.044393048 0.11429081
0000b0 a9 7c 82 3d ee 5b a6 3c 04 73 44 bd 06 ec aa bc
       0.06371433 0.020307507 -0.04796125 -0.020864498
0000c0 0f 27 24 be 20 ec 1b be fa cb 04 3e d0 6f 92 3d
       -0.16030525 -0.15226793 0.12968436 0.07150233
0000d0 fd 2c 20 3e e5 94 26 3e 63 51 29 3d b4 ce 41 3e
       0.15642162 0.16267736 0.041337382 0.18926507
0000e0 28 09 3e 3e 27 25 18 3e 69 a9 20 3e df a5 1c 3e
       0.1855818 0.14857922 0.15689625 0.1529765
0000f0 aa 97 f3 3d 13 9b 85 3d fb b6 25 3e 7d 66 dc 3d
       0.11894162 0.06523719 0.16183083 0.107617356
000100 a5 e0 5e 3c eb bf 51 3e d1 e0 8a 3e b8 77 50 3e
       0.013603364 0.20483367 0.27124646 0.20358169
000110 6b 9f 1c 3e 5c f8 40 3e 70 a2 9d 3b 63 06 df bc
       0.15295188 0.18844742 0.004810624 -0.027224725
000120 7d 9a 56 3d f8 60 59 bd ed 13 c3 bb a7 b8 af 3d
       0.052393425 -0.053070992 -0.005953303 0.085801415
000130 c5 83 4b 3d 4b a3 ad 3d 87 cc 10 3c 49 34 f2 3d
       0.049686212 0.08478411 0.008837826 0.11826379
000140 35 76 3f 3e 80 f4 b9 3e 2a d3 83 3e 3d 7e 33 3e
       0.18697436 0.3631935 0.25747043 0.17528625
000150 50 83 08 3e f6 1a 14 3e ef 21 ac 3e e6 c2 d6 3e
       0.13331342 0.1446341 0.3361964 0.4194557
000160 59 56 a0 3e 24 5c 3a 3e 9e 48 22 be 38 e0 83 be
       0.31315878 0.18199211 -0.15848014 -0.25757003
000170 46 ea d5 bd b5 74 16 be fb bb 40 be 67 4c d5 bd
       -0.10445075 -0.14692958 -0.18821709 -0.10414963
000180 01 16 a7 be 56 85 50 be 34 f3 87 be a5 b9 a4 bd
       -0.32633975 -0.20363364 -0.26552737 -0.080432214
000190 9e a5 a9 3d 64 64 23 be 96 5b 99 bc 23 1e 08 be
       0.08283542 -0.15956265 -0.01872043 -0.13292746
0001a0 e2 79 6d 3b 9a 18 34 3e d6 46 7a 3d 29 c8 7f 3e
       0.0036235978 0.1758751 0.06110271 0.24978699
0001b0 bd fe 6a bd 5c 18 07 be a4 da c6 3d de b6 b5 3c
       -0.057371844 -0.13192886 0.09709671 0.022181924
0001c0 d5 75 08 3b 8e af 38 3c 45 6d 6f 3c 98 8a 49 be
       0.0020822186 0.011272324 0.014613454 -0.19681776
0001d0 ae bb e7 bd e2 1e b3 be 51 22 9f be b4 89 1c be
       -0.11315094 -0.349845 -0.3108087 -0.15286905
0001e0 87 48 ae bd 21 a1 7e be d9 43 92 be 18 34 7d be
       -0.08509927 -0.24866153 -0.2856739 -0.24726903
0001f0 98 f9 39 3d bb ac 64 bd 41 29 59 bd 38 3f 97 bd
       0.045404047 -0.05582879 -0.05301786 -0.07385105
000200 50 0a a8 bd 6e 0d bd bd 5e 89 8c 3d a6 91 ca bc
       -0.08205092 -0.09231077 0.06862138 -0.024727654
000210 50 df 14 3e 72 4a f0 3d 4c e9 aa bd 1d 2a 2a 3e
       0.14538312 0.11732949 -0.08345279 0.16617627
000220 a5 22 a3 3d fb 67 6b 3d 8a 2e 54 ba e6 6e 21 3e
       0.07965592 0.05747221 -0.0008094093 0.1576496
000230 88 62 18 3c 15 b8 db bd a7 04 f0 bd 42 bc 21 be
       0.009300835 -0.1072847 -0.11719637 -0.15794471
000240 85 3d 02 bd b2 ce 79 3d 3e 21 fe 3c 08 84 15 3e
       -0.03179695 0.060988136 0.03102171 0.14601147
000250 19 98 91 3d 66 c6 8e 3d cd 89 71 3e 05 cf 4b 3e
       0.071090885 0.06971435 0.23587723 0.1990319
000260 99 4b ee 3c d4 2b 07 3d 8a fe af bc b9 a0 b2 3e
       0.029088782 0.033000782 -0.021483678 0.34888247
000270 92 49 88 3e 05 3f 87 bd 21 ae 91 be 45 61 67 3d
       0.2661863 -0.06603817 -0.28453162 0.056489248
000280 e0 30 a4 3e 57 96 1c 3e d4 22 52 be 6f 4a 9e be
       0.3206854 0.15291725 -0.20521098 -0.30916163
000290 44 ee 59 3d 21 62 58 3e ef 6e d2 3d e7 5b 05 be
       0.053205743 0.21131183 0.10275065 -0.13023339
0002a0 c0 33 22 be a4 92 ae 3d f2 b5 78 bd e5 fe df bd
       -0.15840054 0.08524063 -0.06072039 -0.10937289
0002b0 a4 5f 40 bd 36 e8 6b ba ff 1c 45 3e 64 2c 0b 3e
       -0.04696621 -0.00089991407 0.19249342 0.13591152
0002c0 a7 cb f8 bc 18 89 bc bd ee 38 92 be 5a f6 31 be
       -0.030370547 -0.09205836 -0.2855906 -0.17379132
0002d0 be 2e 14 3e 30 d7 2e 3e 57 3d 8e be db 5d b7 be
       0.14470956 0.17074275 -0.27781174 -0.35813794
0002e0 3e 36 cd bd af 25 2e 3e af e0 b8 3c 55 03 86 be
       -0.100201115 0.17006563 0.022568075 -0.26174417
0002f0 d6 c4 ce be f7 25 c3 bc dd af e2 3d f0 36 72 bd
       -0.4038455 -0.023821814 0.110686995 -0.059134424
000300 69 e5 95 be 1f 69 3c be e4 ae b7 3d 0c be b3 bd
       -0.2927659 -0.18399476 0.089689046 -0.08776483
000310 f5 23 10 be b1 d0 50 be b7 b6 26 be 74 c9 02 3e
       -0.14076217 -0.2039211 -0.16280638 0.12772161
000320 de 79 13 3e f8 41 d7 3d 2d 1c 0f be d9 10 70 be
       0.14401957 0.105106294 -0.13975592 -0.23443927
000330 15 b8 a7 3c f2 75 9c 3e e6 a0 50 3e 04 f4 36 be
       0.02047352 0.30558735 0.20373878 -0.17866522
000340 94 3f 3c be a2 a8 5c bd a0 22 d0 3e 36 4d 4c 3e
       -0.18383628 -0.05387176 0.40651417 0.19951329
000350 16 e5 71 be 50 73 9d be 62 f8 33 3e 86 50 01 3e
       -0.23622546 -0.3075204 0.1757522 0.12628374
000360 35 b7 05 3d 54 5d 50 be 6b 00 b2 bd 36 9c 16 3e
       0.032645423 -0.20348102 -0.08691486 0.14708027
000370 76 ac 30 3e e0 43 a5 bc 57 7a 80 bd ae 54 71 3d
       0.17253289 -0.020173967 -0.062733345 0.058918647
000380 1c c3 6e 3e 6e 32 67 bd 93 4c 81 3d 00 21 f7 bc
       0.23316616 -0.056444578 0.063134335 -0.030167103
000390 2a 1c f2 ba 33 0c 17 bd 9d 7b 52 bd d4 ba 37 3c
       -0.0018471528 -0.03687687 -0.051387418 0.011213977
0003a0 13 73 ab bd ed 4a 78 3d ee 67 13 3e fe c8 3f 3d
       -0.08371558 0.06061833 0.14395115 0.04682254
0003b0 b0 e0 5a 3d df 64 0b 3e dc 2b 0e be f7 25 0f bd
       0.053436935 0.13612698 -0.13883919 -0.034948315
0003c0 2c 29 09 3c cb 69 43 bc 94 32 31 be a3 c5 a6 bd
       0.008371633 -0.0119270785 -0.1730445 -0.08143165
0003d0 77 62 cf bd c5 a4 2f 3c 90 10 25 be a7 34 32 be
       -0.101262026 0.010720436 -0.161196 -0.17402898
0003e0 d9 2a a1 3d 1b d4 11 be 51 9d c7 3c 82 6a ae 3c
       0.07869501 -0.14241068 0.024367006 0.021291021
0003f0 b6 78 40 bc b8 68 d1 3c d1 72 0a 3e ea d0 a2 3d
       -0.01174753 0.02556263 0.13520361 0.079500034

conv1.bias f4 [6]
000000 b1 99 13 3f d2 df 4a be b9 36 5e 3e 10 3d 62 3e
       0.5765639 -0.19811943 0.21700563 0.22093606
000010 c0 e1 a1 3e 88 0a 1f 3e
       0.31617546 0.15531361

conv2.weight f4 [16, 6, 5, 5]
000000 e1 23 c0 3c 2d af b4 bc a0 61 1d 3c 19 6a 86 bd
       0.023454608 -0.022056187 0.009605795 -0.06563205
000010 ab 53 ae bd 1b 92 96 3d 3b f6 0a 3c 14 e6 5d bc
       -0.08512052 0.07352086 0.0084815575 -0.013543624
000020 fd 42 2a bd d8 19 d2 bd 4b 75 8e 3c 50 3a eb 3c
       -0.04156779 -0.102588356 0.017389914 0.028714329
000030 7e 9f 40 bd 55 9d c3 bd d0 ba 2f 3d 6f b8 05 3e
       -0.047027104 -0.09551493 0.042902768 0.13058637
000040 2d 67 96 3d 36 9b d9 3c 2d 06 f3 bd 29 4c c5 bc
       0.07343898 0.026563268 -0.11866412 -0.024084168
000050 ca 9a 00 3e da 11 75 bc 30 24 00 bd ee 7d d5 3c
       0.12559047 -0.014957869 -0.03128451 0.026061025
000060 c6 52 5a bd 47 6e 5c 3c 1a 10 56 bd ab e5 ac bc
       -0.053301595 0.013454027 -0.05226145 -0.021105608
000070 c4 41 74 3c 0d 2b 59 3d 20 4d 37 bd 2d 2e 8e bd
       0.014908258 0.053019572 -0.044751287 -0.06942401
000080 e5 2e 93 bc 5e 38 17 3b ac 39 62 bc 8f 8b 0c be
       -0.017966697 0.002307437 -0.013807695 -0.13725112
000090 d4 d8 5a bd 6d 52 6a bc 61 b4 f5 bd 47 c1 05 be
       -0.05342944 -0.014301878 -0.11997295 -0.1306201
0000a0 03 6d 0f be 6a 14 ad bd c8 a4 3a bd da b0 13 be
       -0.14006428 -0.08451159 -0.045567304 -0.14422932
0000b0 f0 04 91 bd 59 38 81 bd e0 cc c9 bd b5 0c 32 bd
       -0.0708102 -0.063095756 -0.0985353 -0.04346915
0000c0 95 9b db bd 81 ce f6 3c 63 27 f9 bd 3e 94 9d 3c
       -0.10723034 0.030127766 -0.121657155 0.019235726
0000d0 1b 3a 37 3e f4 79 62 3e e0 27 87 3b cc 01 70 bd
       0.17893259 0.22116834 0.0041246265 -0.058595464
0000e0 19 b9 e4 bd 65 13 d8 3d 39 47 92 3e 84 e1 ae 3d
       -0.11168117 0.10550574 0.28569964 0.085391074
0000f0 88 83 0f bd 3f e8 be bd 14 1c 2f bd 6f d2 55 3e
       -0.035037547 -0.09321641 -0.042751387 0.20881055
000100 9d 8e 86 3e 9f 6d da bd 65 d1 d0 bd 43 94 f4 bc
       0.2628068 -0.1066544 -0.10196189 -0.029855853
000110 5c 3b 92 3d d5 dc 5f 3e 13 20 d0 bd 19 f1 1e be
       0.07140228 0.21861584 -0.10162368 -0.15521659
000120 35 f0 df bc fb 07 52 3d b2 ef 06 3e ea 60 a2 bc
       -0.02733622 0.051277142 0.13177374 -0.019821603
000130 5a af 5d 3d 3c 31 0d be a1 d1 cc bb b8 d3 2f 3c
       0.054122306 -0.13788313 -0.0062505757 0.01073163
000140 7a 59 05 3d 43 23 05 bd b8 d9 7a bd 96 14 ac bd
       0.032556035 -0.03250433 -0.06124279 -0.08402364
000150 a6 bf d6 bd 7f 72 86 bd 07 93 8f 3c 00 a5 57 bd
       -0.10485773 -0.06564807 0.017526163 -0.05264759
000160 23 ea a7 bd 82 04 23 bc d9 49 87 3d 79 30 9d 3d
       -0.08198955 -0.009949805 0.06605882 0.07675261
000170 d1 0b 43 3d 46 2d a4 bc 72 50 4f 3c 02 a7 bf 3d
       0.04761869 -0.02004112 0.012653457 0.09358026
000180 4a ee 8a 3c ad a8 83 3d 53 39 f6 3c b3 ea 6a bd
       0.016959328 0.06428657 0.030056631 -0.057352733
000190 4c c0 c2 3c c7 64 a5 bb 93 90 65 bd 80 8b bc bd
       0.023773335 -0.005047414 -0.05604608 -0.09206295
0001a0 3f 4c ee bd 6e 79 3c 3c b4 03 3c 3d 40 71 04 bd
       -0.116356365 0.0115035605 0.04590197 -0.032334566
0001b0 de 52 1d be 44 93 0a be e2 46 1e 3d df 22 bd 3d
       -0.15363643 -0.1353274 0.038641818 0.09235167
0001c0 dc 5a e5 3d ca be 0c 3d 87 dc d0 bd fb 53 af bd
       0.11198971 0.034361638 -0.10198312 -0.0856094
0001d0 c1 38 c0 3d 86 a7 e4 3b 49 c5 98 3c a3 c7 05 be
       0.09385825 0.006977978 0.01864876 -0.13064437
0001e0 27 a7 c1 3d 7c 71 e4 3d d4 90 86 3c 57 f2 84 3d
       0.0945571 0.11154458 0.016426481 0.06491535
0001f0 33 87 26 bd ce a9 2d bd 80 52 86 3c f1 84 8b 3d
       -0.04065628 -0.042398266 0.016396761 0.06812466
000200 e2 0f c9 3d 34 3b ae bc df de 22 be 69 4c 44 bd
       0.098174825 -0.021268465 -0.15905331 -0.047924433
000210 8d a2 92 3b cd cf b5 3d 55 39 4d 3d a1 02 39 bd
       0.004474944 0.088775255 0.050103504 -0.045168523
000220 6b cf b4 bd 56 b2 c7 bd 25 41 d5 3d 30 ab 6c 3d
       -0.08828624 -0.09750812 0.10412816 0.057780445
000230 6e f0 74 bd a6 8c de bd b4 17 cd bd 44 21 2d 3c
       -0.059799604 -0.1086667 -0.10014287 0.010567013
000240 38 12 a7 3d a1 a2 81 bd 22 cc 0e bc 74 8e bb bd
       0.08157772 -0.06329847 -0.008715661 -0.0915803
000250 b1 00 55 3c 25 3a 5b bd 82 ea b5 bc 46 dd 6e bd
       0.013000653 -0.053522248 -0.022206549 -0.05831649
000260 da b2 fe ba 79 ba be 3d be d9 1b 3e 0c 2e ce 3d
       -0.0019431964 0.093129106 0.15219781 0.100673765
000270 9e 75 ab 3d ec 16 14 3e 5d e6 2d 3e 4b a7 1d 3e
       0.08372043 0.14461869 0.16982408 0.15395848
000280 27 24 19 3e 01 b4 06 3d 0b 2a f0 3d c0 39 98 3d
       0.14955197 0.03288651 0.11726769 0.0743289
000290 df a0 70 3d 01 88 21 3e d3 cb 12 3e 8b 28 1c 3c
       0.05874717 0.15774538 0.14335565 0.009531151
0002a0 93 c5 b3 3d 67 84 87 3d 3b eb 3f 3e 83 3c 2b 3d
       0.08777919 0.066170506 0.18742077 0.041805755
0002b0 c0 07 89 3c 9a dc f0 3c 3b d6 12 3d f5 f2 01 3d
       0.016727328 0.029402066 0.035848837 0.031725843
0002c0 ca b6 15 3d fe 29 04 bd 05 4e 35 3d e2 09 be 3b
       0.036551274 -0.03226661 0.04426386 0.005799518
0002d0 11 82 2d 3d 13 fc a3 3c 04 2a b1 bd 32 73 ba bd
       0.04236037 0.02001766 -0.08650592 -0.09104003
0002e0 89 5d a0 bd 65 5f 5e 3d 66 10 f1 bc 72 47 ad bd
       -0.078303404 0.054290194 -0.029426765 -0.08460893
0002f0 91 f6 c3 bc 3f 2b 8d 3b 0a f5 91 bc d1 66 5a bc
       -0.023921283 0.004308134 -0.017817039 -0.013330177
000300 2b 3c b9 bc 87 a1 99 bc d0 8a 13 bd 4d 9b 35 3c
       -0.022611698 -0.01875378 -0.036021054 0.01108439
000310 aa b1 18 bd 20 52 b8 3d 62 49 19 bd b9 af eb 3b
       -0.03727881 0.09000039 -0.0374235 0.0071925786
000320 94 6c 9d bc e0 37 1a bb 78 01 ca bd dc 6e 13 be
       -0.019216813 -0.002353184 -0.098635614 -0.14397758
000330 59 ad ef bd 2c de 10 bc 57 78 47 bd a8 78 df bd
       -0.11702985 -0.008842032 -0.04869875 -0.10911685
000340 73 75 10 be a0 50 c3 bd 6e 13 b5 bc 56 31 db 3c
       -0.14107303 -0.095368624 -0.022103991 0.026756924
000350 7d be 60 bd d0 25 16 be 8c a3 a0 bd 43 d9 22 bb
       -0.054869164 -0.14662862 -0.07843694 -0.0024848736
000360 7c fc 3c 3d d1 e6 27 3d a8 34 a4 bd b5 59 fe bd
       0.046139225 0.040991608 -0.08017856 -0.12419454
000370 ec d1 de 3d 3c 0a b8 3d cd ad fc 3d e7 19 b3 bc
       0.10879883 0.08986327 0.12337837 -0.021862937
000380 a6 d0 c1 bd 66 29 07 bd a0 3c b1 bd ed 9d 16 3d
       -0.09463625 -0.032998465 -0.086541414 0.036771704
000390 30 fb 2d 3d f6 c5 fb bc 2c c2 77 3c ac f5 67 bd
       0.04247588 -0.030734044 0.015121978 -0.056630775
0003a0 3e 72 2b 3d 7b 00 c7 3c bf dd 5b 3d 44 3a 3f bd
       0.041856997 0.024292221 0.05367827 -0.046686426
0003b0 3f 07 bb bd 98 08 e1 3c 92 3d 4d 3d 08 d5 32 bc
       -0.091322415 0.027469918 0.050107546 -0.010915048
0003c0 80 37 ce bd 01 bb 92 bd d6 f4 40 bc 93 a7 10 bb
       -0.100691795 -0.071645744 -0.011777123 -0.0022072538
0003d0 c0 5f 52 3c 0f 76 ba bb 3e 97 d0 ba eb ea ad 3c
       0.012840211 -0.005690343 -0.0015914214 0.021230182
0003e0 5c bd 0d 3d 45 99 06 3d e1 53 18 be 75 6a 34 bc
       0.034604415 0.032861013 -0.14875747 -0.011011709
0003f0 cc bf 84 bc 64 39 15 be f2 85 be bd 1b b5 53 bc
       -0.016204737 -0.14572674 -0.09302892 -0.012921597

conv2.bias f4 [16]
000000 8a 39 de 3d 1d 5b 74 3e b7 03 25 3e 14 f0 e3 be
       0.108508185 0.23862882 0.16114698 -0.44519103
000010 50 e2 9b be 3f 32 fd ba 38 d2 61 be df 02 0a 3d
       -0.304461 -0.0019317343 -0.22052848 0.033694144
000020 ff 75 ad 3e d6 7b ca 3e f9 38 68 bd f4 b7 e3 3d
       0.33879086 0.39547604 -0.05669496 0.11119071
000030 c2 bf 03 3e 2f b8 12 3f 22 2b d0 3c 76 6e 8d be
       0.12866119 0.5731229 0.025411192 -0.27623338

fc1.weight f4 [120, 400]
000000 35 b2 6b 3c 46 ea 5c bd 09 01 66 3c 21 92 47 bd
       0.01438575 -0.053934358 0.014038333 -0.048723344
000010 43 db 15 be 79 e9 4c bd 36 c5 0a 3b 83 a2 bd ba
       -0.14634423 -0.050027344 0.0021174676 -0.0014467988
000020 ad fc 9f bb 3f 65 ca bc 17 03 82 bc 85 8c d2 bc
       -0.004882416 -0.024706481 -0.015870614 -0.02570177
000030 47 94 28 bd 53 0d 0d 3d e3 00 a4 3b 3a 7b d2 3c
       -0.041157033 0.034436535 0.0050049885 0.025693525
000040 c7 11 49 3d 9e 2f c8 bc d2 9c 8d 3c 6c 11 b7 bc
       0.04908922 -0.024436768 0.017286692 -0.022347175
000050 94 74 3c 3d 3b a0 af bc f0 41 d5 bc e3 ad 30 bd
       0.046009615 -0.021438709 -0.026032418 -0.04313458
000060 78 e5 a6 bc 77 65 41 bd b0 be cf 3b 1f b6 6f bd
       -0.020373091 -0.047215905 0.0063398704 -0.058523294
000070 85 b0 87 bd 15 77 52 3d 15 10 a3 3c ad 43 2b 3d
       -0.06625465 0.051383097 0.01990513 0.041812588
000080 41 3b 13 bc 0f a6 65 bc 8b ab e1 3c d7 b6 4a 3d
       -0.008986295 -0.014016642 0.027547618 0.049490776
000090 37 22 62 3d 38 1e 1f 3c df 97 44 3d ae c4 86 3c
       0.05520841 0.009711795 0.047996398 0.016451206
0000a0 db b2 82 bc 94 97 da 3c 4f 3c 2c 3d b0 c2 55 bd
       -0.015954426 0.026683606 0.042049702 -0.05218762
0000b0 61 26 c6 bc 6f 05 83 3d c3 24 5e bd 12 3e 6f bb
       -0.024188222 0.06397521 -0.054234277 -0.0036505503
0000c0 89 69 15 3d 02 7e 3b 3d 77 3e 10 bd 86 fa ec bc
       0.0364776 0.045774467 -0.03521582 -0.028928053
0000d0 27 fd 80 3d 17 23 01 bd 6f f4 7f 3c 54 dc c5 bc
       0.06298285 -0.031527605 0.015622242 -0.024152912
0000e0 e2 8c 79 bd b8 5e cd 3c 63 9c ff 3c 9a cb 26 3c
       -0.060925372 0.02506958 0.0312025 0.010180378
0000f0 1b f0 61 bc f3 49 0a bd ef a9 c7 3c 49 49 0b 3d
       -0.013790156 -0.03376193 0.024373023 0.034005437
000100 b1 8d 9d 3c 92 11 25 bd f2 e5 99 bc 0e 12 ad 3c
       0.019232603 -0.04029996 -0.018786404 0.021126773
000110 3a cd de 3c e9 bb 28 3d 90 ce 36 3c 5b f9 69 3d
       0.027197469 0.04119483 0.011157647 0.05712257
000120 71 ac 79 3d b0 f9 8b 3d 03 7c 3f 3d aa 8f 81 bd
       0.06095547 0.068347335 0.046749126 -0.0632623
000130 2a 60 10 3d 78 94 95 bd 86 c4 6c bc b4 20 1d ba
       0.03524796 -0.07303709 -0.014451152 -0.0005993948
000140 a9 c2 18 3d 7d 93 5e 3d c1 cf d6 bc 9e 54 49 3c
       0.037295017 0.054339875 -0.026222112 0.012288241
000150 8b 54 86 bb 72 54 df bc a4 fb 30 3a ce ea 41 bb
       -0.004099434 -0.027261946 0.00067513646 -0.0029589417
000160 6f 87 a2 bb 46 a6 a7 39 6b 85 a5 bc 88 47 dc 3c
       -0.0049599926 0.00031976606 -0.02020522 0.026889578
000170 c1 51 b4 3c 17 28 29 3d bd a2 66 bd e7 aa 7f bc
       0.02201164 0.041298 -0.056307543 -0.015604711
000180 f6 f1 0c bd 2b 34 99 bd 08 de 8b 3c e7 12 ae bc
       -0.03441044 -0.074806534 0.017073646 -0.021249248
000190 99 87 a9 3a ed ff 04 bd 1f bf 12 bd 7c 6d aa bd
       0.0012934088 -0.032470632 -0.0358268 -0.08321664
0001a0 f1 54 3d 3d 5c 32 91 3d 47 49 03 bd 99 d2 8f bc
       0.046223585 0.070896834 -0.032052305 -0.017556475
0001b0 1d 2b 44 3a 14 99 fd 3c 34 2f 5f 3d 4f e3 07 3d
       0.0007483231 0.030956782 0.054488376 0.033175763
0001c0 59 2e 20 3d 41 2a 42 bc 07 19 cf 3b 53 ba e1 3d
       0.0391067 -0.011850894 0.006320122 0.11021867
0001d0 f3 c6 63 3d 51 07 ed 3c c0 3d 59 3d a4 60 f2 3d
       0.055609655 0.028934153 0.053037405 0.11834839
0001e0 87 99 1e 3d cc a7 4e 3d b4 fa 80 3c 31 7a 1c bd
       0.038720634 0.050452992 0.015744545 -0.03820247
0001f0 23 80 ec bc 8f 11 37 bc df 55 8c bd 97 61 9e 3b
       -0.028869694 -0.01117362 -0.06852316 0.004833411
000200 63 30 75 bc 9a b0 6d bd 4e c9 fb 3c 02 3f a4 3c
       -0.01496515 -0.05802975 0.030735638 0.020049576
000210 ed 52 72 bd 87 a5 fe bb bf 61 85 bc 28 98 2b bc
       -0.059161115 -0.0077711972 -0.01628196 -0.010473289
000220 9f 36 39 bd ac 0e cb 3c a9 4d f0 bb e0 e6 99 bc
       -0.045218106 0.02478727 -0.0073334766 -0.018786848
000230 25 02 db ba 1a 04 1c 3d d4 0e 29 bd ef c5 12 bd
       -0.0016709013 0.03808985 -0.041273907 -0.035833295
000240 f7 e4 7e bd 60 1b e3 bc cf 71 d6 bb a6 99 26 ba
       -0.062230077 -0.027723014 -0.0065443288 -0.0006355293
000250 bf f2 c3 bc 4d a3 ca bc cb ef a4 3b 41 a8 8b bc
       -0.023919461 -0.024736071 0.0050334684 -0.017048003
000260 db 98 32 3d 2a 20 37 3c f5 c0 fd bc 82 19 00 3d
       0.043602806 0.011177102 -0.030975798 0.031274326
000270 83 53 16 bd 5e 6f 09 bd 26 a6 a1 3c 92 ab 1f 3d
       -0.036700737 -0.033553474 0.019732546 0.03898198
000280 4b 21 21 bd 8a 90 28 bc 85 b1 3e bd c3 9d 66 3c
       -0.03933839 -0.010288367 -0.046556015 0.014075699
000290 fb 1b 0e bd 7c 4b 1b bd fd 2a a5 bd 2a 2d 40 bb
       -0.034694653 -0.037913784 -0.0806484 -0.0029323795
0002a0 c2 70 fb 3a f4 a2 06 bc ad 5c c2 bd 1c 5d 9f bd
       0.0019183385 -0.008217562 -0.09490333 -0.07781431
0002b0 dd 86 32 bd d7 ca 89 b9 a8 47 84 bd f1 40 e0 3c
       -0.043585647 -0.00026281804 -0.0645898 0.027374716
0002c0 26 4a f9 3b e5 b2 92 bc 08 a0 6f 3c 62 26 a2 3c
       0.007607716 -0.01790757 0.014625557 0.019793693
0002d0 86 96 c7 3c 3a ca 86 3c 3c a1 76 bc de 58 d2 bb
       0.024363767 0.016453851 -0.01505309 -0.006419285
0002e0 88 a6 dd 3c 5f 47 8a 3d e5 b0 20 3d ec 8e b8 bc
       0.027056947 0.06751894 0.0392312 -0.022529088
0002f0 99 ae 4b 3d 11 c6 c5 3c 43 07 8b bb 69 97 90 3c
       0.049727056 0.024142297 -0.004242809 0.017650323
000300 04 5a 03 3d af ad d0 bb 8e f9 04 bb c6 0f fd 3c
       0.032068267 -0.006368361 -0.0020290348 0.03089131
000310 e3 ae 66 3d 46 2f 7d 3c 58 79 8c 3b 3e d3 1d 3d
       0.05631913 0.015453165 0.0042869262 0.038531534
000320 e0 3a 44 bd 6e 2e 26 bd 19 87 c8 bc df 38 35 bd
       -0.04790771 -0.040571623 -0.024478482 -0.04424369
000330 5e c5 8e bd 57 4b 53 bd da 92 48 bc 04 dc ce 3c
       -0.069712386 -0.05158552 -0.012242043 0.025251396
000340 43 bd af bc 10 b5 b5 bc 15 4f c0 bc 2b 54 3b 3c
       -0.021452552 -0.022181064 -0.02347521 0.011433641
000350 22 ac 01 bd 82 06 4e bb 73 d9 04 bd 4e 7a 95 3b
       -0.0316583 -0.0031436984 -0.03243394 0.004561699
000360 5d 08 cd bb 35 bf d5 3c f5 ce e1 3c 6d 28 bf bc
       -0.0062571005 0.026092151 0.027564505 -0.023334706
000370 04 8d 67 bd 97 13 98 bc 50 ec 2a bd d3 a8 84 3b
       -0.056530967 -0.018564029 -0.04172927 0.0040484457
000380 dd 02 ba bb 81 26 3f bd 63 43 c2 bd 7c c1 8e bd
       -0.005676611 -0.04666758 -0.09485509 -0.06970498
000390 76 3f 30 bd 1e 27 9d bc e6 61 27 3b 4a df 71 bb
       -0.04302927 -0.019183692 0.002554053 -0.0036906772
0003a0 c6 1a 8b 3c 5e 68 a2 bb 90 bd cc bb 2c c6 a7 3c
       0.01698054 -0.004956289 -0.0062481835 0.020480238
0003b0 c0 77 87 3c 6d 4e 2c 3c 7a 30 22 bc 71 72 aa 3b
       0.016536593 0.010516745 -0.009899253 0.0052016308
0003c0 ff 02 8d bc b6 e8 ce bc 67 b9 8c bc 1e f5 d0 bc
       -0.017213343 -0.02525745 -0.01717825 -0.025507506
0003d0 84 2c 10 bd 32 57 c8 3c 47 7c 12 3a d1 8b 94 3c
       -0.035198703 0.02445564 0.0005587977 0.018133076
0003e0 11 81 00 3d 7d b3 57 3c a9 61 b6 3d be 47 7d 3b
       0.031373087 0.013165352 0.08905346 0.0038647498
0003f0 77 96 55 bc 5f 3d 86 3c dd c0 a9 3d 94 ae 5d bc
       -0.013036362 0.016386686 0.08288739 -0.013530392

fc1.bias f4 [120]
000000 11 17 5d 3d 57 1f 7c 3d 4e 0a 28 bd 61 4c a4 3c
       0.053977076 0.061553326 -0.041025452 0.020055952
000010 59 4e c1 bb 91 22 49 bd f9 40 ab bc 69 a9 76 bc
       -0.0058992323 -0.04910523 -0.020905005 -0.015055039
000020 5c e7 d6 bb 05 c0 b4 3d dd 04 24 3e 51 61 bb bd
       -0.006558342 0.08825687 0.1601748 -0.09149421
000030 f9 bc ca bd 0e f7 bc 3c 14 d3 d1 3c 34 17 df bc
       -0.09899325 0.023067024 0.025613345 -0.027232744
000040 65 98 7b bb b8 c4 2a 3c 54 b2 fe 3c 3d a9 ae 3b
       -0.0038390395 0.010422878 0.031090893 0.0053302334
000050 09 c3 45 3c cd eb 3f 3c 1d 92 96 3c f2 25 9b 3d
       0.012070426 0.011713934 0.01838022 0.07575597
000060 09 e2 96 3c 99 0c 08 bc 42 18 9c 3d 68 7a bd bb
       0.018418329 -0.008303785 0.07621814 -0.005782414
000070 bd de 66 bc a4 19 53 37 f8 19 29 3c c8 c5 2a 3d
       -0.014091191 1.258255e-05 0.010321133 0.041692525
000080 44 31 40 bc 49 44 bf bc ff 64 8e 3c 5b 55 23 3c
       -0.011730496 -0.02334799 0.017382143 0.009969081
000090 d8 f7 94 3d 83 55 76 3d 8c 2e 0f 3d f0 c7 60 3b
       0.07273835 0.060140144 0.0349565 0.003429886
0000a0 1e 22 a2 3c 48 16 c2 3d 23 3c 63 3d 63 eb b7 3c
       0.019791659 0.09476906 0.055477273 0.022451108
0000b0 20 1e 3a 3c 4a a6 da 3c 21 b1 21 3e 28 fe f6 bc
       0.011359721 0.02669062 0.15790226 -0.030150488
0000c0 5c 7d 61 3d d3 23 31 bd c2 4e e4 bd 1a 87 86 3d
       0.055051193 -0.043247055 -0.11147834 0.06568737
0000d0 ce bd 81 bc ba 8a 0a 3d f7 fb 47 bc f0 a8 dd bc
       -0.015837576 0.033823706 -0.012206069 -0.027058095
0000e0 17 3b f0 bc e3 97 5b bd 08 52 12 3d df 5d 17 bc
       -0.029325051 -0.053611647 0.035722762 -0.009238689
0000f0 56 76 08 3d 08 a0 9d 3d 24 d5 db bd 79 ba 85 bd
       0.03331598 0.07696539 -0.10734013 -0.065297075
000100 0a a0 02 bd ee d5 12 bc 24 c3 6e 3d e1 b1 29 bd
       -0.031890906 -0.008962138 0.05829157 -0.041429404
000110 05 e7 24 bc 67 03 b4 bb e1 60 b4 3d a2 77 94 3d
       -0.010064845 -0.0054935697 0.08807541 0.07249381
000120 4a fd df 3c f2 6a ea bc 78 3b a3 bb 67 3a 74 3c
       0.027342457 -0.028615449 -0.0049814545 0.014906502
000130 c1 74 a9 3c e9 af be bb ae 87 1d bd b5 6a e6 bc
       0.020685555 -0.00581931 -0.038459472 -0.028127054
000140 b2 92 b9 3c 81 79 f0 3c af 0f ab 3c c5 2a d8 3a
       0.022652958 0.029354813 0.020881502 0.0016492239
000150 ce 16 90 bd 27 b0 06 bd a3 91 91 bd 40 ff 81 3b
       -0.070356 -0.032882836 -0.07107856 0.0039671957
000160 e4 57 ef bc 6d fd 4b bd 5c dc e4 3c df c3 b6 3c
       -0.029216714 -0.049802233 0.027937107 0.022310195
000170 fa 24 5f 3b 60 d5 a2 3a 3c a9 d9 bc ac 1e 99 bc
       0.003404914 0.001242321 -0.026569955 -0.018691383
000180 eb 66 36 3e 6f d5 55 bd 1e 21 71 bd e1 32 8f bd
       0.17812698 -0.0522055 -0.058869474 -0.06992126
000190 f3 ee c0 bd b5 8f 88 bd 48 ea 58 bd bc df de bd
       -0.09420576 -0.06668035 -0.052957803 -0.10882518
0001a0 2a c5 5f bd 0e a5 fd 3d cd f2 10 bc b0 12 4a 3d
       -0.05463139 0.12384997 -0.008846951 0.049334228
0001b0 07 3d 4e bc d8 b3 3e 3d 5c 50 24 bb c4 fe ab 3b
       -0.012587792 0.04655823 -0.0025072312 0.0052488763
0001c0 d3 85 69 bd e9 2b 25 3c cf 45 98 3d 5a 9b 0e bd
       -0.05701239 0.01008127 0.0743519 -0.034816124
0001d0 94 3c f8 3c c7 2d 5c 3d 0b 2a 48 bd ce d6 8b 3d
       0.030302323 0.053754594 -0.04886822 0.0682808

hash1.weight f4 [64, 120]
000000 65 be 1c 3d 2c 6b 92 3d ea 27 c2 bd c1 6f d4 bb
       0.038267512 0.07149348 -0.09480269 -0.0064830487
000010 eb 93 22 3e 64 ac b5 3c e5 3b 33 bd 49 0f e7 bc
       0.15876739 0.022176929 -0.04375829 -0.02820553
000020 36 81 e0 bc 52 d7 f4 bc da 24 9a 3d e8 75 28 bd
       -0.027405363 -0.029887829 0.0752656 -0.04112807
000030 69 76 42 bd 23 f8 88 3d 9b 03 4c bd e1 a1 db 3c
       -0.047476206 0.06687953 -0.049808126 0.026810588
000040 45 64 d9 3d b0 bb 9d 3d 7d d3 a7 bc ff d4 12 3d
       0.10614828 0.07701814 -0.020486588 0.03584766
000050 42 b5 58 bd 89 7e 79 bc 94 a8 97 bd a3 f4 7b 3c
       -0.052907236 -0.015227922 -0.074052006 0.01537815
000060 e9 f0 2b 3d ae 54 57 3b e3 ba 71 bd 98 e7 73 bc
       0.041977797 0.003285687 -0.05901612 -0.014886759
000070 74 09 aa bd 51 61 6c bc 8e d8 e5 bb 0a 3d ef 3c
       -0.08302584 -0.014427499 -0.0070143407 0.02920391
000080 ad 3b 98 bb 27 63 f5 3c 7a 6f fa 3c f1 1c 65 bd
       -0.004645786 0.029954506 0.030570734 -0.055935804
000090 7c 59 de 3c fe 06 be 3c 64 b3 83 bc 24 60 cb 3d
       0.027142279 0.023196694 -0.016076751 0.09930447
0000a0 04 77 1a 3d 78 e9 be 3d 07 cc a7 3d 2f a5 93 3b
       0.03771116 0.093218744 0.08193212 0.0045057754
0000b0 c1 20 71 bd ad 0d a6 bd 4c a2 7a 3d d7 0d 71 bd
       -0.058869127 -0.08108077 0.061189935 -0.05885109
0000c0 de 51 a2 3d 21 c4 8e bd 3f 01 bb bc f2 43 34 bd
       0.07925771 -0.06971002 -0.022827743 -0.04401011
0000d0 01 49 66 3c 8c 3c 4c 3d 43 d2 f8 bd 77 1c 64 bd
       0.014055491 0.04986243 -0.12149479 -0.05569121
0000e0 cf 3a ac 3d 98 54 a6 3c a0 98 95 3d 06 de 6f bd
       0.08409654 0.02030401 0.073045015 -0.058561347
0000f0 90 69 d4 bc fd c5 00 3d bc 5e 11 bb d4 b9 9e bd
       -0.025929242 0.031438816 -0.002218171 -0.07750288
000100 09 03 03 3b cb 8a 8e 3d 31 dc 6b bd 2a 42 d0 bd
       0.0019990823 0.069600664 -0.057583038 -0.1016887
000110 5a 23 45 3d 2d 74 8a bd db e6 3a bd d0 fe fe 3d
       0.048129417 -0.0676044 -0.045630317 0.124509454
000120 e4 db 0f bd da d7 9e bd 16 31 05 3d 24 bf 4c 3c
       -0.035121813 -0.07756014 0.032517515 0.012496743
000130 71 98 be bc bf 94 19 3d 07 01 66 bd 61 d9 c3 bc
       -0.02326605 0.03749537 -0.056153324 -0.023907365
000140 70 f7 ec bd 7f df fa bc db 94 72 bd cb 7d 88 bd
       -0.115706325 -0.03062415 -0.05922399 -0.06664618
000150 83 99 16 3d 19 a1 7b bd 39 cf 48 bd 66 86 24 bc
       0.036767494 -0.06143293 -0.049025748 -0.010041809
000160 db 91 a1 3c 37 c6 6d 3c 0f 5f c4 bc ab 26 17 3b
       0.01972287 0.01451259 -0.023971109 0.002306382
000170 1c f6 c5 3d 9c 9d e9 bd f7 24 97 3c 59 55 9b bd
       0.09666082 -0.11407015 0.018450243 -0.07584638
000180 e1 16 18 3e a2 5e cf 3c 60 7f d7 3c 9d 01 37 3d
       0.14852478 0.02531368 0.026305854 0.044679273
000190 ca 00 85 bd d5 bf 6c bd 64 93 99 3c 21 57 03 be
       -0.06494291 -0.057800133 0.01874704 -0.12826206
0001a0 af 7d 9a bd 96 10 dd 3d 1f b3 86 3d b0 2c 05 bd
       -0.075435035 0.10794179 0.065771334 -0.03251332
0001b0 36 27 b4 bd 98 cc d5 3d 32 3f a3 3c 54 34 e9 3b
       -0.087965414 0.10439414 0.019927595 0.0071168337
0001c0 e4 85 da bd 73 57 a1 bd 3c 9d db 3b a9 73 af bd
       -0.10670069 -0.07878008 0.0067020934 -0.08566982
0001d0 9d 78 ad bc 52 69 06 3d cf 7f 38 bd 25 50 42 bb
       -0.021175677 0.032815285 -0.045043763 -0.002964982
0001e0 db 43 2c 3e 1a cb 5d b8 a4 5b af 3d 37 da af bd
       0.1682276 -5.287966e-05 0.08562401 -0.08586543
0001f0 eb cd cf 3c 16 e2 2d bd 42 b6 97 3c 40 6c 8d 3d
       0.025366744 -0.04245194 0.018519524 0.06905413
000200 21 2c 63 3d 6d f8 11 bd e7 94 ff bd 30 e6 a4 3d
       0.055462006 -0.035637308 -0.12479573 0.08051717
000210 14 34 93 bd 6c 9e 36 bd 58 4d 50 bc a4 ea e4 bc
       -0.071876675 -0.044584677 -0.012713753 -0.027943917
000220 c8 ff 08 3d 0d fb 46 bd e6 44 c3 3a ee e5 b7 bd
       0.033447057 -0.048579264 0.0014897853 -0.089794025
000230 8e 84 0d bd b9 86 0d 3e 1a 0d 15 bd 84 00 9f bd
       -0.034550242 0.13820924 -0.036389448 -0.0776377
000240 ed e6 b7 bd ea 49 04 3e 70 1f 26 bc a0 fe 9a bd
       -0.089795925 0.12918821 -0.010139331 -0.07568097
000250 f2 57 eb bd b5 c4 09 3d d0 23 21 3d 63 d1 81 bb
       -0.114913836 0.03363486 0.039340794 -0.0039617284
000260 97 43 05 bd 17 36 9a bd 89 15 a6 3c 32 0c 41 3d
       -0.03253516 -0.07529848 0.02027394 0.04713077
000270 f8 89 9a bd 8a b5 88 3d 5b 45 db bc 33 49 9b 3d
       -0.07545847 0.06675251 -0.02676647 0.07582321
000280 1c df 49 bd e0 b9 f7 bc 94 c8 c5 3c 29 78 98 bd
       -0.04928504 -0.03024 0.024143495 -0.07444794
000290 05 48 ef bc 9f 83 50 3c 00 00 b6 bb 60 c4 9d 3d
       -0.029209146 0.012726693 -0.005554199 0.07703471
0002a0 4b c6 01 3c 17 50 f2 bd 5b cc 90 bc 21 2c 48 3d
       0.007920812 -0.11831682 -0.01767557 0.04887021
0002b0 c0 51 2d 3d 34 b3 01 3d 23 8e d0 bd da 4b 46 bd
       0.04231429 0.031665042 -0.101833604 -0.04841218
0002c0 b9 e1 8e bc a3 5b d6 bd 83 b7 87 bb 1e 8c 86 3d
       -0.017441617 -0.10466697 -0.0041417493 0.06569694
0002d0 d1 42 9b 3d f2 cb d7 3d ae 26 3b bd 76 93 ad 3d
       0.075811036 0.10536946 -0.045691185 0.084753916
0002e0 22 64 7c 3b 50 c5 b8 3c d9 8d 9d ba 77 4a f0 bd
       0.0038511832 0.022555023 -0.0012020423 -0.11732953
0002f0 e6 eb 9e bd 82 74 84 3c 6f 3d 44 3c 25 99 e0 3d
       -0.07759838 0.016168837 0.011977538 0.1096671
000300 de cc 4f bd 9a 5e e7 bc 2b 6a de 3c d5 3a a9 3c
       -0.050732486 -0.028243352 0.027150234 0.020657936
000310 d6 ca 31 bd 6c f7 8f 3b 77 c8 8a 3d c6 34 b8 bd
       -0.04340633 0.0043935087 0.06776517 -0.08994441
000320 01 f1 85 bd 8c 09 d2 3c 77 6b b0 bb e9 c9 38 bd
       -0.065401085 0.025639318 -0.0053839046 -0.04511443
000330 e9 f8 cc 3b 35 90 b4 3d 18 8a 3c bd 13 71 72 3d
       0.0062552583 0.08816568 -0.046030134 0.059189867
000340 a8 89 26 bd 3a 8f c9 3d ab dc 0d 3c 2e 88 bb 3c
       -0.040658623 0.098417714 0.008658568 0.022892084
000350 b1 37 a4 bd 86 d6 b0 bd e3 f9 39 bd 18 cb 4e 3d
       -0.08018435 -0.08634667 -0.045404326 0.050486654
000360 ce ea dd 3d b7 96 70 bc d9 90 c5 3c 43 8a 3e 3d
       0.10835801 -0.014684371 0.02411692 0.046518575
000370 c1 60 f6 bc b2 35 f1 bd 31 f0 15 bc 75 aa 2c bd
       -0.030075433 -0.1177782 -0.009151504 -0.042154748
000380 82 38 ad 3d 06 f3 fb 38 0c c1 5a bd b9 5d 42 3d
       0.08458044 0.00012013879 -0.05340676 0.047452662
000390 72 4c 28 3b 15 6f 60 bd 75 81 ba bd 31 bf 76 3d
       0.002568033 -0.054793436 -0.09106723 0.060240928
0003a0 39 78 04 bd 69 e2 af bd 55 75 9f 3d 0e 5b 05 be
       -0.032341216 -0.08588106 0.07786051 -0.13023016
0003b0 8b b3 51 3d 8e e0 ce bd 5d d4 77 bd 42 3f de 3c
       0.051196616 -0.10101424 -0.06050526 0.027129773
0003c0 73 71 5e 3d f4 43 75 bd 74 40 dc 3d 42 7a b9 3d
       0.054307412 -0.05987926 0.10754481 0.09056522
0003d0 a7 1d 14 3c ce 11 0b bd 49 f1 d0 3c 15 ba 60 3d
       0.009040273 -0.033952527 0.025505679 0.05486496
0003e0 82 05 18 bc 7f 85 4c bc 77 54 87 bb 3e 66 03 bd
       -0.009278657 -0.012483 -0.004129942 -0.032079928
0003f0 a5 49 50 3d 59 c0 ac 3d 62 13 b4 3d f4 3c 25 3d
       0.050851483 0.08435125 0.087927595 0.040341333

hash1.bias f4 [64]
000000 3b c6 3f 3e bc 02 16 3e de 29 bf 3c 7b 03 31 3c
       0.18727963 0.1464948 0.023335394 0.010804052
000010 91 94 24 3e e0 11 88 3c f4 bf 1e bd 30 19 04 bb
       0.16072299 0.016610086 -0.03875728 -0.0020156614
000020 8f a3 f6 3c 18 2e 2d 3d 21 f1 16 3d e5 a1 c2 3d
       0.030107288 0.042280287 0.036851052 0.09503535
000030 5b 3c d1 3c b8 f5 29 bc 7b c3 e9 bc a2 72 29 3e
       0.025541475 -0.010373525 -0.028535595 0.16547635
000040 72 b4 16 3e 1f 20 06 bd 62 e2 b3 3d ad 91 c5 3b
       0.14717272 -0.032745477 0.087834135 0.006029329
000050 05 19 12 be 9c 17 f5 3d b3 ad 3a be d3 19 50 bc
       -0.14267357 0.11967394 -0.18230323 -0.0127014695
000060 b8 7b aa 3c 25 ec 6b bd f5 bc f3 bd 97 aa b9 3d
       0.020810947 -0.05759825 -0.11901275 0.090657406
000070 1f 7b 26 bd 84 93 da 3c db 46 3a bd 61 0c bf bd
       -0.04064476 0.026681669 -0.04547773 -0.09328533
000080 25 37 04 3d f2 30 8a bd 50 53 6e 3d ee 1e f9 3d
       0.032279152 -0.06747617 0.05818492 0.121641025
000090 9c 5b 16 3e fd c6 4e 3d 62 8b 46 3d ce c2 e4 bd
       0.14683384 0.05048274 0.04847277 -0.111699685
0000a0 15 e2 c8 bd b5 b6 08 be 50 c7 34 be 0c 1e fb 3d
       -0.09808747 -0.13350947 -0.17654157 0.1226159
0000b0 4f d9 ee bd 99 99 c0 3d d2 d0 29 bc 43 6f aa 3d
       -0.11662542 0.094042964 -0.010364728 0.08322003
0000c0 f4 32 ac 3d 7d 52 69 bc bc 68 00 3e 33 78 4c be
       0.08408156 -0.014240858 0.12539953 -0.19967727
0000d0 59 01 47 bd 79 a4 14 3d 90 b1 26 3d 97 77 e9 bc
       -0.04858527 0.036289666 0.04069668 -0.028499408
0000e0 5a 6d 17 3e f0 b0 5d bd a4 8c 2d be 33 e3 b3 bd
       0.14787808 -0.05412382 -0.16948181 -0.08783569
0000f0 98 18 df bd f7 fe d6 3d a4 7d 82 3d 88 92 c1 bc
       -0.10893363 0.104978494 0.0637162 -0.023629442

fc2.weight f4 [10, 64]
000000 f6 b8 1c 3d ed 36 4b 3d da 21 d9 3c 61 b8 a0 3d
       0.03826233 0.04961293 0.0265054 0.078476675
000010 9b 27 7f 3d 3d 7a 76 3e 34 03 81 bd 49 f8 0c bd
       0.06229363 0.24070068 -0.06299439 -0.03441647
000020 1c a7 4f be 0b 49 13 be aa bf 15 be 2c d6 05 bd
       -0.20278591 -0.14383332 -0.14623895 -0.032674953
000030 1b f1 55 be 90 a0 7c be e8 1e 10 be 3b 6f 2a 3e
       -0.20892756 -0.24670625 -0.1407429 0.16643994
000040 52 d5 3f 3e e6 db da bd a1 27 3e bc d9 66 30 3d
       0.18733719 -0.106864735 -0.011606128 0.043066833
000050 e2 9b 96 bd 51 20 f9 bd 47 e9 14 3e 51 52 60 3e
       -0.07353951 -0.12164367 0.14542113 0.21906401
000060 0b e8 cf 3d 97 4e 04 3e 42 6e 17 3e 81 1b 6e 3d
       0.101516806 0.12920605 0.14788154 0.0581317
000070 43 53 99 3d 46 b1 30 3e 22 42 c2 3d 8e f4 42 3e
       0.07486584 0.17255124 0.0948527 0.19038603
000080 28 6c 80 bd 81 96 00 3e 60 90 3d 3d 16 2b 8e bd
       -0.06270629 0.12557413 0.046280265 -0.06941812
000090 ef 41 12 3d f0 a4 d3 3d ed 16 26 be 16 56 c1 bd
       0.03570741 0.10334194 -0.16219683 -0.09440248
0000a0 2e e3 bc bd fc 59 5e 3d f8 b3 3a be 7b b8 60 3e
       -0.092230186 0.054285035 -0.18232715 0.21945374
0000b0 e1 ff 36 3e 12 2a c7 3d 90 f3 90 3e 72 df 04 3e
       0.17871048 0.09724821 0.28310823 0.12975863
0000c0 3b 4a 0e 3d d0 11 9c be b3 87 82 bd 8d 49 b8 bd
       0.03473876 -0.3048234 -0.06373539 -0.08998404
0000d0 19 87 3a be e8 92 79 3d b0 57 c7 bd e7 e5 25 be
       -0.18215598 0.060931116 -0.09733522 -0.16200982
0000e0 88 4a ab 3c f4 f8 2b 3e 4f da 63 3d 0f 00 33 be
       0.020909563 0.16794187 0.055628117 -0.17480491
0000f0 20 b8 82 be 6b bc 54 bd 17 2d 8b 3d e9 94 33 bd
       -0.255311 -0.051937502 0.067957096 -0.043843184
000100 d2 64 31 be c0 09 a1 3d 97 35 9a bd ac 8f 1f 3d
       -0.17323616 0.07863188 -0.07529753 0.038955376
000110 eb 06 ca bc 33 96 d3 3d 18 65 ac 3d b4 d4 b1 bd
       -0.024661502 0.103313826 0.084177196 -0.08683148
000120 54 f0 16 be ac 47 d5 3d 7c 32 7c be 65 39 9b bd
       -0.14740115 0.10414061 -0.24628633 -0.075793065
000130 8c 5d 46 bd 66 61 13 3e 9f db d0 bd 5a 48 c2 be
       -0.048429057 0.14392623 -0.101981394 -0.37945825
000140 74 e0 0d bd 35 4a 63 bd 66 c8 f8 bd 49 a1 1c be
       -0.034637883 -0.05549069 -0.12147598 -0.152959
000150 a6 c6 3a 3d 23 84 44 be 39 9f 8b 3d b0 29 33 3e
       0.045599602 -0.19191031 0.06817479 0.17496371
000160 19 43 55 bd 40 9b 65 bd de 80 54 3e e8 e9 66 bd
       -0.052065942 -0.05605626 0.20752284 -0.056375414
000170 fc 3a 8a 3e 31 6a 22 bd 94 5c 64 bd ee 37 dc 3d
       0.26998127 -0.039652053 -0.055752352 0.10752855
000180 c7 44 dc 3d 28 32 13 3e 81 ff ad bd b2 e7 e5 3d
       0.10755306 0.14374602 -0.08495999 0.11225833
000190 9b c1 64 3d a4 7a 12 3c b6 b7 b3 bd 9c 3e 7e 3e
       0.0558487 0.008940373 -0.087752745 0.24828571
0001a0 38 1b 2e 3e c9 9f 4f 3d 77 d9 7c 3e f3 1d a7 bd
       0.1700257 0.050689492 0.24692331 -0.08160009
0001b0 df f2 f7 3c 3f 2f b5 bb 39 e5 06 be a8 40 27 be
       0.030267177 -0.005529314 -0.13173379 -0.16333258
0001c0 1a 35 1f be f7 1d 62 3e 4c cf 81 be d2 47 78 3e
       -0.155476 0.22081743 -0.25353467 0.24246147
0001d0 80 b8 2a 3e 51 2e 17 be bb 80 0a be 78 3d 7c bd
       0.16671944 -0.14763762 -0.1352567 -0.06158206
0001e0 d3 07 4f bd 99 80 fd bd 19 93 7a 3e 97 ce ec 3c
       -0.05054457 -0.12378044 0.24470176 0.028907103
0001f0 df 12 fb bb 6e 83 2d be 99 73 c7 3d 09 eb c6 3e
       -0.0076621617 -0.16944668 0.097388454 0.38851193
000200 c1 2f 02 3c 59 66 59 be cc 58 62 3d 06 f2 b5 3d
       0.007945956 -0.21230449 0.055260465 0.08884053
000210 31 af 8c 3e 5f 87 2c bc 81 dc 98 bd f2 6a c0 3d
       0.2747741 -0.010530322 -0.07463933 0.09395398
000220 bd d2 0a be 1a 0f 27 3e e3 ed 43 bd bb c5 2e 3e
       -0.13556953 0.16314355 -0.04783429 0.17067616
000230 a0 6b 5d be ac fc d3 3d 59 f5 fe bd 2e 8e 9d 3e
       -0.21623087 0.10350928 -0.1244914 0.30772537
000240 50 97 7f be bf a3 86 bd 52 0f 41 3d d7 4f a6 bd
       -0.24960065 -0.06574201 0.04713375 -0.08120697
000250 69 9c 4b be 5f dd 71 3c 0a 99 a8 bd 03 f4 84 bd
       -0.19883884 0.014762252 -0.08232315 -0.06491854
000260 88 5c 03 3c c9 3a 22 be f4 cb 24 3e 66 52 aa 3b
       0.008017667 -0.15842737 0.16093427 0.005197811
000270 b2 3d e8 bd 54 b1 60 be 47 4c 61 3e 54 ec a3 bd
       -0.113398924 -0.21942645 0.22001754 -0.080040604
000280 6d 86 80 3d 13 82 31 3d 03 68 0f be 04 61 c0 3d
       0.0627564 0.04333694 -0.14004521 0.09393504
000290 87 3e 0a 3e df 8d f0 bc c4 bf 84 3c cb 76 ee 3b
       0.13500415 -0.029364524 0.016204722 0.007277345
0002a0 6a 49 a9 bd 58 bb 1a be da ab 79 be d3 74 fd 3b
       -0.08265956 -0.15110528 -0.24381962 0.007734874
0002b0 b0 c0 7f bd a2 aa 7c 3e 56 3c 90 3d 43 36 f8 bd
       -0.06243962 0.24674466 0.07042758 -0.121197246
0002c0 c5 3a d0 3d b0 6b 65 be 58 6e 12 3e 83 d3 86 bc
       0.101674594 -0.22404361 0.14299905 -0.016458279
0002d0 14 2b 2e bc 03 0b af bb 8f 10 ef 3c 48 ea 14 3e
       -0.010630388 -0.005341889 0.0291827 0.14542496
0002e0 bb 48 ee bd cf 13 20 3e 62 84 d9 bd 4b 29 9a 3d
       -0.11634966 0.15632556 -0.10620953 0.07527407
0002f0 17 22 a1 bd 51 50 bb bd c6 b9 f5 bc 08 09 bf bd
       -0.0786783 -0.091461785 -0.02999581 -0.093278944
000300 6b e5 75 3d 9a 13 62 ba 06 40 54 3c 70 7b 0e be
       0.060033243 -0.00086241367 0.0129547175 -0.13914275
000310 28 0b 2f bd 33 44 50 bc e7 92 3d bd b9 b4 d5 3a
       -0.04273525 -0.012711572 -0.046282675 0.001630447
000320 67 05 51 3d 0e 9c f2 3d ba f4 fe bc ed 60 f4 bd
       0.051030543 0.11846171 -0.031122554 -0.119325496
000330 60 ee 7d 3e 01 86 30 be 51 a3 48 be 96 f8 48 3d
       0.24797964 -0.17238618 -0.1959355 0.049065195
000340 5f a8 07 3e ed 34 20 bd 90 78 44 3d 52 73 02 3e
       0.13247822 -0.039112974 0.04796654 0.12739304
000350 5a 0f 1d bd 77 c8 23 bc b0 7a c7 bd d8 f4 1f be
       -0.03834472 -0.009996525 -0.09740198 -0.15620744
000360 c3 28 15 3e 18 a6 1e be 52 a0 12 3e 55 1c 83 3b
       0.1456633 -0.15493047 0.1431897 0.00400118
000370 cf fe 33 be d5 23 c1 3d 77 aa 11 be 02 f1 b2 bd
       -0.1757767 0.094306625 -0.14225183 -0.08737375
000380 d1 51 7f bc c9 4b 93 bc 1d ce aa bd 40 79 01 be
       -0.015583471 -0.017980473 -0.08340094 -0.1264391
000390 01 2e ba bc 0d cc 2b 3c 52 99 51 be fb f1 05 be
       -0.022727014 0.010485661 -0.20468643 -0.1308059
0003a0 e2 aa f6 bb 3a 35 39 be e1 5d 41 3e 6c 17 21 be
       -0.007527695 -0.1808671 0.18883468 -0.15731591
0003b0 70 9a db bd 71 d3 0f 3e f9 bc 0e 3d ec d8 41 be
       -0.10722816 0.14045502 0.034848187 -0.18930405
0003c0 de 71 97 bd f2 78 97 3d 80 ed 8d bd e4 38 64 bd
       -0.07394765 0.07396115 -0.06930065 -0.055718318
0003d0 9a a1 0b 3e af 7a a4 3d 07 27 b0 3d ab 5e ab bc
       0.13635865 0.080312125 0.08601194 -0.020919165
0003e0 fe b3 60 bd 4d 30 15 3d 4e 6d 93 bd 07 00 14 be
       -0.054859154 0.036423016 -0.071985826 -0.14453135
0003f0 59 27 57 3e ee 70 83 3d 6b cd 45 be 69 7b c1 bd
       0.21011104 0.06418024 -0.19316642 -0.09447367

fc2.bias f4 [10]
000000 a2 d6 e4 bd ca 1d a7 be c2 ff 0d 3e ab 4c be 3d
       -0.111737505 -0.32639915 0.13867095 0.09291967
000010 e8 6e ec 3e 8b 6e 6f 3c 5e ce 4a 3d 11 c9 7e bd
       0.46178365 0.014613758 0.049513213 -0.06220347
000020 52 9f 6d 3e 7c b5 c4 be
       0.23205307 -0.38419712
