2.NeuralHashing/modelResnetAndCifar2.pth (torch, 241454 bytes, 10 tensors)

conv1.weight f4 [6, 3, 5, 5]
00000000: ce10 78bd c1d7 f0bc 1615 7f3d 3e0d 96bd
00000010: 199a e4bc fc4a b13d fc1b 443d 431e 45bb
00000020: 9568 033c 83e1 e13d 3bc0 c7bd 4bf5 193d
00000030: 85eb 8f3c e90c d23d 8e6b 353c 72c6 e7bd
00000040: 45c5 283d 79f0 23bd 73a7 5f3d a397 d8bd
00000050: 58d9 c0bd aa98 8abd 1b4f 45bc 13f2 9dbd
00000060: a91c 893d c476 88bd e379 633d a352 99bd
00000070: f72d 9d3c 59d5 86bc 44eb fb3c f97d a1bb
00000080: c0b2 64bd d789 923d 04ba 363c 0cc3 503d
00000090: be81 173d ead9 68bd 8f72 cb3d 1388 9d3d
000000a0: 428d c2bd 53d3 75bd fc17 f1bc bf27 53bc
000000b0: 1b28 a6bd 1471 e4bd 7ba4 ac3d 13e1 443d
000000c0: 5664 96bd d54a 1dbd 392e b13c ef00 92bd
000000d0: ca72 af3d c8ff 0c3d 2dd5 2d3d 013c 3c3d
000000e0: ba21 babc 1427 93bd 16a3 91bb a22f c53d
000000f0: e7ce a7bc a52d 923d 632f 10bb a4e0 983c
00000100: 843a b6bd 28ed 123d a655 80bd 34c3 86bd
00000110: e4f8 97bd 689a 1cbd 7a20 9f3c 094b d63d
00000120: 3c8e 9e3d 8505 e83d 4c04 7bbc a585 793d
00000130: ed6e a1bd 2106 08bc dc4b 49bc 53a6 b73a
00000140: 08ec 62bd 8516 9fbb b268 9dbd 4148 e93d
00000150: 0648 0c3d fadd 95bd c92c adbd 5b8c 8bbd
00000160: 7e6e 8b3d 7f0e bfbd 74cb 95bd 6ec9 cfbd
00000170: c7e5 04bd db12 a0bd 0327 94bd d2b0 bb3c
00000180: afda b4bd 9260 36bd f515 2dbd a610 823d
00000190: abcb f6bb 590e 893d 536e c03d f75b 09bd
000001a0: 9ffc d6bd f2d6 a53d 48c0 12bd 09cc d1bc
000001b0: 839e a93c 17bc d5bc 644c dcbd a1cd 18bd
000001c0: 636c 053c e02c 873d 624b bcbd 3692 c9bd
000001d0: 015f 653c 1f67 a5bd 14d6 bf3d 9b13 0a3d
000001e0: 719c a7bb 7d1f e3bd 1ba3 0abb 92ac 42bd
000001f0: e091 b33d 68be d3bc 44fd d33d 67fd a9bd
00000200: dd59 7a3c 0b03 92bb fea8 6a3d 9697 4cbd
00000210: b6e9 a7bd 177d b13c a0a9 9dbd a020 c6bd
00000220: 7a1d 28bc 10e8 7b3c f152 003c 542f 253d
00000230: 415e 89bd 6b81 883d 0378 b0bd 18b3 473d
00000240: 94c8 eabd b7a9 b53d 378c 723d a226 ed3c
00000250: 4256 81bd 86e4 c03d d40e 2d3d e1ea 8a3d
00000260: 5a01 fb3b 17d4 5b3d c061 053d d615 913c
00000270: 1782 a8bd fb88 d2bd 09a4 a8bd be72 e7bd
00000280: d68e cd3d ab8d 6f3d 256d 6bbd 3451 fabc
00000290: 19a4 9b3a df2c 57bd c981 f03c 6b46 a33d
000002a0: fa2b 35bd 076f 4cbd 7f3b 1bbd aee1 c2bd
000002b0: ed60 4b3d 869f 92bd 2868 cb3d e855 703d
000002c0: 0b16 e0bc eb71 b3bd 84b6 6abd c559 afbd
000002d0: 30b8 b9bc 2e35 8e3d 58b7 63bd 149d 5dbd
000002e0: b0c6 933d 7845 c53d 6397 a23d ec0e 02bc
000002f0: f960 c5bd 6f80 843d 95a5 8a3d c20a 373d
00000300: c115 81bd 624f 34ba 97fe c5bc f358 7c3d
00000310: bb1b 813d d4ec d7bd 6da8 e13c 0481 e13d
00000320: 64b1 023c 4793 b53b 5c4a fb3c 1396 b63c
00000330: 381c ae3d a9c4 6f3d b3f8 943d f704 bb3d
00000340: ec19 be3d f109 9c3b 9c94 43bd f319 e4bd
00000350: d04c 86bd 1f51 e7bd 6c15 1abd 3635 583d
00000360: 2022 853d 53f6 d93d dfb1 323d 359b ddbd
00000370: 5a2c c33b d1ee 2bbc 5422 773d 81ab e5bd
00000380: e406 05bd 2d76 933d 52db b13d 34ed d93d
00000390: 4478 b0bd b92e 10bd 3f7e 5ebd 52be 16bd
000003a0: a409 a7bd deac bf3d 922e c33d 7c62 4b3d
000003b0: d4dc 8c3d b557 313d fec0 61bc 3b27 af3d
000003c0: 9306 d4bd ec4c 193d 910e a1bd b8c3 91bd
000003d0: 162d ba3d 3734 d9bd a6f9 6f3c d261 69bb
000003e0: 5fa0 75ba ddd0 e5bd bf12 ebbc 56a3 8bbc
000003f0: 2923 963d 98e3 dabc c42f 2dbc eabd 983d
-0.0605629 -0.029399754 0.06227597 -0.073267445 -0.02790551 0.0865688 0.04787825 -0.0030077852
0.00802054 0.11029341 -0.09753462 0.037587445 0.01756836 0.10256369 0.011073006 -0.11317147
0.041203756 -0.040024254 0.05460305 -0.105757974 -0.09416455 -0.067673996 -0.012042786 -0.077121876
0.066949196 -0.06663278 0.055536162 -0.07486465 0.019186957 -0.016459154 0.030751832 -0.004928347
-0.05583453 0.07155197 0.011152748 0.05096726 0.036988966 -0.056848444 0.0993396 0.0769197
-0.09499599 -0.060015988 -0.029430382 -0.012887894 -0.08113118 -0.111543804 0.0842981 0.04806621
-0.07343356 -0.038401444 0.021628486 -0.07129084 0.08566816 0.03442362 0.04243963 0.04595566
-0.02272116 -0.07185188 -0.00444449 0.09628226 -0.0204844 0.07137612 -0.00220009 0.018661804
-0.0889788 0.0358707 -0.06266336 -0.06580201 -0.07420519 -0.03823319 0.019424666 0.104635306
0.07741973 0.11329178 -0.015320849 0.06091847 -0.078824855 -0.0083022425 -0.012286153 0.001401136
-0.05540088 -0.0048549795 -0.07685985 0.113907345 0.034248374 -0.07317729 -0.08455808 -0.0681388
0.06808184 -0.09328937 -0.07314196 -0.101458415 -0.032445695 -0.078160964 -0.072340034 0.022911463
-0.08830773 -0.04452569 -0.042257268 0.06350832 -0.0075316033 0.0669219 0.09396043 -0.03353497
-0.104974024 0.08097638 -0.035827905 -0.025609987 0.020705467 -0.026090665 -0.10756758 -0.037305478
0.008143517 0.06600356 -0.09194066 -0.09842341 0.0139997015 -0.080763094 0.09367004 0.033710103
-0.005115085 -0.1108999 -0.0021154347 -0.047527857 0.08768058 -0.025847629 0.10351041 -0.08300286
0.015280214 -0.004455929 0.05729007 -0.04994925 -0.08198874 0.021666093 -0.07698369 -0.096741915
-0.010260934 0.015375152 0.007832275 0.04032834 -0.06707431 0.066653095 -0.086166404 0.04875478
-0.114640385 0.08870261 0.05921575 0.028949086 -0.063152805 0.094185874 0.04225047 0.06783081
0.007660073 0.05366906 0.032563925 0.017710607 -0.08227938 -0.10280033 -0.08234412 -0.11301182
0.100370094 0.058484714 -0.057477135 -0.030556299 0.0011874466 -0.052533027 0.029358761 0.079724155
-0.044231392 -0.04991057 -0.037898537 -0.09515701 0.049652983 -0.07159333 0.099319756 0.058675677
-0.02735426 -0.087619625 -0.057302967 -0.08562044 -0.022670835 0.06943737 -0.055594772 -0.05410488
0.07215631 0.09632391 0.07939031 -0.007938128 -0.09637637 0.06469809 0.067698635 0.044687994
-0.06302977 -0.0006878284 -0.02416925 0.061608266 0.06304117 -0.10543218 0.027546132 0.11010936
0.0079768635 0.0055412385 0.030675106 0.022288358 0.08501476 0.05853716 0.07273998 0.09131806
0.09282288 0.0047619273 -0.047749147 -0.11137762 -0.065576196 -0.112947695 -0.037618086 0.05278512
0.065006495 0.10642686 0.043626662 -0.10820619 0.005956215 -0.01049395 0.060335472 -0.112143524
-0.032477275 0.072002746 0.0868441 0.10640946 -0.08616689 -0.03520081 -0.054319616 -0.036802597
-0.08156136 0.09359144 0.09530367 0.04965447 0.06878057 0.043296535 -0.013778923 0.085524045
-0.103528164 0.037426874 -0.078641064 -0.071174085 0.09090631 -0.10605662 0.014646923 -0.0035611284
-0.00093699055 -0.11221478 -0.028695462 -0.017045658 0.07330925 -0.026719853 -0.01057047 0.07458098

conv1.bias f4 [6]
00000000: ce4e ebbd 625c a4bd 624c 42bd 9069 c7bd
00000010: 61a6 a43c 7b03 33bd
-0.1148964 -0.08025433 -0.047436126 -0.09736931 0.020098867 -0.04370449

conv2.weight f4 [16, 6, 5, 5]
00000000: 4f13 e63c 424e 953d 7ff4 873d bf27 b73c
00000010: 0c84 353d 08d0 8dbd bc32 243d 68ce 903d
00000020: 3fd4 9fbd 204d 393d cf8c 98bd 1163 1dbd
00000030: d5e3 653d 6894 863d 610e d33c 9eae 9abc
00000040: 95a4 393d bb00 3c3d 6570 893d 194e 8ebd
00000050: 8556 91bd ca95 553d 4e84 1c3c 1d26 a03c
00000060: 2072 2d3d 43ed 4b3d de5e 133d 8151 043b
00000070: 88f4 f43c 6675 ed3b 9a6e 4b3d 6122 07bd
00000080: 4d7e a63d f05b 353d dc2d 2e3b 9957 863d
00000090: ff05 f6bc 9572 a3bd d958 8a3c 8bce 8e3d
000000a0: ff0d 713c 0c06 a63d 4096 8f3d 4b58 b1bc
000000b0: 0052 8b3d 80f7 893d 60ad 023d e84e 433d
000000c0: f45f 3cbd 4d3e 6bbc 25d9 42bd 015a 83bd
000000d0: 745f 92bd 5956 aabc 589c cebc 9349 f23c
000000e0: 1485 733d 975f 9c3d 9157 1ebd 46eb 7dbd
000000f0: b556 373d 1486 00bc 3b5e 8cbd 3d9f 9ebd
00000100: 0c31 273d 37d5 95bb 0206 343c cc05 1fbd
00000110: b11e 3a3d 18a5 473c 4a29 49bd f04d 2abd
00000120: 2275 65bc b46b f23c b221 0fbd c3ff 863d
00000130: 0c3a 513d 4d45 433d c709 0dbd dbb5 013d
00000140: 067c fb3b 7bbb cd3c a9c7 2fbc 7ce3 9c3d
00000150: d8e0 d13c 9adb 85bd f4d2 793d 2e55 8f3d
00000160: 1269 f23c c14b e33c 08d8 ed3c 3a0e ad3c
00000170: b9a8 9e3d 2999 c93c a0c7 43bc a84b 69bd
00000180: 947e 90bd f7e3 85bd 6d37 3cbc c575 09bd
00000190: bf2e 053d 035b 823d 17e6 31bd f530 1abd
000001a0: 4ec2 663d 7f18 67bd b79c a73c eade 29bd
000001b0: a23d 383d fe74 6a39 731a 0fbd a25d 1bbd
000001c0: 8072 d8bc d9b6 403b b9f8 833d 4c9e a13d
000001d0: 27e3 963d c798 623d 70c0 6a3b a9d9 3fbc
000001e0: 6706 563d 6334 92bc 2c1c a23d 5f85 0cbb
000001f0: a94a 81bd 6d5d 693d a323 9a3d 53f7 10bd
00000200: 61b4 84bd 7e87 febc 69a0 a13d d3ad febb
00000210: dfc0 1c3d f1d5 0d3d 8fa8 8fbd 555f e8bc
00000220: 57b0 99bd 803e 95bd 80ea 373d ef18 053c
00000230: 5e70 723d 1c4c 79bc 0cb5 3abd 3acf 1fbd
00000240: 8f34 91bc 7541 2ebb bab2 71bd c637 463d
00000250: 6aa0 0bbd 741f fbbc f73a ec3a 6d5a 6e3a
00000260: c6e0 2e3d 8213 2abd 774c 99bd bd88 03bd
00000270: 7e9d 36bd 61d7 4e3d 5efb 15bd 04b1 843d
00000280: 46b3 bb3c 6a4d 243d ef62 d7bc 3cc4 123b
00000290: e131 f43c 627c 8ebd fb8f 12bd 9f41 c0bc
000002a0: d611 8b3d dd07 3c3d 66ce 893d f160 e3bc
000002b0: e33a 9b3d c77c 813d eb68 7b3c 03d5 1a3d
000002c0: 3656 88bd e76b 483d 5960 cc3c faf9 b439
000002d0: 5a8c 683d 2bfc 673d a517 453d 2e12 c8bb
000002e0: 2e0d a0bd e8eb a63d b266 50bd b6ab 3abc
000002f0: f058 4c3c 5218 a6bd 169d 0fbd 4757 193c
00000300: f282 813c 808e 7dbc 29aa 43bd a8d3 203d
00000310: da57 19bd afed eb3c 453d 29bc 0209 9cbd
00000320: 35d9 f83c 533d 5bbd f05c 3ebd 73d7 973d
00000330: 7b04 17bd 5a5a 14bd 8d65 92bd ccb1 a13d
00000340: 448f 093d ff81 1fbd 1a9e a3bd a879 923d
00000350: 2f30 673d 459d a4bc 5a76 2dbd daaa 89bd
00000360: 3167 4abd 16f6 38bd 4d0a 553c 27f0 c7bc
00000370: e478 e5bc d8ef 65bd 05a7 b43b 8382 4abc
00000380: 54ac 5b3d b992 82bd 9d18 7abd e42b 8d3d
00000390: 17f7 83bd 5cff 4bbd 95e2 493d 8b3e f8ba
000003a0: f8e8 0ebc 0409 2a3d 292f 833a bdbc 453d
000003b0: 993f 8dbd c37b 623d eeed 14bd 28fe cc3c
000003c0: 85d0 d33c a0ea e33c efd7 90bd 65da 84bd
000003d0: ec04 183c 3097 7ebd c17f 443d 22a6 7a3d
000003e0: 6524 4fbc aa87 a0bd fedc 90bd c114 8c3d
000003f0: ae2f 3c3d 599b dd3c 5f16 2dbd 86c0 f9bc
0.028085379 0.07290317 0.06638431 0.02235782 0.044315383 -0.069244444 0.040087447 0.07070619
-0.078041546 0.045239568 -0.07448732 -0.038424555 0.05612548 0.06571275 0.025763692 -0.018882092
0.045322973 0.045899134 0.06710891 -0.0694849 -0.070965804 0.052144803 0.009553028 0.019549424
0.042345166 0.049786817 0.035979144 0.0020190182 0.029901758 0.007246661 0.049666025 -0.03299177
0.08129559 0.04427713 0.0026577627 0.06559677 -0.030032156 -0.07980839 0.016888069 0.06972989
0.01471281 0.08106622 0.0701108 -0.021648547 0.0680275 0.0673666 0.031903625 0.047682673
-0.045989946 -0.014358115 -0.047570366 -0.06413651 -0.071471125 -0.020793127 -0.025221035 0.029576099
0.059453085 0.0763542 -0.03865773 -0.061991952 0.044760425 -0.007844467 -0.068539105 -0.07745216
0.04081826 -0.0045725363 0.0109877605 -0.038823888 0.045439426 0.0121853575 -0.049111642 -0.041578233
-0.014004977 0.029592372 -0.034944244 0.065917514 0.05108075 0.047673512 -0.034433153 0.03166757
0.007674697 0.025113812 -0.010728755 0.07660577 0.02561991 -0.06536026 0.060992196 0.069986686
0.029591117 0.027746083 0.029033676 0.021124948 0.07747025 0.024609165 -0.01194945 -0.056956917
-0.07055393 -0.065376215 -0.011487824 -0.03355958 0.032515284 0.06365015 -0.04343232 -0.037644345
0.056337647 -0.056419846 0.02046047 -0.041472353 0.044980653 0.00022359562 -0.034937333 -0.037931092
-0.026421785 0.002940586 0.064439245 0.07891521 0.073675446 0.05532148 0.0035820268 -0.011709609
0.0522522 -0.017847246 0.079155296 -0.00214418 -0.063130684 0.056973863 0.075263284 -0.035392117
-0.06479717 -0.031070467 0.07891924 -0.0077721863 0.038269874 0.03462786 -0.07014572 -0.02836577
-0.07504337 -0.072873116 0.04490137 0.00812362 0.059189193 -0.0152159 -0.045582816 -0.039015986
-0.017725257 -0.0026589308 -0.059008338 0.048393033 -0.03408853 -0.030654646 0.0018022944 0.0009092454
0.04269483 -0.04152251 -0.07485288 -0.032112826 -0.04458379 0.05049837 -0.036616676 0.064790756
0.022912633 0.04011289 -0.026292292 0.0022394797 0.02980894 -0.06957318 -0.03578184 -0.02346879
0.06790511 0.045905937 0.067288205 -0.027756186 0.07579591 0.063226275 0.015344839 0.0378008
-0.066570684 0.04893103 0.024948286 0.00034518522 0.056774475 0.05663697 0.048118252 -0.006105683
-0.07815014 0.08150464 -0.050879188 -0.011393478 0.012472376 -0.081101075 -0.03506192 0.009359187
0.01580951 -0.015475869 -0.0477697 0.03926435 -0.037437297 0.02879986 -0.010329549 -0.076189056
0.03037701 -0.05352528 -0.04647535 0.074141406 -0.036869507 -0.03621898 -0.071482755 0.0789524
0.033583894 -0.038942333 -0.0798914 0.0715211 0.056442436 -0.020094523 -0.042349197 -0.067220405
-0.049414817 -0.04515656 0.013002944 -0.024406506 -0.028011747 -0.056136936 0.0055130743 -0.012360218
0.05363114 -0.063756414 -0.06105863 0.06893137 -0.06443613 -0.049804077 0.04928835 -0.0018939538
-0.008722536 0.041512504 0.0010008562 0.048275698 -0.06896896 0.05529381 -0.03635972 0.025023535
0.025856266 0.027821839 -0.07072436 -0.06486968 0.009278517 -0.062155902 0.047973398 0.061193593
-0.0126429545 -0.07838376 -0.07073401 0.06839896 0.04594391 0.027051615 -0.042257663 -0.03048731

conv2.bias f4 [16]
00000000: e0da 96bd b44a 9bbd ef2c 333d 01d8 893a
00000010: d1f2 8c3d 2c9b e4bc b8ba 713d 6bc8 47bd
00000020: ee7d 03bd 58d8 fe3c 4d52 8abd 0752 eabc
00000030: 5507 63bd aec6 49bb 24f8 5c3d 50f2 9e3d
-0.07365966 -0.07582608 0.043744024 0.0010516645 0.06882251 -0.027906023 0.05901596 -0.048775118
-0.032102518 0.03110902 -0.06753979 -0.028603567 -0.055426914 -0.0030788588 0.053947583 0.07761061

fc1.weight f4 [120, 400]
00000000: 1d90 ef3c 78f8 20bd 8899 30bd d5a8 02bd
00000010: 372b ef3c 67aa 223a 6b08 493d 8069 13bb
00000020: d76c 053d 389b 30bd b788 39bd a8e8 403d
00000030: c085 5c3c 870c debc 0d83 82bb 3337 36bc
00000040: c7d6 a2bc 8352 a4bc e0ee ffbc dae8 d0bb
00000050: 9a8a 10bd 73ac 37bc 90f5 a43c 7379 edbb
00000060: 97c0 b2bc 80c6 e43c 6d1d 40bd b3f8 2abd
00000070: a5d4 163d 0018 ab39 fab4 0abd cd7e f8bb
00000080: a3fb 103d 0045 22bd a508 413d bfb9 0e3d
00000090: 7b40 3c3d 659a 2f3d 7098 f33c 336e f33b
000000a0: c053 07bc 207e 313d 4aec a83c c083 703c
000000b0: e3c4 bf3c 4d59 b6bb 75a4 0a3d cd61 af3b
000000c0: b759 c6bc 0d7d b6bc 9fa3 233d 1b70 043d
000000d0: 539f 1d3c ea02 e23c e313 f93c 802d 13bb
000000e0: 400d fc3b 9368 ab3c ba8a e7bc 58ca 453d
000000f0: cd0e ac3a 0294 06bd a761 7fbc 4daa 4d3c
00000100: a783 303c 73b6 c8bc 3053 fd3c 47a2 bbbc
00000110: a813 43bd 0708 053c 03de b6bc e313 e33c
00000120: 4d3a efbc 2325 13bd 1791 1cbd 9016 f23c
00000130: 7376 d7bc 4f3a 46bd 4bc1 3c3d 274f 7e3c
00000140: e796 bebb b83c 173d 28b7 33bd 635e 2b3d
00000150: cd1a d73a 9a04 03bc bd24 b8bc 2bed 3e3d
00000160: 620a 3cbd bdba 22bd 7abf 153c e893 37bd
00000170: 1aa3 513c 1a48 ab3b e0d5 16bd cd39 99ba
00000180: 7329 403c c7fe efbc 0071 ffbc 6385 ae3c
00000190: 073b 823c e72b 2bbc 600d 1c3d b220 1fbd
000001a0: bdb0 d93c cde7 843b 9aed 1bbb 702c cd3c
000001b0: a083 01bd 1a13 f4bb 1af6 2ebd f02e be3c
000001c0: 3389 7eba 0d84 8abb 1a82 ef3b 9098 b6bc
000001d0: 1bda 33bd 9a00 903b a5c1 493d 401e fdbb
000001e0: fbbc 1ebd c789 33bc 93b7 fbbc 67b8 8ebc
000001f0: c74f 8c3c 4a87 4c3d 3345 e1ba df51 0c3d
00000200: cbf0 1e3d fd31 3b3d 53ea b33c 656c 1bbd
00000210: 521d 2ebd 27f7 5cbc 5026 83bc da7c dc3c
00000220: a073 2f3d d3f8 003c 23b9 a6bc 607e e7bc
00000230: 575b 833c 2fca 00bd c04c e9bc 725a 0f3d
00000240: 2b8a 46bd 03f2 0dbd 3fa8 10bd 0d66 a03b
00000250: b357 4bbc e35c 37bd e31a d1bc d0c0 9fbc
00000260: fa3e 433c edce e23c e741 eebc ed1d 253c
00000270: 30b9 9a3c d29d 2a3d d79a f4bc 68a6 4bbd
00000280: 8031 713b 07b9 fabc 1a8d 78bc 7a5c 4bbc
00000290: b335 d7bc 33ba 553b 9769 143d 1a24 723c
000002a0: 6dcc 093d ea3d d53c cd95 063c 7312 aebb
000002b0: cd3a ccbc 5db5 bf3c 65f5 2b3d af8f 323d
000002c0: 4deb ecbb 00b8 643c 002d 15bd d7d6 cc3c
000002d0: 3375 25ba 8d0b 323c 671b bcbb a0e2 5e3c
000002e0: 00ce e13b 2d23 febc a0b8 1f3c e39d c13c
000002f0: 3099 313d cd32 583b 98e4 1fbd 0d3a ea3c
00000300: dd8a b33c 2d5b 563c fa9f 75bc 088b 01bd
00000310: 4d4b 083b 7b0d 2abd 2022 983c 9f46 17bd
00000320: fac3 883c 1a73 023d 424b 17bd cd55 6abc
00000330: e0c6 983c bd96 31bd 2dd0 f73c 406c 823b
00000340: 4db6 233d 5a6c 793c 7316 d9bc b228 143d
00000350: 43d8 0a3d fdc8 d0bc bac2 803c 50ad c5bc
00000360: 6784 8ebc 1adc 2a3b 202d 9ebc 7d52 0abd
00000370: 9d82 953c b04c 07bd 9514 12bd 80ad 443d
00000380: 8238 363d 90f9 1ebd 9745 8b3c fa32 053c
00000390: 7d6c c13c 6fd8 36bd 2db5 27bc c0d6 8e3b
000003a0: cd5d 6ebc 07f6 d5bc 00fb 5fbc c0c2 b33c
000003b0: 93a9 5cbc 2dd9 583c 7ba1 183d dfa7 0b3d
000003c0: eab9 94bc 8aa5 06bd 07c6 20bc 6780 d6ba
000003d0: 7a4f 1ebc 5a01 efbb 404e 2cbc 67dd e4bb
000003e0: 330f 54ba bdab dc3c b3ec 983c da72 6fbc
000003f0: 7220 27bd 6039 4bbc 2782 353c b326 8fbb
0.029243523 -0.03929946 -0.04311517 -0.031899292 0.029195411 0.00062052015 0.049080294 -0.0022493303
0.0325745 -0.043116778 -0.045296397 0.04709688 0.013459623 -0.027105583 -0.0039829076 -0.011121559
-0.019877804 -0.020058876 -0.031241834 -0.0063754143 -0.03528843 -0.011210549 0.020136625 -0.007247144
-0.02182035 0.027926683 -0.046903063 -0.041741084 0.036823887 0.00032633543 -0.033864 -0.007583475
0.03539623 -0.039616585 0.047127385 0.03484511 0.04595993 0.04287185 0.029735774 0.0074289083
-0.008259714 0.043333173 0.020620484 0.014679849 0.023409313 -0.0055648447 0.033848245 0.005352235
-0.024212701 -0.022276426 0.039950963 0.032333475 0.009620505 0.02758928 0.03040499 -0.002245754
0.007692009 0.020923888 -0.028264392 0.048288673 0.001312697 -0.032855995 -0.015587247 0.01255281
0.010773576 -0.024501061 0.030923456 -0.022904528 -0.047626168 0.00811959 -0.02232266 0.027719444
-0.029202605 -0.03592409 -0.038224306 0.029551774 -0.026301598 -0.04839545 0.046082776 0.015521801
-0.005816329 0.03692314 -0.043875843 0.04183806 0.0016411185 -0.007996703 -0.022478456 0.0466129
-0.04590834 -0.03972887 0.00913989 -0.04481879 0.012795234 0.005227101 -0.03682506 -0.00116902
0.011728632 -0.029296292 -0.031181812 0.021303838 0.015897287 -0.010447479 0.038098693 -0.03884954
0.026573533 0.004055953 -0.0023792745 0.025045604 -0.031619668 -0.007448566 -0.04271517 0.02321574
-0.00097097753 -0.0042271675 0.0073092105 -0.022289544 -0.043909173 0.004394603 0.04925694 -0.0077245533
-0.038754445 -0.010958142 -0.030727183 -0.017421914 0.017127885 0.04993371 -0.0017186761 0.034257766
0.038803857 0.04570197 0.02196232 -0.03794517 -0.04250843 -0.01348666 -0.01600948 0.026915003
0.042834878 0.007871824 -0.020351952 -0.028258502 0.016034765 -0.031442817 -0.02847898 0.034998365
-0.04847161 -0.03465463 -0.035316702 0.004894978 -0.012411046 -0.044766318 -0.025525516 -0.01950112
0.01191687 0.02768656 -0.029084159 0.010077936 0.018887132 0.041654415 -0.02985899 -0.049719244
0.0036803186 -0.030605806 -0.01517036 -0.012412185 -0.026270723 0.0032612204 0.03623351 0.014779115
0.03364222 0.0260305 0.008214426 -0.005312258 -0.024930382 0.02340191 0.041982073 0.04359406
-0.0072301985 0.013959885 -0.03641987 0.025004787 -0.00063117145 0.010867012 -0.0057405713 0.013603836
0.006891012 -0.031022632 0.009748608 0.023634857 0.04335898 0.0032989264 -0.039036363 0.028592134
0.021916801 0.013083261 -0.014991755 -0.03162673 0.0020796836 -0.041516762 0.01857096 -0.036932584
0.016695011 0.03184805 -0.036937006 -0.014302683 0.018649518 -0.043356646 0.030250633 0.0039801896
0.039968777 0.015223587 -0.026499962 0.036171623 0.03389765 -0.025486464 0.015717853 -0.024130493
-0.017397119 0.0026071132 -0.019308627 -0.033770073 0.018250758 -0.03303212 -0.03566416 0.048017025
0.044487484 -0.03881222 0.017000956 0.00812983 0.023611302 -0.04464 -0.010236067 0.0043590963
-0.014548731 -0.026118292 -0.013670683 0.02194345 -0.013468164 0.0132353725 0.037263375 0.03409564
-0.018155057 -0.032872714 -0.009812838 -0.0016365171 -0.009662503 -0.0072938623 -0.010516703 -0.006984401
-0.0008089423 0.02693736 0.018667554 -0.014614785 -0.040802427 -0.012403816 0.011078394 -0.004368627

fc1.bias f4 [120]
00000000: 5d16 acbc 87fb 1a3c 00b6 36ba 73f5 2dbc
00000010: f74a 2dbd da00 4f3c 6d9e 66bc 8a93 ff3c
00000020: b31e 7cbb 6768 06bd d09e 16bd e723 1abc
00000030: 1a42 163b 37f4 f6bc cdc5 4e3c dfff 453d
00000040: 580c 133d c79b 15bc cd8d 93bb 977a 933c
00000050: a087 33bc 33cd dcbc dd8a c7bc 4bdd 34bd
00000060: 772c bcbc 652e 153d ad91 a5bc 00f0 90bb
00000070: 278c 32bc 9772 b63c 3afc 65bc 7320 25bc
00000080: 7dd1 a53c 0348 463d e743 fabc 0d6c 44bd
00000090: 8d68 aabc c819 4b3d 9876 24bd 53e9 6dbc
000000a0: 1357 773c 03d9 3ebd ba2e 19bc 07f9 d0bc
000000b0: 08d4 073d 20bb 2f3d 8abe 95bc 689e 32bd
000000c0: 8d0b 38bc 0d83 9e3c 1b29 3bbd f7b5 46bd
000000d0: 9a4e 603c 33bc dbbc 3337 e03c cd53 f83a
000000e0: 176a 82bc 1a32 0bbd cd2c e638 ea14 40bd
000000f0: 6712 d0bb 00f2 0e3a b71f f6bc 1524 1d3d
00000100: 326d 2a3d 5a4c eabb aa89 8dbc c8b8 403d
00000110: c74d 1e3c f8c8 0fbd fa95 0e3d 67a9 c53b
00000120: 0b5b 2c3d 90f4 8a3c 7a4e f9bc 332f 1fba
00000130: 52b4 1cbd 80d3 efbc 0d88 833c 9a7c b33c
00000140: ddf5 99bc 9a71 83bb 6a25 953c 7a1a 33bd
00000150: 655e 0d3d 50b0 f13c f08b 9c3c 9a25 49ba
00000160: 1aa9 3fbd b0ca 853c 703f d63c 271c 96bc
00000170: 2d40 6bbc f3e1 b5bc b892 17bd 27fe 643c
00000180: d71b b53c 3bfe 1dbd 3af0 cd3c e7d3 313d
00000190: 1ad2 ff3b f335 8d3b f85f 253d 684c 45bd
000001a0: ba49 3e3c 85dd 353d 7032 a83c a360 c53c
000001b0: cda4 1b39 a7c1 0cbc 40d8 b83b 0a24 b73c
000001c0: 0dcd 5abc da9f d0bc 8370 0bbd f381 9e3b
000001d0: c724 a33c df28 4c3d 0f33 143d fa3a 473d
-0.021006757 0.009459383 -0.0006969869 -0.010617602 -0.04230782 0.01263448 -0.014075858 0.031198282
-0.0038470447 -0.03281441 -0.03677255 -0.009407974 0.0022927583 -0.030145748 0.012620402 0.04833972
0.035900444 -0.0091313785 -0.004502988 0.018002791 -0.0109576285 -0.026953315 -0.024358207 -0.044156354
-0.022970421 0.0364212 -0.020211065 -0.0044231415 -0.010897673 0.022271438 -0.014037186 -0.010078537
0.020241493 0.04840852 -0.030549956 -0.047954608 -0.020801807 0.049585134 -0.040152162 -0.014520961
0.015096444 -0.046593677 -0.009349519 -0.02550937 0.033161193 0.042903066 -0.018279333 -0.0436081
-0.011233223 0.0193496 -0.045693498 -0.04851338 0.013690615 -0.026823139 0.027370071 0.0018945873
-0.015919728 -0.033983327 0.000109755994 -0.046894945 -0.00634985 0.0005452931 -0.03004442 0.03836449
0.041608043 -0.007150215 -0.017277557 0.04705122 0.009662098 -0.035103768 0.034810998 0.006032157
0.042079013 0.01696232 -0.030432928 -0.0006072402 -0.038257904 -0.029275656 0.016056085 0.02191
-0.018793995 -0.004011345 0.018206317 -0.043726422 0.03451385 0.029503018 0.019109696 -0.00076731446
-0.046792127 0.016332 0.026153296 -0.018323971 -0.014358562 -0.022202468 -0.037005156 0.01397661
0.022108002 -0.03857253 0.025138963 0.043414976 0.0078070285 0.0043094098 0.040374726 -0.04816857
0.0116142575 0.04440071 0.020531863 0.024093932 0.00014843345 -0.008591092 0.0056410134 0.022356052
-0.013354552 -0.025466848 -0.034042846 0.0048372685 0.019914998 0.049843665 0.036181506 0.04864023

hash1.weight f4 [64, 120]
00000000: 4ae1 b93d e756 053d fd6f ba3d 4acf f33c
00000010: 0d3b 80bd 3806 773c 7650 b73d 4d18 8cbc
00000020: 8801 113d 383d 5ebb f6ac e3bc 6881 9bbd
00000030: bd36 f73c 0b8b 98bd 7463 a13d 4db7 0fbd
00000040: 8815 0238 a446 403c 1c0f 94bc 0286 c13c
00000050: e7f0 9dbd bb2c daba 02a9 23bd c7dc a43d
00000060: c670 53bc 46fd f3bb cfd4 32bd a671 13bd
00000070: bb81 b63d ceaa ce3c 18c0 b8bc be47 ab3d
00000080: eb4b b8bd bef4 463d 6ae2 303d 12f7 4abd
00000090: f79b b8bd 282a 9c3c 2006 79bd 3fec 793d
000000a0: 18ea 493d d2f7 4f3c 1526 9ebd 8602 9c3d
000000b0: eb7c 74bd 02ba fabc 3630 b93d 4ae5 b3bd
000000c0: eec4 57bd 0dbc 80bd ece9 95bd 6a8f 77bd
000000d0: a91e 2c3d c0bc 983d 4d15 9cbd 69d5 073d
000000e0: 4ad9 91bc 9f49 8ebd 9ae4 b63c 9563 fd3c
000000f0: 6c79 7abd 362e 933d 707f aa3d 3955 203d
00000100: 4255 a63d aea2 913d a83c 8fbc a97e 6cbd
00000110: b0d2 05bd aa8e 553d 79d2 d03c 3e1f 8dbd
00000120: 9120 11bc 9164 893d 6da9 79bc 3372 253c
00000130: c693 edbc 771d 1f3d e8b3 acbd f8a2 1e3d
00000140: 8c6b 093d ab92 273d 13c4 463d df06 50bd
00000150: 95cc cbbb 019b 8e3d b3ad 433d cfbb 98bd
00000160: a95d bbbc 98bf 993c 96f6 8ebd f309 a5bd
00000170: d760 3d3c 9856 e7bc 0f11 173d 03d7 483d
00000180: fbeb d43b aaf2 34bd bb61 a6bd 8dd1 bb3c
00000190: cbd0 213d 02d4 35bd 9b11 0d3d 123d 80bd
000001a0: db03 973d 1cf2 bc3a 30a8 7fbd 7b51 2fbc
000001b0: 1b39 ea3c 5544 4d3d 16b7 733d 54af de3a
000001c0: 2184 663d 9b48 0cbd dbba 54bd e5ce 7cbb
000001d0: bbc1 2cbd 5a2c 133d e036 84bd df12 ccba
000001e0: 98dc 843d 3fd8 9bbd 648d 223d 6ce3 95bd
000001f0: 8010 623c c302 62bc c599 17bd 8191 073d
00000200: a5c8 793c 8d6b db3c ac1e 82bd d243 b2bd
00000210: 82a6 703d 2d06 e9bc ef60 d63c b49c acbd
00000220: f091 583a d108 873d f591 9dbd 7be3 e63c
00000230: 9ef8 2cbd 18fa 743d 5077 d43c 860c b9bc
00000240: 93d0 753d 1893 a1bd 6391 8a3c 9d40 5c3d
00000250: 24b0 b33d 1ac4 163d 7022 923d 9e9f abbd
00000260: 5e3c 9c3c e860 b43d 47fc d93c 13a5 82bd
00000270: 51dd 803d 75ac a3bc f08f d7bc 8c27 4cbc
00000280: 7134 10bd e98f 48bd 8e77 58bd 0f99 3cbd
00000290: a923 543d 2b49 3bbd 006e a0bd e9f7 6b3c
000002a0: 479e 523d 5791 77bc b1fc b53d 5a0f 993d
000002b0: 14bd b7bd 6313 0d3d 098f 943d d61c 943d
000002c0: fa3a 2ebd cad2 443d 5b4b 65bd 095d 0ebd
000002d0: 26ef 173d 3a35 723d 4169 2dbd d969 0d3d
000002e0: 0aed e9bc 88e5 6d3d 25d7 b23d 7ff8 9cbd
000002f0: 08fd 523d 39d9 08bd 3f51 0a3d a3dc 64bd
00000300: 3637 4ebd 98a8 853b e7f7 de3b b2b2 03bc
00000310: f057 9fbd 6743 ab3d bb27 68bc 153d 5bbc
00000320: bd7d a6bc c786 cd3c 477e 7c3d 78f8 413d
00000330: 200c a13d 4d41 08bd 5281 70bd 415c 643a
00000340: 843b 673d 65b0 81bd 3b3b b43d 7376 5cbd
00000350: 6ba4 4f3d 4f57 15bd 8d4a 23bb 067b 463d
00000360: e722 683d 3a96 78bd b678 96bc b3a0 e93c
00000370: 15f8 b8bd 6b10 37bc 5046 7dbd bd71 a8bd
00000380: 90ed 86bd 4483 043d 5068 b6bc feb1 a73c
00000390: 5bba 51bd 7c8c 4b3d 7149 98bd 67f6 8c3c
000003a0: 27e9 b53d 15ca 1a3b 8829 ab3b 740a d73c
000003b0: 9642 b7bd cc67 eabc a4f1 23bd 75d5 80bc
000003c0: 73ce 89bd 9025 0cbd 1e8c d83c b4f5 82bd
000003d0: 9082 5ebd a5c3 1dbc 3094 043d 56b9 f03c
000003e0: cc3d b93d 51f3 ff3a 59f0 77bd e598 98bd
000003f0: 1e10 8b3d 81ae 99bd e2d5 9cbd b282 d53a
0.090761736 0.03255358 0.09103391 0.029761929 -0.06261263 0.015077166 0.089508936 -0.017101431
0.03540185 -0.0033911 -0.027792435 -0.07593042 0.030177468 -0.07448395 0.07880297 -0.03508692
3.1014468e-05 0.011735592 -0.018073611 0.02362347 -0.07711964 -0.0016645411 -0.0399561 0.080499224
-0.012905305 -0.007445964 -0.04365998 -0.035997055 0.08911463 0.02522793 -0.022552535 0.08363293
-0.08998855 0.048573248 0.043184675 -0.04955203 -0.09014123 0.01906307 -0.060796857 0.061016317
0.049295515 0.012693362 -0.07722107 0.07617669 -0.059689444 -0.030606274 0.09042399 -0.08783968
-0.05267804 -0.06285868 -0.07320008 -0.060439505 0.042021427 0.07457876 -0.0762125 0.03316251
-0.017803807 -0.06947636 0.022325803 0.030931273 -0.061150953 0.071865484 0.08325088 0.039143775
0.081217304 0.07111107 -0.017484978 -0.05773798 -0.03267163 0.05213801 0.025490986 -0.068907246
-0.008857862 0.06708635 -0.015238148 0.010098028 -0.029001128 0.03884646 -0.08432752 0.038729638
0.03354983 0.040911358 0.048526835 -0.050787803 -0.0062194564 0.069631584 0.047773074 -0.07457697
-0.02287181 0.018768117 -0.06980626 -0.08058538 0.011558733 -0.028239533 0.036881503 0.049033176
0.0064978576 -0.044176735 -0.08124109 0.02292707 0.03950576 -0.04439164 0.034440618 -0.06261648
0.07373782 0.0014415416 -0.062416255 -0.010700579 0.028591683 0.050113995 0.059500776 0.0016989508
0.05627835 -0.03424893 -0.05193601 -0.0038575467 -0.042176943 0.03593097 -0.06455779 -0.0015569589
0.064873874 -0.07609605 0.03968562 -0.07318768 0.013797879 -0.013794604 -0.03701188 0.033097748
0.015245591 0.026784683 -0.063535064 -0.08704342 0.058752544 -0.028445328 0.026169268 -0.08428326
0.00082614925 0.065934785 -0.07693855 0.028184643 -0.042229287 0.05980882 0.025935799 -0.02258898
0.060013365 -0.07889384 0.016915029 0.053772558 0.087738305 0.03680811 0.07135475 -0.08380054
0.019071754 0.08807546 0.026609553 -0.06379142 0.06292213 -0.019979695 -0.026313752 -0.012460601
-0.035206262 -0.04896537 -0.05284839 -0.046044406 0.05179182 -0.045724075 -0.07833481 0.014402368
0.051420476 -0.015110335 0.08886088 0.07473631 -0.08971611 0.034442317 0.07253844 0.072320625
-0.042536713 0.048052587 -0.055980068 -0.034756694 0.037093304 0.059132792 -0.042336706 0.034524772
-0.028555412 0.058080226 0.08732442 -0.07664584 0.05151084 -0.033410285 0.03376889 -0.055874478
-0.050345622 0.004078936 0.0068044546 -0.00803821 -0.077804446 0.08362465 -0.014169629 -0.013381262
-0.020323629 0.02508868 0.061643865 0.0473561 0.07863641 -0.0332654 -0.05871708 0.00087112567
0.056453243 -0.06332473 0.0880036 -0.0538239 0.05069391 -0.036460217 -0.0024916262 0.048457168
0.05667391 -0.060690142 -0.018368106 0.02851901 -0.09031693 -0.011173348 -0.061834633 -0.08224819
-0.0658828 0.032351747 -0.022266537 0.020470615 -0.051203113 0.049694523 -0.07435883 0.017207338
0.08882361 0.0023618985 0.005223457 0.026250102 -0.08948247 -0.028613947 -0.04002537 -0.015726784
-0.0672883 -0.03421551 0.026434 -0.063945204 -0.054323733 -0.009629165 0.032367885 0.02938525
0.0904499 0.001952747 -0.060531948 -0.07451037 0.067901835 -0.07503987 -0.076579824 0.0016289561

hash1.bias f4 [64]
00000000: b1c0 a6bd 690b 893d f265 293d 809b 92bc
00000010: e2d9 113d 0060 0a3d 716d ef3a 27c1 02bb
00000020: 45d8 61bd 8e17 93bd cf60 22bd 2687 4cbd
00000030: 1e14 b73d 825a f93b 0466 9cbd 6adb 39bd
00000040: e43e e03b 085f 9fbc d225 973d 924f f1bc
00000050: 091c 9b3d 051a f0bc cf8d b4bd daec 72bd
00000060: c603 a3bd 4b82 463d 82b9 3fbc f3fc 0b3d
00000070: 2083 f4bc a0b8 8fbb 5636 5a3d 9725 2dbc
00000080: 6a4a 323d e4d3 23bd 1e74 913d db16 37bd
00000090: 3d81 973b 9eb6 c4bc c76c 9fbd cf7e a7bd
000000a0: 0ab2 993c 169c 793d 0039 ae3c 6be4 9abc
000000b0: 1dcb 57bd 0c79 533d a9d3 e1bb 4234 b8bd
000000c0: c6ad 4bbc 5771 8abd 50b9 773d b00f 1e3d
000000d0: 05d2 f7bc 8b33 b43c 3c30 8bbd 2b2e 653d
000000e0: 6cd7 b43d d539 d43c cfb5 c53c 04fe 9c3d
000000f0: 81ef 03bd 0568 a53d 693f 693d 2b0a 26bd
-0.08142222 0.066916294 0.04135699 -0.017896414 0.03560818 0.03378296 0.0018266869 -0.0019951554
-0.05513789 -0.07182227 -0.039643105 -0.049933575 0.08939384 0.0076096663 -0.076366454 -0.045375265
0.0068434346 -0.019454494 0.073802605 -0.029456887 0.07573707 -0.029309282 -0.0881611 -0.05930791
-0.07959704 0.0484641 -0.011701943 0.034176778 -0.029847682 -0.0043860227 0.053274475 -0.010568044
0.043527998 -0.039996997 0.07102226 -0.04469953 0.0046235607 -0.02401286 -0.077844195 -0.08178484
0.018761653 0.06093987 0.021267414 -0.018907746 -0.05268394 0.05162911 -0.006891687 -0.089943424
-0.012431568 -0.06759899 0.060479462 0.03858918 -0.030251512 0.021997234 -0.06796309 0.055952232
0.08830151 0.025906483 0.024134545 0.07665637 -0.03221083 0.08076481 0.05694524 -0.04053704

fc2.weight f4 [10, 64]
00000000: 78d7 bcbc d661 afbd 4082 573d 940a fe3d
00000010: 88bb 703d d4af 6abd 9c7e 473d 982f 9abc
00000020: 00e3 1e3a 143c 94bd 6e3f bfbd c87e 0fbd
00000030: 6889 8abd 80d5 f4bb 08c5 433d c86a 21bd
00000040: 0444 a63d 38fe b4bd 7063 87bc 5cef 8bbd
00000050: 58b6 a23c d04b 1ebc 5ab7 a0bd cc8e aebd
00000060: 6033 023c 8016 653c da4e d23d 2462 65bd
00000070: 3036 b53c dccc de3d c0b5 403c b216 dbbd
00000080: 9858 523d 1825 c9bd ca23 adbd c2d7 f13d
00000090: 609e a9bd a063 873c 2818 3a3d 90a4 f5bc
000000a0: 8467 8b3d ca25 c7bd 845e 263d a44e ff3d
000000b0: fc67 a13d 7c90 41bd b0ac 2bbc 0012 e03b
000000c0: a8b6 fd3c 02b4 acbd 207c 9cbd 808e e5ba
000000d0: 1caa 4b3d c0ae df3c a642 f93d a41c a23d
000000e0: e895 69bd f256 c43d 3a2d 90bd 3a76 9a3d
000000f0: 5644 84bd e466 5abd 2036 ae3d f8cd 59bd
00000100: 4af3 ed3d 6423 233d e81d 673d d86a febc
00000110: b453 623d a02f acbb 8ac9 a33d f253 c23d
00000120: daf0 b6bd 000a c6b9 6c12 a9bd 34a2 693d
00000130: 5c43 46bd 60a4 af3c 44a8 70bd aabd a2bd
00000140: 4427 7cbd 943b f6bd a6ca ac3d ec52 9d3d
00000150: cc90 debd 6ac2 92bd bc0b 363d ba77 b3bd
00000160: 0ce3 11bd 4a80 ff3d 8645 8dbd c40e 93bd
00000170: 88e7 08bd 0496 653d 50d5 af3d e23a c6bd
00000180: 1c1f 013d 1c51 7f3d 1027 353c f47c e03d
00000190: 1034 343c 9807 06bd 5496 49bd ac4b 953d
000001a0: 9015 f93c 00a6 19bb d8de 8c3c 24fc 25bd
000001b0: 48c4 d5bd d049 b1bd c4e0 553d 4c65 133d
000001c0: 101e e2bd 827c cfbd a08a 863d 1089 7fbd
000001d0: 1026 0f3d c438 8ebd 7473 003d fa9e ab3d
000001e0: 466d d0bd 0cb9 7e3d f064 f3bd c853 d1bd
000001f0: 4887 a2bd d83e 913c 068a 95bd 2832 2fbd
00000200: 8011 4a3b 6c3e bd3d e866 af3c 62e3 ac3d
00000210: 04ef 783d 88d0 93bd 0cf4 3cbd b8f2 773d
00000220: f081 673c e8ea f8bd d2ea 9a3d 9c8d 6a3d
00000230: 6e4b d73d 7012 16bc ba8a cabd c09c 2ebc
00000240: 460d f5bd 24c4 7c3d 5e6e e0bd 660a 823d
00000250: 120c a43d bcf2 c8bd bc3c f4bd 18dd 88bc
00000260: aaa8 e7bd 2492 c53d c26b 9abd aced c93d
00000270: e8fc 81bd 1417 0d3d f6ea 96bd f4a5 4d3d
00000280: 5c36 483d 18c3 293d 8c47 853d 88fa bf3d
00000290: 6cf2 b8bd 2e01 e3bd 9ef7 cebd e6d7 933d
000002a0: 70ca 073d 8cdb 58bd 6e9c 9dbd d8eb e9bd
000002b0: 4e5b 91bd 2c5a 943d 380f 98bd a4c7 f43d
000002c0: 18ea a13d d0f0 84bd e012 aa3c a895 0b3d
000002d0: c24d bcbd 22e6 823d 606c 94bb 12ca dd3d
000002e0: 9211 e2bd 00e4 45ba 6286 f9bd ac67 b9bd
000002f0: 903b ecbc d48c dc3d d011 44bc fce7 3b3d
00000300: a860 5abd b03f 18bd 3476 6c3d 10c3 823c
00000310: 3c91 523d 0029 9e3b 9057 4f3d 2c58 463d
00000320: 8692 a5bd 24c3 3e3d 5859 75bd c0f5 373b
00000330: 70e7 ff3c 4083 29bd 5089 91bd d468 643d
00000340: dcd7 a83d c40f cfbd 80df d03a 304c 293c
00000350: 44af 423d 36cb f13d 6c98 97bd f4dc 4cbd
00000360: 669e ccbd 00a1 36ba 505e 0a3d 266f e4bd
00000370: 429f de3d 60d5 0f3c f867 d73d ae11 d63d
00000380: 2417 3f3d 98cf 91bd 20cc 9d3d e834 0b3d
00000390: e099 913c 968e 903d c856 b73d e468 553d
000003a0: 2eec c13d 504d 863d 54b6 dfbd 70f8 59bc
000003b0: 303e fabc 7c21 ecbd 0048 e0bc 9eab 8d3d
000003c0: b854 673d c459 42bd 4011 e9bb 4066 40bb
000003d0: b45c fa3d 2004 abbc aec1 c0bd 8c41 413d
000003e0: a028 843b 9c26 ea3d 840f 5abd 6049 88bd
000003f0: d8ca c5bc c83e 693d 683a 42bd 9427 bcbd
-0.023051962 -0.085635826 0.05261445 0.12404361 0.058772594 -0.05729659 0.04870473 -0.018821523
0.00060610473 -0.072380215 -0.0933827 -0.035033017 -0.067644894 -0.0074717402 0.047795326 -0.039408475
0.08118442 -0.08837551 -0.016526908 -0.068327636 0.019862339 -0.00966163 -0.078474715 -0.0852333
0.007946819 0.013982415 0.10268946 -0.056001797 0.022120565 0.108789176 0.011762083 -0.10697688
0.05135402 -0.09821528 -0.08454092 0.11808731 -0.08282161 0.016526997 0.045433193 -0.029985696
0.068068534 -0.097240046 0.04061748 0.124661714 0.078811616 -0.04725693 -0.010478184 0.0068380833
0.030970886 -0.08432771 -0.076408625 -0.0017513782 0.049722776 0.027305007 0.12170915 0.07915619
-0.057027727 0.09586896 -0.07039876 0.07542081 -0.064583465 -0.05332078 0.08506417 -0.053174943
0.11618669 0.039828673 0.056425005 -0.031056806 0.055255607 -0.005254701 0.07997425 0.094886675
-0.089326575 -0.00037772954 -0.08255467 0.057039455 -0.048404083 0.021440685 -0.05875422 -0.07946332
-0.061560884 -0.120230824 0.084370896 0.07681832 -0.108674616 -0.07165988 0.044444785 -0.087630704
-0.03561692 0.12475641 -0.06898026 -0.07180551 -0.03342393 0.05605127 0.08585608 -0.096792
0.03152381 0.06233321 0.0110566765 0.10961333 0.010998741 -0.032722086 -0.04921563 0.07289824
0.03040579 -0.002344489 0.017196104 -0.040523663 -0.10437828 -0.08656657 0.052216306 0.035985276
-0.1104089 -0.1013117 0.06569409 -0.062386572 0.03494841 -0.06944421 0.031360105 0.08379932
-0.10177092 0.062188193 -0.11884487 -0.10221058 -0.07935959 0.017730162 -0.073017165 -0.042772442
0.0030833185 0.09240422 0.021411374 0.08441807 0.060774818 -0.072175086 -0.04613118 0.06053421
0.014130101 -0.1215418 0.0756432 0.057263955 0.10512434 -0.009159669 -0.09889741 -0.010657489
-0.11965422 0.06171049 -0.10958551 0.063496396 0.08010115 -0.09811923 -0.11925647 -0.016706988
-0.11311467 0.09647015 -0.075400844 0.098597854 -0.06347066 0.034445837 -0.07369034 0.050207093
0.048879966 0.04144582 0.06507787 0.09373957 -0.09030613 -0.110842094 -0.10105823 0.07218914
0.033152044 -0.05294375 -0.07695852 -0.11421937 -0.07097493 0.072437614 -0.07424778 0.11952141
0.07905978 -0.06491244 0.020760953 0.03407827 -0.091945186 0.063915506 -0.004529521 0.108295575
-0.110385075 -0.0007548928 -0.121838346 -0.09052977 -0.028836995 0.10769048 -0.011967137 0.045875534
-0.053314835 -0.037170112 0.057729915 0.015962154 0.051408038 0.004826665 0.050620615 0.04842393
-0.08084588 0.04657282 -0.059899658 0.0028070062 0.031238288 -0.041384935 -0.071062684 0.055764034
0.08244297 -0.10110429 0.0015935749 0.010333106 0.047530428 0.118063375 -0.07402119 -0.050015405
-0.099911496 -0.000696674 0.03378135 -0.111540124 0.1087022 0.0087789 0.10517877 0.10452591
0.046652928 -0.071196735 0.077049494 0.033986002 0.017773569 0.07058446 0.08952099 0.052101985
0.09468876 0.06557715 -0.10923448 -0.013303861 -0.030547231 -0.11529824 -0.027378082 0.06917499
0.05647728 -0.04744889 -0.007112652 -0.002935782 0.12224713 -0.02087599 -0.094119415 0.04718165
0.004033163 0.114331454 -0.053237453 -0.0665462 -0.024144575 0.05694464 -0.04741898 -0.091872364

fc2.bias f4 [10]
00000000: 701d 64bd 7c07 46bd f683 b93d d61f db3d
00000010: ccc8 cebd 8a36 e23d 9cd1 143d 40de 923c
00000020: 18bb 953d 2e2d bdbd
-0.055692136 -0.04834698 0.09058373 0.106994316 -0.10096893 0.11045559 0.03633271 0.017928243
0.07311076 -0.09237133
